LARA/weight/d_0.pt (torch, 94631 bytes, 7 tensors)

D_attr_matrix.weight f4 [36, 5]
00000000: ba69 85bd 2589 713e 7f89 00bf 90d9 b63e
00000010: 7942 c33d 506b d43e 1bfa d93e 5625 283e
00000020: 81d5 853e 4079 973e 8779 123f 1512 36be
00000030: dbc3 28be 2458 7a3d 074f 993d 1eb4 f03c
00000040: deac 5cbe 63bc 0b3d d1fb f93c 560b 093e
00000050: 84be 01be 7734 b5be 2bb5 d8bd fa2b 02be
00000060: bdec 24bd c647 06be 2c07 813e 9006 213e
00000070: 8c57 13bd 970c 32bd 5657 c63e fb74 3cbd
00000080: 00dd 873c a78e c43d a112 b2bd a08f 853e
00000090: 72c6 883d afd9 043e b332 bc3e 5f97 25be
000000a0: 67ba 50be f19a a83e da82 13bc 26aa 133d
000000b0: 7391 3bbe 9fc0 21bd 10f3 d33d 772a c8bd
000000c0: 4c58 b7bd d4df 16bd 4ed9 043c 7739 08bd
000000d0: 71a1 72be b26d 9e3e bfc8 453d 432a 72bc
000000e0: 8414 0c3e 06c5 043d 8aca f4bc 1616 ac3d
000000f0: 8e88 e73d 7027 493c 187d 213e 00ee e8bd
00000100: 69d1 01be d13e 7ebe f9dc a93e 50dc a03d
00000110: 8daa 7d3e adff 9dbb 568d 6bbe 1451 87be
00000120: a300 00bd 6187 af3d 1ac7 223e 82de 6a3e
00000130: 061e 19be 5035 bebd 6d4e 0a3e 0d8b 6b3e
00000140: b2e1 5ebe 0886 5ebd ca88 c73d 1bc2 bbbe
00000150: fb2e 253e 17eb ad3d c958 0bbe 67f0 5bbd
00000160: 8b6b c2be d552 12be b959 203e 925e dbbd
00000170: cdfb 9d3e 2ef6 943e 8be5 36be c0a5 a03e
00000180: 7d94 89be fabc a0be 154e 923d 08e6 64be
00000190: e6be 09bd f8ae ec3e d998 0f3e ad32 713e
000001a0: db7a f73d deb2 b73d 8130 243f 7166 873e
000001b0: f835 5abe 0cd1 4fbc d59c 92bd 53b7 a3bd
000001c0: 631e 68be 4a12 833c 76a4 753d 94e1 3a3e
000001d0: ff50 93be 9d86 c1be 4721 1dbd 69a2 a0be
000001e0: a7e1 313d 7b59 883d 9182 083e f585 bdbe
000001f0: 46ee 02be 444f 42be 4777 c73e 8585 563d
00000200: ef66 06be 3968 533e 3b3b 673d 3c9f 66be
00000210: 9004 c3bd 5a76 b73d 9a5b babd 7fae 1f3e
00000220: a561 5f3d 2e9c d43d 404b 85be 88c0 ad3e
00000230: 74e1 cdbe e57d 94bd 4e5f 8c3e 3e3b 813e
00000240: 690f e2bd 2bb2 9dbd af26 8bbe a8e2 ed3d
00000250: 337f e33e 3223 a3be 7b5e 823d a89d 263e
00000260: a0f8 883e 12dd 123e 9d9a 4d3e 218f 3bbe
00000270: 97d8 c9be 9166 0f3e 1cdd ae3d b24f a6bd
00000280: 5731 e13c 9113 51be 41c4 03bd 5b5d 813e
00000290: 1e36 c23e 2b16 f03d c680 8d3e 89cf ecbe
000002a0: f866 f1bd 0dc8 66be 7ac5 e1bd a3a9 9a3d
000002b0: 6812 6b3d f966 ebbd 2871 e73d 8c9f 97bd
000002c0: 3007 813d affe b7bd 1c1f 313e 6b80 493e
-0.06514306 0.23587473 -0.502098 0.35712862 0.09534163 0.41488123 0.42573628 0.16420493
0.26139453 0.29584694 0.57216686 -0.17780335 -0.16480963 0.061119214 0.074857764 0.029382762
-0.21550319 0.034115206 0.030515583 0.1338323 -0.12670332 -0.3539159 -0.1058143 -0.12712088
-0.040264834 -0.13113317 0.25200784 0.1572516 -0.035972163 -0.043469038 0.38738507 -0.04601
0.016584873 0.09597521 -0.086949594 0.2608614 0.066784754 0.12973665 0.3675743 -0.16171025
-0.20383607 0.3293071 -0.009003365 0.036050938 -0.18317203 -0.03949034 0.10349095 -0.097737245
-0.08952388 -0.036834553 0.00810845 -0.033257928 -0.23694398 0.30943066 0.04828715 -0.014780584
0.13679701 0.03241446 -0.029881734 0.0840265 0.113053426 0.012277469 0.15770376 -0.1137352
-0.1267754 -0.2482865 0.331764 0.07854521 0.24772091 -0.0048217387 -0.23003134 -0.26429045
-0.031250607 0.08570743 0.15896264 0.22936442 -0.1495286 -0.09287512 0.1350648 0.23002262
-0.21765783 -0.05432704 0.09742887 -0.36671528 0.16131203 0.084921055 -0.13608088 -0.053696062
-0.37972674 -0.1428941 0.15659226 -0.10711397 0.3085617 0.2909407 -0.17861001 0.31376457
-0.268711 -0.31394178 0.07143799 -0.22353375 -0.03362932 0.4622724 0.1402315 0.23554488
0.1208398 0.08969663 0.6413651 0.26445344 -0.2130965 -0.012684118 -0.071588196 -0.07993951
-0.22667842 0.015999932 0.059971295 0.18250114 -0.28772733 -0.37798014 -0.038361814 -0.3137391
0.04342809 0.06657692 0.13331057 -0.37016264 -0.12786207 -0.1897555 0.3895819 0.052373428
-0.13125204 0.20645227 0.05645297 -0.2252168 -0.095223546 0.08958121 -0.09099503 0.15593909
0.05453648 0.103813514 -0.26033974 0.33935952 -0.4021107 -0.07250575 0.27416462 0.2524051
-0.110380955 -0.076999985 -0.2717795 0.11615497 0.44432983 -0.3186279 0.06365677 0.16271079
0.26752186 0.14342144 0.20078512 -0.18316318 -0.39423057 0.1400397 0.08538267 -0.081206694
0.027489347 -0.2041762 -0.032169584 0.25266537 0.37931913 0.11722978 0.2763731 -0.46252087
-0.11787218 -0.22537251 -0.11023994 0.07551887 0.0573906 -0.1149425 0.1130088 -0.07403478
0.06300199 -0.08984124 0.17297024 0.19677894

l1.weight f4 [100, 108]
00000000: b74e bc3d 39ad 253d 006f 273e c76e 09bb
00000010: 87ea 25bd 65e0 5e3d 4d62 5a3e 316d 8b3d
00000020: dfa6 febb 9dcf 113e a53e babd 1e1c f0bd
00000030: 6668 113e 6f96 583d 3726 863d a88e 79bd
00000040: c44f e83d 2461 afbd 8adc a13c 9d94 883d
00000050: b0ff d1bd 05d0 fb3a 1e34 1dbe 58df cabd
00000060: a2fa a6bd 88df 013d 5a39 c43c fd53 813b
00000070: 8d8e 39be 27dd 40bb f665 ce3d 566b 98bd
00000080: fef4 b13d fa5d b33d b41e 6fbc 6829 40bd
00000090: fcf0 a7bd 5609 ccbb 0bea 17be cf29 353e
000000a0: e51a 823c f091 013d ec28 02be 154f 0d3d
000000b0: 787c 9e3d 879f 6fbd 98e9 97bd 0891 aebc
000000c0: 930f f8bc b4e2 1c3d 2de0 a33d b1a5 e8bd
000000d0: a60b 7d3d aa0d 04bd 86f4 e5bc 9aa5 633d
000000e0: 8af9 b4bd bf80 2ebd daa7 d83d 53cd 433d
000000f0: d313 0abd 6de6 da3d d1c5 e93d 6671 e6bd
00000100: 205e 94bc efc0 453d 62ac 6bbd 6c2c 0a3c
00000110: 78f7 f8bd 1925 2c3e 26c2 093e 6a8d 5c3c
00000120: f94e c43c 0b45 d43d d4fc b93d cfcc e3bd
00000130: c52b 22be c664 cfbd 3cc1 2e3c acf6 df3d
00000140: 5335 babd b852 4b3d 0183 c63c affb ee3d
00000150: 7954 c33d c9c4 b2bd a871 3c3e aada a1bd
00000160: 6c95 0dbe 616e 7c3c 6315 ffbd 36d0 9f3d
00000170: 97e5 0f3e a075 15be 5949 123d 83e8 03be
00000180: 772a 11be 869d 403d 74d1 59be 994f cf3d
00000190: 590c 7a3d addd 08be e518 1b3e 642d 19be
000001a0: c9f5 a33d a0fe d6bd 36ac 8c3d 77cf a43d
000001b0: 890c 4b3d 0a42 d6bd 2c7e 3c3d ef8f 9ebd
000001c0: 0181 d13d a46b 4c3e fd20 8abd 510a 0a3e
000001d0: 0b35 9dbb 4c36 97bb fe67 ee3d 4172 dfbd
000001e0: aaf3 07bd 09eb 07bd f836 323d 241f 3c3e
000001f0: a5e3 0fbe 09a1 513c 143d c4bd 01be 5d3d
00000200: 3994 29be c436 873e adb9 09bc d2f7 b4bd
00000210: 171d f0bd 3567 a6bc a3c5 afbd 4d99 b23d
00000220: 5c01 193d 9e88 fd3c 7d9f 843d 686e 263e
00000230: e808 043e 7415 bdbd 6903 b83d fa18 c73d
00000240: ae59 443d 875f 853d 7c56 203e b6fe 1dbe
00000250: 0f18 b5bd fc20 9abd 6624 ae3d 1b8b dbbd
00000260: b14d b23d 34c1 213d 4672 b4bd b4ba 8ebd
00000270: 012d 613e a736 683c 5fdd b53c c048 5f3d
00000280: d478 7f3d 4f82 9e3c 271b fcbd 09c2 2abe
00000290: d75d e3bd 5cca 22bb f838 cbbd 8f73 7a3c
000002a0: 26fa 243e 2916 e0bd 0364 b43d f6f6 5bbd
000002b0: 1daf 87bd 1ac9 25bd 01e3 78bd b38d 003e
000002c0: 8bbc f43c e88e 803d 15da f7ba 9e8e 923c
000002d0: 2548 6f3d 3b85 db3d d408 7ebe 0a79 143e
000002e0: 46ec c03d 2677 963d 6f78 89bd 3bed 263d
000002f0: efd1 4b3d eecd 2cbe 14fa 813d f681 083e
00000300: 5447 00be 6f18 86bd d07c 603c 0a4e 28bc
00000310: 0baa 56be 63c8 143e d17e 143e 3746 e93d
00000320: fdb2 01bd eee0 583d ddbc 553d 6852 7f3c
00000330: 48d6 873d 8736 58bc f017 89bd 8dc0 4a3c
00000340: 77ab 93bd e07c 723d a5f3 edbc 65b0 8b3d
00000350: 4d72 11be dea6 ae3d a4ac 49be 3b22 0cbd
00000360: 7604 cfbd 179d dc3d 010b c73d 9d2a 1abe
00000370: 3d74 12be fd8c 34bb f3f0 ac3c 1216 d6bc
00000380: 2dbe 9dbd f466 08bd b484 2ebe 2da7 853d
00000390: 326d 6e3d 0ddf 0f3d 4354 46bd a19a dabd
000003a0: 0895 103d eaa1 d93d 8ffd 8b3d a53f 6a3d
000003b0: 6952 0a3d 5dad 433e 465a b53d 73e5 5f3b
000003c0: 553a 5ebd 79d8 fc3c 00b0 b93d 1614 653d
000003d0: 4951 f13d 3a18 b3bd d02b a7bd 27b0 84bd
000003e0: 4e54 8bbb 49df d1bc bdbc b2bd 83e1 9b3c
000003f0: f38d bdbc 902f f93c ebee 3f3c 19f8 36be
0.09194701 0.0404484 0.16350937 -0.002097057 -0.040506866 0.054413218 0.21326561 0.06807936
-0.0077713574 0.14239354 -0.0909398 -0.11724113 0.14199981 0.05287784 0.06550258 -0.060927063
0.11343339 -0.0856345 0.019758482 0.06668971 -0.10253847 0.0019211775 -0.15351912 -0.09905881
-0.08153273 0.031707317 0.023953129 0.0039467798 -0.18120785 -0.0029428692 0.10078041 -0.07442348
0.08689307 0.08758159 -0.014594723 -0.046914488 -0.08200261 -0.006226699 -0.14835374 0.1769173
0.015881965 0.031633317 -0.12710923 0.034499247 0.07738584 -0.058501747 -0.07417601 -0.02130939
-0.030280864 0.03830214 0.080017425 -0.11359728 0.061778687 -0.032239594 -0.0280707 0.05557785
-0.08836658 -0.04260325 0.1057889 0.047803234 -0.033710312 0.106884815 0.114146836 -0.11252098
-0.018111289 0.0482797 -0.057537444 0.008433443 -0.12156576 0.16811027 0.13452968 0.01346145
0.023963438 0.103647314 0.09081426 -0.111230485 -0.15837009 -0.10126643 0.010666188 0.10935721
-0.09092202 0.049639434 0.02423239 0.116690986 0.09537596 -0.0872894 0.18402731 -0.07903035
-0.13826531 0.015407176 -0.12455251 0.07803385 0.14052425 -0.14595652 0.03571448 -0.12881665
-0.14176355 0.047025226 -0.21271306 0.10122604 0.061046932 -0.13365813 0.15146215 -0.14958721
0.08005864 -0.104977846 0.06868784 0.08047383 0.0495725 -0.10461815 0.046018764 -0.07742297
0.10229684 0.19962937 -0.06744573 0.13480498 -0.004797583 -0.004614627 0.11640929 -0.10910464
-0.03319136 -0.03318313 0.043509454 0.18371254 -0.14051683 0.012794741 -0.09581962 0.05413628
-0.16560449 0.2640897 -0.008406085 -0.088363305 -0.117242984 -0.020312885 -0.08582618 0.08720646
0.037354812 0.030948933 0.064757325 0.16253054 0.12894022 -0.092326075 0.089850254 0.09721561
0.047937088 0.06512361 0.15657991 -0.15429196 -0.088424794 -0.075258225 0.08503036 -0.10719892
0.08706225 0.039490893 -0.088108584 -0.069692045 0.21989824 0.014173186 0.022200285 0.05451274
0.06237109 0.019349245 -0.123098664 -0.16675581 -0.11101883 -0.0024839854 -0.09922975 0.01528634
0.16111049 -0.10941727 0.08808138 -0.053702317 -0.06625197 -0.04047499 -0.060763363 0.12554054
0.02987506 0.06277257 -0.0018909598 0.01789027 0.05841841 0.10718771 -0.24808055 0.14499298
0.094200656 0.073469445 -0.06712424 0.040753584 0.049760755 -0.16875431 0.06346527 0.13330826
-0.1252721 -0.06547629 0.013701633 -0.010272512 -0.20963304 0.14529566 0.14501502 0.113903455
-0.031664837 0.052948885 0.052182067 0.015583612 0.06632668 -0.013196594 -0.06694019 0.012375009
-0.07210439 0.05920112 -0.029046843 0.06820754 -0.14203759 0.08527921 -0.19694763 -0.034212332
-0.10108273 0.1077215 0.09718896 -0.15055318 -0.14302154 -0.0027549856 0.021110987 -0.02613357
-0.07702289 -0.03330131 -0.1704281 0.06526027 0.058209606 0.035124827 -0.048420202 -0.106740244
0.035298377 0.10626586 0.06835472 0.057189602 0.03377 0.19109102 0.08855109 0.0034163862
-0.05425485 0.030864941 0.090667725 0.05592736 0.11783082 -0.08744855 -0.081626534 -0.06478911
-0.0042519933 -0.025619166 -0.08727405 0.01902843 -0.023138976 0.030418187 0.011714677 -0.17868079

l1.bias f4 [100]
00000000: 3523 98bb 5d55 303e fe72 1cbe fe23 b43c
00000010: b780 aa3d b8f0 febd b532 a23d bb4b 913e
00000020: 2412 40be 6fa8 803e b3e1 93bd f876 80be
00000030: 4fd1 2b3d 6739 c5bd 0536 433e bc86 8fbd
00000040: 20a3 3f3e d1e6 603d 60e7 fa3c 52f7 a33b
00000050: 9a6e 40be 30a2 ecbd f462 2ebd a5a7 483e
00000060: 7997 28bd 4c1e 1b3e 4388 c23d 83da 0abd
00000070: 989a c43d 736e 28be 0aca 993d 964d 243e
00000080: e6cc 733d 1dba 09be 2e00 a3bc 5d75 ffbc
00000090: 6279 c83e a09c af3d d8ea 38be 0992 2abe
000000a0: b2a3 e4bd 5497 583d e634 ea3d 00f3 253e
000000b0: bf0d 9c3d ac2e c83d 0b66 03be 69e5 b5bd
000000c0: 2658 b4bd f8f1 18be c309 143c d005 37be
000000d0: 1f45 973d 322b 00be 635b 4a3e cb34 08bd
000000e0: 8f8c c3bd 63d2 47be b708 8a3e 6c80 8f3d
000000f0: fa6b b1bd b8f7 d7bb 8e85 ae3c fd84 8abd
00000100: b206 5c3e beb0 833d 93a5 a43d fa2f a0bd
00000110: 59e1 853d 6e3c 13bd d296 94bd e61c 803c
00000120: 0ffa 8c3e 5fcb 86bd 5804 063e 85dd b23d
00000130: 4209 81bb 27cf 9c3d e15f 933b d090 173c
00000140: a8c2 93be 55ec f4bc 588e 2ebe 7506 a6bd
00000150: 4c52 6dbe 8870 e23d df5d 893d a4e1 c03d
00000160: a5d8 90bc c1cc b83e 3859 4fbc 6e81 0c3e
00000170: 9fdc 9fbe 055a 9e3c 3191 9cbd 281a d4bd
00000180: 07cd 15bd d36f e93d bd72 42bd c594 7dbc
-0.004642869 0.17220064 -0.15278241 0.021989819 0.08325332 -0.12448257 0.07919828 0.2837809
-0.1875692 0.25128505 -0.07220783 -0.25090766 0.04194766 -0.09630089 0.19063576 -0.070081204
0.18714571 0.054907624 0.030627906 0.005003848 -0.18792191 -0.11554372 -0.042574838 0.19595201
-0.04116008 0.15148276 0.09498646 -0.033899795 0.09599799 -0.16448383 0.07509239 0.16045222
0.05952158 -0.13449903 -0.019897547 -0.031183893 0.39155108 0.08574796 -0.18058336 -0.1665727
-0.11164035 0.052878693 0.11435871 0.16205978 0.07619809 0.09774527 -0.12831895 -0.08881647
-0.088058755 -0.14936054 0.0090355305 -0.17873311 0.07386231 -0.12516478 0.19761424 -0.033253472
-0.09548294 -0.1951385 0.26959774 0.070069164 -0.08663173 -0.0065908097 0.021303918 -0.06763647
0.21486929 0.06430195 0.08039393 -0.07821651 0.06537122 -0.035946302 -0.07255329 0.01563878
0.2753453 -0.06581759 0.13087595 0.08733658 -0.003937871 0.07656699 0.0044975136 0.009250835
-0.28859448 -0.029897848 -0.17046487 -0.081067 -0.23175925 0.1105662 0.067073576 0.094180375
-0.01768143 0.36093715 -0.012655549 0.13721249 -0.31223008 0.019330034 -0.076448806 -0.103565514
-0.036572482 0.11398282 -0.047472704 -0.015477364

l2.weight f4 [100, 100]
00000000: d847 8abc addb acbd c0e5 ef3d 72ec 2ebd
00000010: 2b35 b2bd 2b63 30bc 9642 703d 16ee eb3d
00000020: 5e18 123e f9d1 3b3e b72d 3e3e e2f3 ad3c
00000030: b751 9fbc a67a a23d eaeb 3cbe 6e68 0dbe
00000040: f8eb c1bd ed78 d23b f7d8 893d aab4 df3d
00000050: 285e 1bbe 2cca e1bd c5b4 6dbd ecc5 8f3d
00000060: fd64 d43c f3b9 913c 0306 2abe c01b ca3d
00000070: 16d9 93bd 5aa2 94be e19a 1fbd 6250 e5bc
00000080: 9203 54bd 985a 353d 86f1 e43d 7fae 0d3e
00000090: 20e3 a13d 1438 f0bc e96f 4d3e 83d9 033b
000000a0: aedb 54bd 4316 3bbe 9681 31bc 9a02 eebb
000000b0: 59ab 21be 800d 193e d99d 4dbe fa36 483e
000000c0: 33d8 5cbc 6e9c 9f3c cf5f 693d e7fe a33c
000000d0: 425a 3e3c d4a2 663c b333 fb3c ee3c 68bc
000000e0: 0db0 84bd 2e96 553d c1f3 eebb 6c0d 00bd
000000f0: 81c5 83be de3c 8ebc f94d 2dbe 1b8a 26bd
00000100: 0191 a83c 120c 78bd f764 c43c 8083 2c3d
00000110: da54 13be 8399 0d3e 7d66 4b3d 620d 25be
00000120: 0056 a53d cf65 823d 3e6c bdbd d8ae 15bd
00000130: f00f 7abc 68bb 0ebd 0693 dabd 8e68 16be
00000140: 934c 373e c22c 8abd 6069 30bd b782 f33d
00000150: d70d 2e3d facd 68be 6dfd b3bc 1deb 863b
00000160: 3855 743e 82c5 293d 851e 4dbe f95d 02be
00000170: 1873 27bd 0afa 773d 6ec4 253e 3abd d53d
00000180: d7a3 3dbd 0f6f 2cbd ff0b ab3c ad85 64bb
00000190: 8cac 383e 05b3 c33d de51 293e a8cf cbbd
000001a0: ca64 653d 0fe3 853c 436d 4fba 809d aa3d
000001b0: 573f d5bd 4cc3 9dbd f8e3 14be b56a 7abd
000001c0: 2138 8a3d 608e 9ebd d9aa 9bbb f578 b7be
000001d0: 044a 243d 10a2 c5bd ed77 833d c99f 6fbd
000001e0: 25c7 003d 11c6 0abe d98c b03d 5f55 66be
000001f0: edc0 033c 1b78 163d 7400 18bb 0963 8f3b
00000200: 5245 943c d137 5bbe 67f8 b73d 82ee 32be
00000210: f58a 05bc 0bf1 753e 6439 093c 478a c23d
00000220: dedd 23bd 9432 c2bc ea00 973e fea8 2d3e
00000230: ae44 3bbc 7c63 0bbe c863 82bd 92bf e83d
00000240: 3eb9 e23d 51d5 12bd 2e14 30be 571f b23d
00000250: 3f7e 2dbe 49fb 1b3e 8b79 563d c3a0 e8bb
00000260: f3bf 17bc b55e 283e 7ba0 8c3d 7acc 1cbd
00000270: a2d5 3bbd 22f9 d13d 0f19 8fbd 547a 05be
00000280: 09cd 463e 3fd2 e6ba d048 823c 1311 aa3d
00000290: 4400 9c3d ea4f e63d a5eb a1bd 928d e7bd
000002a0: 2077 453b f147 d53d 0482 673d 575b 1abc
000002b0: 7de9 b93c 392e 813d d000 1a3c 31af acbd
000002c0: e52f 7bbd b42a 843d 9578 883d cb34 72be
000002d0: b849 853d 9f5c 87bd b1af 653d b7a2 92bd
000002e0: b2bd 943d c11f b5bd 75bf 803c 90be 15bd
000002f0: a960 7c3d 9e94 71bc 8c58 33be 0ba3 ca3c
00000300: fd5a 53be f6fd e43c 8c9e 7c3d a806 b2bd
00000310: b792 e93d 4bc1 0a3d 5c8e 60bd 69fc 863d
00000320: 58ea aa3c 9fa6 a53c eda8 083d ca66 b0bd
00000330: e3cf 35bd f147 363d d970 f0bd 2fab ba3b
00000340: d6e4 4a3e d5af f6bc f1ac edbd 16d2 383d
00000350: 298e 733d f465 773e 30f0 8fbd e289 073e
00000360: b24b 003b db15 56bd cd06 54bb 45d1 c8bd
00000370: 454f f6bd 2918 b3bd 380b eebb d77e 87bd
00000380: 02b5 23bd f360 0b3e e620 86bc 7b54 91bc
00000390: 3526 ddbd f351 55be f210 08be e7d8 2b3e
000003a0: 8370 9b3c 0d56 cdbd 29f1 aeba 6e44 773c
000003b0: 94d7 cebd 4186 133d 40fb 213e eecb cabd
000003c0: 3551 323e dcff d5bd f4ea 65bd f0a7 7cbe
000003d0: 5043 55bd 11a7 23bd 691b 723c 1561 ea3d
000003e0: c0f1 3b3d 4fba e93c 84ac d6bd 0eb6 a6bd
000003f0: c9d7 0e3d a576 8abd 6131 8bbd b050 0e3e
-0.01687996 -0.08440337 0.11713743 -0.04270596 -0.08701547 -0.010765831 0.05865725 0.11520021
0.14267108 0.18341817 0.18572126 0.021234456 -0.019448144 0.079335496 -0.18449369 -0.13809368
-0.094688356 0.006423107 0.06730836 0.10923131 -0.15172637 -0.11024889 -0.058033723 0.070201725
0.025927061 0.017788863 -0.16603856 0.09868574 -0.0721914 -0.29030114 -0.038966063 -0.027992431
-0.051761217 0.04427585 0.111788794 0.13836096 0.07904649 -0.029323615 0.20062222 0.002011866
-0.051967315 -0.18270211 -0.010834118 -0.0072634937 -0.1578802 0.14946556 -0.20079745 0.19552222
-0.01347928 0.019483771 0.056976136 0.020019008 0.011618199 0.014076907 0.0306643 -0.014174683
-0.064788915 0.052145176 -0.0072922413 -0.0312628 -0.2573662 -0.017363008 -0.16924275 -0.04065905
0.020576956 -0.060558386 0.023973925 0.042117596 -0.14387837 0.13828091 0.049658287 -0.16118386
0.08073044 0.06367075 -0.09249161 -0.036543697 -0.015262589 -0.034846693 -0.10672574 -0.14688322
0.17900304 -0.06746818 -0.043069243 0.11890166 0.042493667 -0.22734824 -0.021971429 0.004117383
0.23860633 0.041448124 -0.20031174 -0.1273116 -0.040881246 0.06054119 0.16188213 0.10436483
-0.046298828 -0.0420981 0.020879744 -0.0034869716 0.18034571 0.0955563 0.16535136 -0.09951717
0.056004323 0.016343622 -0.00079127046 0.08330822 -0.10412472 -0.077032655 -0.14540088 -0.06113692
0.06748987 -0.077419996 -0.0047505912 -0.3583447 0.04010965 -0.096500516 0.064193584 -0.058501992
0.03143992 -0.13552119 0.086206146 -0.22493504 0.008041603 0.036735635 -0.002319363 0.0043758196
0.01809946 -0.21408011 0.08982926 -0.17473796 -0.008150806 0.24017732 0.008375499 0.094990306
-0.04000651 -0.023705758 0.29492885 0.16958997 -0.011429949 -0.13612169 -0.06366688 0.11364664
0.110704884 -0.035847966 -0.17195198 0.08697384 -0.1694269 0.15232576 0.052362006 -0.0070992424
-0.009262073 0.16442378 0.06866547 -0.03828094 -0.045858033 0.102525964 -0.069872014 -0.13034946
0.19414152 -0.0017610266 0.01590386 0.08304038 0.07617238 0.11245711 -0.07906274 -0.11306299
0.0030130818 0.10414112 0.056520477 -0.009421191 0.022694344 0.063076444 0.009399608 -0.084318526
-0.061324973 0.064534575 0.06663624 -0.23652951 0.06508201 -0.06609463 0.056075756 -0.07159942
0.07262744 -0.08843947 0.015716294 -0.036558688 0.06161562 -0.014744906 -0.17514247 0.024735948
-0.20640178 0.02795313 0.06167464 -0.08692676 0.11404937 0.033875745 -0.054823264 0.06591112
0.020863697 0.020221053 0.033364225 -0.086133555 -0.04438771 0.044502202 -0.11740274 0.005696676
0.19813856 -0.03011314 -0.116052516 0.04512223 0.059461746 0.24159986 -0.07028234 0.13236192
0.0019576368 -0.052266937 -0.0032352686 -0.0980554 -0.12026838 -0.087448426 -0.007264521 -0.0661599
-0.039967544 0.13611202 -0.01637311 -0.017740479 -0.10798303 -0.20832042 -0.13287714 0.1678196
0.018974548 -0.100261785 -0.0013347018 0.0150919985 -0.10099712 0.036016706 0.158185 -0.09902178
0.1741379 -0.10449192 -0.056132272 -0.24673438 -0.052066147 -0.03995425 0.014777043 0.11444298
0.045884848 0.028531222 -0.104821235 -0.08140193 0.034873758 -0.06760911 -0.06796528 0.13897967

l2.bias f4 [100]
00000000: bbe0 8b3d b61e 053e 7f82 283d 33bd 72be
00000010: 604d 333e efcc 2c3a 4cb3 41bd 1ecb 6dbd
00000020: ae5e b03c d2a0 98bd 4fb9 4bbe bdee 313d
00000030: 7d2f cd3d c44e 803e 7abe 513c ad75 5f3e
00000040: 6115 323e 42e6 1f3d 0dcf b4bd e505 ac3e
00000050: ded0 adbb b37f 843e db9b 11be d976 eebc
00000060: 4749 443e c80c edbd c7fa 3e3d 30e1 213e
00000070: 8c3d 393c ad4f 30be 2c2c c6ba 292f 9f3c
00000080: 1f3b 553d e6f1 8ebd 4a05 0fbe 1968 453e
00000090: cb39 3f3d 9101 893e 46b7 cb3d 9cba 753d
000000a0: 6abb b63c fd66 3f3e a1d6 3cba 1e64 2ebd
000000b0: 2e12 04be 619a 21be 1375 a1be 27a2 67bd
000000c0: 795d 8bba 4a1c f23c b2e6 943d a9ef 78be
000000d0: 81bd 6c3d 5aed da3d 35f6 fabc c6cd 28be
000000e0: a79d 653c ae06 093e 6a08 013e ba16 b33d
000000f0: 80a5 8a3c 368c 423e 8871 88be 2361 97bc
00000100: e40a d43e c105 7c3c 21ed 97bc e7b4 723d
00000110: 946f 8f39 c1cf 763d ffcf 5f3c 9d93 77be
00000120: 61bf b23d dc90 3d3e 1555 c3bd 47ac 033e
00000130: 6f5d 353d 6656 cdbd 5bbd 0cbc 1c47 b5be
00000140: 0e0a 0abe 46fe 6abd 768b c5bd 33e1 5cbd
00000150: debd ab3c 83b8 fabd 0d77 583e 881b 083d
00000160: ee96 f73d 9ef2 2c3e 0b7a 92bb 5db0 5fbe
00000170: 1f23 04be 4a4b 0c3e d628 123c 34e1 e83c
00000180: c7c0 5f3d f896 183e 5f07 89be ed50 87be
0.06829973 0.12999997 0.041140076 -0.23704986 0.17509985 0.0006591817 -0.04729013 -0.058055036
0.021529522 -0.07452549 -0.19894908 0.04344057 0.10018823 0.25060093 0.012801761 0.21822233
0.17390968 0.03903795 -0.08828554 0.33598247 -0.00530444 0.25878677 -0.1421961 -0.029109405
0.19168578 -0.115747035 0.04662588 0.15808558 0.011306178 -0.17217894 -0.0015119365 0.019431667
0.052058335 -0.06979732 -0.13966861 0.19277991 0.046685975 0.26759008 0.09947066 0.059992418
0.022306163 0.1869163 -0.0007203613 -0.042575948 -0.1289756 -0.15781547 -0.31534633 -0.056551125
-0.0010632715 0.029554505 0.07270564 -0.24310173 0.057797913 0.106898025 -0.030634979 -0.16484746
0.014014638 0.13381454 0.12600866 0.08744569 0.01692462 0.18998799 -0.26649117 -0.018478936
0.4141456 0.015382231 -0.018545689 0.059254553 0.00027358218 0.060256723 0.01366043 -0.24177404
0.08727909 0.1851229 -0.095377125 0.12858687 0.04427856 -0.10026245 -0.008590068 -0.35405815
-0.13480398 -0.0573714 -0.09645741 -0.053925704 0.02096456 -0.12242224 0.21139164 0.03322938
0.120893344 0.16889426 -0.004470115 -0.21844621 -0.12904023 0.13700595 0.008920869 0.028427698
0.054627206 0.1490134 -0.26763436 -0.2642893

l3.weight f4 [18, 100]
00000000: 3240 243e 664f 103e eba9 94bd 82ed 18be
00000010: 9100 3bbd e414 163e 47e6 083e 4d5d 053e
00000020: e8fb 25bd 0ae0 373d b637 fdbd 5444 4d3d
00000030: ff11 f9bd 3556 86be 4ab3 ce3d 6fee 693d
00000040: 9b49 5f3a b908 3c3d d34f 943d 4046 9f3d
00000050: b1b8 04bb cf4f 1bbe ed4e a23d 8aec 67be
00000060: 4439 89be 8787 32be 1cdd 3a3e 0412 fa3d
00000070: 1bce 18be 29fa 8abd 69ef 8ebe 52b1 2a3e
00000080: d012 303e 2e67 f03d 4c62 e63d d64b 25be
00000090: f937 963d 6763 8a3d dbc0 dfbd 6028 973c
000000a0: 9103 1bbd 92ba 803d ff22 633e 1e5a 02bd
000000b0: 6b6a ca3d ea96 0bbe 402e c23c eaa5 a13d
000000c0: 2107 f3bd ad31 133e 1b77 803d f6b4 dabd
000000d0: 0c8f bebd 80bd 14be fc3a 053d 3025 31bd
000000e0: 31ea 0b3e 6df1 763d 6181 39bd ae4f 1d3e
000000f0: 16ee ef3d f0ac f5bc 9f58 8b3d e12d 0dbe
00000100: de12 6dbd 7de4 ccbd 0eea c0bc 4e8f 81bc
00000110: 0edd cdbd c99a 123d 2703 af3e 6941 30be
00000120: 5f73 e5bd c940 803a 6634 173e b9f8 503d
00000130: 2aa8 bebd 307f f8bc 9622 dc3c 72d5 653d
00000140: e84d 483d 7be8 053e cf0c 1cbd eb77 cdbd
00000150: e7e4 193d 3ffe 82bd ca2a 8dbe 8cea 76bd
00000160: 1047 b23d 0b1a a43d cc25 a03d 3adc de3c
00000170: 2b97 2f3e 0be9 01be f143 713d 837d 08be
00000180: db9b 533c 9c79 a7bd 1174 0f3e f3bb 5abd
00000190: b9fd c9bd ab28 df3d 9cb5 393e b07a 7b3d
000001a0: d559 353e d129 bdbd 804c 0e3d 09a6 dd3d
000001b0: 0b92 8bbe bd31 423c 79e7 22bc edd4 163e
000001c0: 4209 073d fcc4 14be fd92 d73d e570 28be
000001d0: 8c31 2d3d b52a cbbc e4a2 0bbe aba8 4c3e
000001e0: b5f3 7e3e 7817 7fbe a9c2 5abd a72c 23bd
000001f0: 753e fd3d fe2a d53b 04d0 043e 5c65 2cbe
00000200: 353c bfbd 5abb adbd 6bf2 c2bd 6fd6 35be
00000210: 2ef5 8d3c a2a2 8a3e 58a6 3a3e 1339 d8bd
00000220: 1d56 12bb a890 4dbe fc47 553d 7388 923d
00000230: fbb9 cfbd f6fc 8a3e 4225 053e fd7e 8dbe
00000240: 5334 8a3c d2ef aebd 820c cfbd a600 24be
00000250: 9b1b 56be f504 663e a4f1 f8bc 28e0 363d
00000260: babe 383e 853d f5bd 59b2 973e 7fed 22bd
00000270: 19e5 5f3e 9021 cabd 30b5 273d 5189 1bbd
00000280: 17f0 bbbd bf25 1f3e bec4 bf3e 754b 083e
00000290: bb1f 9abd d569 5f3e 73c3 a83d 3124 01bc
000002a0: 089e 9a3e 25ef 0e3c ec92 68be 7cc7 6f3e
000002b0: 1bdc 8cbd d71b 8a3d 21b7 583c 751b 623e
000002c0: 8693 343e bb82 4e3d b822 72bd 8dac abbd
000002d0: 3096 00bd 5473 173e b6e5 623d 391f 183e
000002e0: dd12 34be 7fad 79be db38 5a3d 4bfe 05be
000002f0: 8143 fd3b e590 c83d 71f1 23be f5b7 04bd
00000300: 72e8 863d 629a f9bd 5821 06be be3c a6bd
00000310: 5f4e d93c fed3 c03d bed5 4f3d 575f fb3c
00000320: d756 b4bc faad 1dbb 9ccb 66bd 3f7f 2bbe
00000330: ce91 5f3e 5d6f 99bd 76a5 063e c410 d43d
00000340: 5701 0fbe f55d 113e 90e3 0bbc bfb1 71bd
00000350: e61b 76bd c97b d2bd 3fe7 113e fc07 be3d
00000360: 0bec 0dbe cac4 ce3c 10ca e1bd 801b 013d
00000370: b56b 123e 1ae4 9d3d d379 66bd 4d28 88bd
00000380: 827e 7b3d 68e5 843d 5128 a7bc adb2 893d
00000390: a00a cd3d 7627 79bb 2653 803d b3fe 0c3e
000003a0: 422e 02be 22e2 aa3d 02e0 983d 626b 1b3e
000003b0: 37aa d33d e52d bcbd 2ab4 a7bc 0bed 2c3e
000003c0: 6d09 fa3d ac68 2ebe 222e 2f3d b1f2 ae3d
000003d0: b3b9 b53d 26c8 bf3c 7cbe 6fbd 76e7 68bb
000003e0: a018 223e ab82 3f3d 4ef0 033e 84b9 b83c
000003f0: 5f18 87bb a476 4b3e 084f 8e3e 9a69 563e
0.16040114 0.14092788 -0.07258972 -0.14934352 -0.045654837 0.14656407 0.13369094 0.13023873
-0.04052344 0.044891395 -0.12364142 0.05011399 -0.121616356 -0.26237646 0.100927904 0.057112154
0.0008517743 0.045906756 0.07241788 0.07777071 -0.0020251686 -0.15167163 0.0792521 -0.22648826
-0.26801503 -0.17434512 0.18248409 0.122104675 -0.14922373 -0.067859955 -0.2791703 0.16669205
0.17194676 0.1173843 0.112492174 -0.1614221 0.07334895 0.06757241 -0.10925456 0.01845187
-0.037845198 0.062855855 0.22181319 -0.031824224 0.09883579 -0.13631788 0.023703694 0.07892974
-0.11866594 0.14374419 0.062727176 -0.10679047 -0.09304628 -0.14525414 0.032526955 -0.043248355
0.13663556 0.060288835 -0.0452894 0.15362427 0.11715333 -0.02998969 0.068040125 -0.13787033
-0.05787932 -0.10004518 -0.023549106 -0.015815403 -0.100519285 0.035792146 0.34182093 -0.17212452
-0.11203646 0.0009784932 0.14766082 0.05101845 -0.093094185 -0.030334085 0.02687196 0.05611176
0.048902422 0.13076966 -0.038098153 -0.10032638 0.037571814 -0.0639615 -0.27571708 -0.060282275
0.0870496 0.0801278 0.07819709 0.027204622 0.1714751 -0.12686555 0.058902685 -0.13329129
0.012915577 -0.08177492 0.1400912 -0.0534019 -0.09862847 0.10896429 0.18135685 0.0613963
0.1771005 -0.092364915 0.034740925 0.10822684 -0.2725986 0.011852679 -0.009942883 0.14729662
0.032967813 -0.14528269 0.10526083 -0.16449316 0.04228358 -0.024800638 -0.13636357 0.19986217
0.24897654 -0.24911296 -0.0534083 -0.039837506 0.12365428 0.006505369 0.12969977 -0.1683554
-0.093376555 -0.08483 -0.09518894 -0.17757581 0.017328825 0.27077204 0.18227518 -0.10557761
-0.002232916 -0.20074713 0.052070603 0.07154932 -0.10142895 0.2714612 0.13002494 -0.27635947
0.016870653 -0.08541836 -0.101098076 -0.16015872 -0.20908968 0.22462828 -0.03038866 0.044647366
0.18041506 -0.119746245 0.29628256 -0.039777275 0.21864738 -0.09869683 0.04094428 -0.037972752
-0.09176653 0.15541743 0.3745479 0.13310035 -0.07525583 0.21817715 0.08240404 -0.007882164
0.30198693 0.008724009 -0.22712296 0.23415941 -0.06877919 0.06743591 0.013227255 0.22080787
0.176344 0.050417643 -0.05911514 -0.08382521 -0.03139323 0.14790088 0.05539485 0.1485566
-0.17585321 -0.2438259 0.053276878 -0.13085286 0.0077289944 0.097932614 -0.16010071 -0.032401998
0.06587304 -0.12187649 -0.13098657 -0.081170544 0.026526628 0.09415434 0.05074095 0.03068511
-0.022014065 -0.0024059997 -0.05634652 -0.1674776 0.21832964 -0.07491944 0.13149056 0.1035476
-0.13965355 0.14195998 -0.008538142 -0.059007403 -0.0600852 -0.102775164 0.1424837 0.09278867
-0.13859574 0.02524032 -0.110248685 0.031520367 0.142989 0.077095225 -0.056268524 -0.06648312
0.061399944 0.06489068 -0.020404967 0.06723533 0.10011792 -0.0038017905 0.06265859 0.13769035
-0.12712958 0.08343913 0.07464601 0.15177682 0.103352 -0.09188441 -0.020471651 0.168873
0.12208829 -0.17032117 0.042768605 0.085423835 0.0887331 0.023410868 -0.05853127 -0.0035538352
0.15829706 0.046755474 0.12884638 0.022549398 -0.0041227783 0.19869477 0.2779467 0.20938721

l3.bias f4 [18]
00000000: 9be9 ee3e 5926 aabe ed10 0abf 3049 3f3d
00000010: 2e5d 293d c96d 963e 08a6 033f c74c 01be
00000020: d62b b23d 743c 12bf d885 c23e 87a7 113f
00000030: 38d5 e6be f956 83be 2826 90bd 9c65 993c
00000040: 5c7b 9bbe 5545 d83d
0.46662602 -0.33232382 -0.53932077 0.046700656 0.04134863 0.29380634 0.5142522 -0.12626944
0.08699767 -0.57123494 0.3799274 0.5689625 -0.45084548 -0.25652292 -0.07038528 0.018725209
-0.30367553 0.10560099
