LARA/weight/d_1.pt (torch, 94631 bytes, 7 tensors)

D_attr_matrix.weight f4 [36, 5]
00000000: d661 9e3d 7619 873e 485d b9bb e347 83be
00000010: 5fa0 aa3e 5d0d 09bd 99ea 46be 893f 3d3e
00000020: 2021 5ebd a8c6 e93d 8897 0ebe a40e 8c3d
00000030: 1ffb c3bc 26cf a33d 02c5 003e b742 283d
00000040: f498 9cbe 6976 a1be ae74 693e 7967 0e3e
00000050: c38f 543e cdc8 253e 81c7 d4be 407a 523e
00000060: 0e51 7ebe 5d40 a53e 6b26 023c 7f80 4abe
00000070: 2a1c f4bd 286f 8bbe 51ac 04bd 2365 563e
00000080: 241e cfbd f000 19be 6d4c febd 1810 423d
00000090: 8aec 893e c0a6 33be 441e c5be d04f 7dbe
000000a0: 4bc5 39be 3e36 763e 00ce 2f3e 4a8d 573d
000000b0: c90a 9bbd 0fbf 903d fcdb b83e dce3 24be
000000c0: 2d1e 5b3e 2a0e 9fbe f0d1 3abe 74fa 7dbc
000000d0: 1f00 943e c0f9 6e3e ae9d e83e d77c 1c3e
000000e0: 9f8d 4abe ba03 ccbd 9e73 ee3d b973 ee3c
000000f0: 52f7 293e 0eda f83d 6b16 7d3d 6e9d 883e
00000100: 7006 59be a745 b9ba dbd5 25bc f316 82bc
00000110: 3f08 d33d 4497 48be e36f 2d3e ce7c 71bd
00000120: 6c67 4d3d dd51 143e e513 fd3e d82f 033f
00000130: 631b 5fbc 4bb0 d43e 5197 f33d 5395 03be
00000140: c8cb 343e a3f5 09be db44 1ebe faf0 873e
00000150: 79b1 35be d74b 14bd 3561 573d f6ed 7a3e
00000160: 9a21 0fbe c7b3 633e 3e22 bc3d c19a cbbe
00000170: 6ab2 28be 714f a53d 8fe8 233d fe8b f33d
00000180: f1cd c43c 0276 5c3d 5aed 093e feb6 79bd
00000190: e5c8 2abd 456c a6bd e7a5 43be 2b76 803c
000001a0: ff03 54be ca07 d1be 4365 1fbf 9274 b7be
000001b0: ec94 6b3e 23fc 71bb e4b6 ac3d f7ef 9c3e
000001c0: c2f1 473d fd8d 1cbe 5f39 2e3e 7e1d abbb
000001d0: 1d9a a6bd 7dac a33d e1ac 4b3c 35ed 00be
000001e0: 3d7e 9bbe 4416 203e 4c45 c4be a2b2 8e3e
000001f0: 903b a73d 87dc a2be 3330 423d c411 dcbd
00000200: 2d31 d6bc 7f9f 6a3e f7f3 e43d a7e9 113e
00000210: 285b 2abe 8540 9dbc 182f 2cbd 0533 d5bd
00000220: f2b7 bcbe c970 3fbe 4cc9 b3bd 39b7 a3bc
00000230: a404 b43e cc36 9bbe 774e 5bbe 693f df3e
00000240: acea e33e 300e 463e 3f53 c53d 1f16 b43e
00000250: a068 863e c5ba 11be 4582 813e 6ce5 903e
00000260: 77ee f93e 5728 c3bb b7d3 1a3f 4eb6 1e3e
00000270: c880 683e cc95 1c3e 79a6 24bd e148 32be
00000280: 9a54 843e f7d5 9d3e 6720 92be 3a3b b4be
00000290: b376 aabd 025a ed3e 4cf4 f0bd 2fcf 09bf
000002a0: dca7 d63d 9856 34be 729a d5bd 18fa 773e
000002b0: 3c21 26be 9f6e 873e c05f 43be 9e14 9e3e
000002c0: c846 383d c83d 1bbd d02c 91be 1ea5 4fbe
0.077335045 0.26386613 -0.005656872 -0.25640783 0.33325478 -0.03346001 -0.1942543 0.18481268
-0.05423081 0.11414844 -0.13924992 0.0683873 -0.023923455 0.07998495 0.12575153 0.04107925
-0.30585444 -0.31535652 0.22798416 0.13906659 0.20757966 0.1618988 -0.4155846 0.20554447
-0.24835607 0.32275668 0.00794373 -0.1977558 -0.11919434 -0.27233243 -0.032390896 0.20937018
-0.10113171 -0.14941764 -0.12416921 0.04737863 0.26938277 -0.17544079 -0.38499653 -0.24737477
-0.18141668 0.24044129 0.17168427 0.052624978 -0.075704165 0.070676915 0.36105335 -0.16102546
0.2139823 -0.31065494 -0.18244147 -0.015501607 0.28906342 0.2333746 0.454328 0.15281998
-0.19780587 -0.09961648 0.11643146 0.029107915 0.16598251 0.12150966 0.061788958 0.2668261
-0.21193862 -0.0014135138 -0.010121788 -0.015880084 0.10304307 -0.19588953 0.16937213 -0.058956914
0.05014746 0.14484353 0.4942924 0.5124488 -0.013617369 0.4154075 0.11894096 -0.12849931
0.17655861 -0.13472609 -0.15455954 0.26551038 -0.17743482 -0.03620514 0.05258294 0.24504837
-0.13977662 0.22236548 0.09186219 -0.39766505 -0.1647431 0.08071793 0.040016707 0.11891936
0.024023982 0.05382348 0.13469449 -0.06096553 -0.041695494 -0.081261195 -0.19106255 0.015681347
-0.2070465 -0.40826255 -0.6226389 -0.35831124 0.23006028 -0.0036923967 0.08433321 0.3065183
0.048814543 -0.15288539 0.17014073 -0.0052220216 -0.081348635 0.07991884 0.012431354 -0.12590487
-0.3036975 0.15633494 -0.3833412 0.2787066 0.081656575 -0.31808874 0.047409248 -0.10745576
-0.026146496 0.22912405 0.11179345 0.14249288 -0.16636336 -0.019195804 -0.0420371 -0.10410122
-0.3685909 -0.18695368 -0.08778629 -0.019984828 0.3515979 -0.30315244 -0.2141665 0.43603066
0.44514978 0.1934135 0.096350186 0.35173127 0.26251698 -0.14231403 0.252947 0.28300035
0.48814747 -0.0059557366 0.604793 0.15499231 0.22705376 0.15291518 -0.040197823 -0.17410614
0.25845796 0.30827305 -0.28540346 -0.35201436 -0.08323421 0.46357733 -0.11765346 -0.5383176
0.104812354 -0.17611158 -0.10429849 0.24216497 -0.16223615 0.26451585 -0.19079494 0.30875105
0.044989377 -0.037900716 -0.28354502 -0.20277831

l1.weight f4 [100, 108]
00000000: 16bd dbba c4f2 a63d 50f6 9fbd 773a 43bd
00000010: 234f 133e 4655 1b3d 4ad8 88bc a6ca a6bd
00000020: da3f 093d 5255 393e 8a2e 88bc a7e4 87bb
00000030: 3d27 133c 21af 873d 6efb 82bd d13b 31be
00000040: 5523 54bd 9513 0c3e 853b 2b3d 77e9 23bd
00000050: 2d9b 483e 4c81 adbd 13a2 3c3c ca84 47bd
00000060: ee14 eebd 466a e33d 7deb 3dbd f887 84bc
00000070: a397 b43d 1957 be3d 82cc dc3d 01db 73be
00000080: e76e edbd 10fc 7e3e 2c3e aa3d ed2a 68bc
00000090: 848e 05be 9d6f 15bb a0fd bc3d a508 183e
000000a0: b2fd 9b3c 4b59 0f3d ae65 333c 786f 9ebb
000000b0: 5c24 ce3d 4548 53bd e89e ca3d b29f b03d
000000c0: f1fc ddbc 2654 babd 480e 57bd 442f fa3c
000000d0: 9785 83be a0c5 5d3e 5fdf 6a3d 1dae 8bbd
000000e0: ba6d ba3e 7801 6bbd 0e27 aebd 0646 adbd
000000f0: 368e 00be e6bc 1cbe 95db 5bbe 0486 263d
00000100: 309e d3bd e980 743d 80e4 3d3c 1756 9ebd
00000110: 9db1 d5bc 0ca4 47bd a53c fabd 0cc3 81bd
00000120: 6bbd dabd 8911 073c 6bbb 083e 4eac 583e
00000130: b485 1b3e 37b7 d3bd 3fa0 75bd 644b 4dbd
00000140: 658e 45bd afae 553e a008 b2bd a22d f8bd
00000150: f812 9cbc 9bd2 233b 2c6e aebc 13a9 abbd
00000160: fb6c e6bd 91c8 f73d 3580 513d 4e67 023e
00000170: 86bf bfbd 58cb 91bd fc10 e43d 8651 bdbd
00000180: 8c49 46be 388a 003d 9f55 573d 74b0 d1bd
00000190: cf61 ca3d dbcb d63b c034 34bb aa5c 11bd
000001a0: 1e31 11bd 720a 28bd 5b99 873d 4e67 aabd
000001b0: 5c96 c1bd 422c 1e3d a9d4 983d 1626 ec3c
000001c0: 07dc bd3d 5712 52be 8a01 993d 860e 3f3d
000001d0: 2192 0abd 7b62 bb3d fd7b 063e 367f 543e
000001e0: 1741 9a3d feb3 c9bd b382 ab3d f3d6 543e
000001f0: cb81 f5bd d22f 95bd c2fa 51bd 3b45 0c3c
00000200: 4865 74bd 39d7 bfbd a6dd 13be aa3d 99bd
00000210: 585e 893d f497 403e 845e b7bd b955 fcbd
00000220: a9a7 adbd fec1 eb3d 6122 8e3d 5293 b53d
00000230: fe7f 39bd 7a14 bb3c 1725 e13d ed71 e03d
00000240: f698 c63c 4efd 933c 6838 f3bd 5d2d 2b3e
00000250: b482 963d 3541 233b 98a8 963c 5d48 a63d
00000260: 4eee 0ebd 37dd 07bd 2871 2a3e 6f19 003e
00000270: 30d5 f33d 4cf5 5dbe e987 9fbd 4da1 053e
00000280: 92d2 f7bd a357 f7bd a5ed 963d 6e01 7f3d
00000290: a888 343d 1973 77bc fd50 adbc 41c3 febd
000002a0: 4979 073e 8d58 9e3c d8b8 da3d 8311 1f3d
000002b0: aacc 083d 10c0 2ebe 5a93 b93d 2afb 5bbc
000002c0: 7895 dcbd e0a2 5d3d b7da 993c 367c 813e
000002d0: e35a 09bd ef3e 4fbe bd04 093d e174 21bd
000002e0: ffc2 a73d a400 d03c 5c38 243d f671 ac3d
000002f0: 2ed4 f9bd 8c0d 73bc 8165 a43d e0f7 0cbe
00000300: d346 3abd 19bf 3ebd d1f5 9fbb 2e22 b33d
00000310: e202 00be 999d 433d 61be e9bc 57c0 8c3d
00000320: 14dc 0ebe b819 033e 31fa 49be 3ac7 e6bd
00000330: f85e 8e3d 75c3 073e d8fa 8a3d 567b 36be
00000340: d1a5 11be c428 843d c86b 89bc fb0c c83d
00000350: 0855 2f3c f61d b4bd 0748 64bc bb08 c3bd
00000360: eaaa dc3d 9ba0 50bd f257 c4bd 54c4 fabc
00000370: 7438 923e 4017 a0bd e1d6 84bd 8f18 853d
00000380: a107 933d 5697 a23c bf04 15bd 78bc debd
00000390: 8f0a 99bd 1024 e13d 916f 733d 7a48 46bd
000003a0: dde5 74bd c9ed 3e3c 9abe d13c b065 94bd
000003b0: df8e 903d d82e 59bd 8555 a73d dc04 473e
000003c0: 28f3 13bd 59bc 2dbe d185 51be 988b f9bc
000003d0: 81e4 2dbd 5279 043e c1a8 553c 0c09 ba3c
000003e0: c293 123d 4f3c 7b3e 8eec 2ebc 71d7 c5bc
000003f0: 2844 a93d 83e9 5a3d 3630 e33c 954e 62bd
-0.0016764726 0.081517726 -0.07810652 -0.04766318 0.14385657 0.03792312 -0.016704697 -0.08144121
0.03350816 0.18098953 -0.016623754 -0.0041471305 0.008981523 0.066252 -0.06395613 -0.17307974
-0.051791508 0.13679345 0.04180481 -0.04001757 0.19590445 -0.08471927 0.011513251 -0.048710622
-0.11625086 0.111042544 -0.046367157 -0.016178116 0.08817985 0.09293956 0.10781194 -0.23814012
-0.115934186 0.24900842 0.083126396 -0.014170391 -0.13042647 -0.0022802122 0.09228063 0.14847048
0.01904187 0.034997266 0.010949535 -0.0048350655 0.10065529 -0.051582593 0.0989359 0.086242095
-0.02709815 -0.09098081 -0.052503854 0.030540116 -0.25687858 0.21657419 0.05734193 -0.06820319
0.3641184 -0.057374448 -0.08503543 -0.084606215 -0.12554249 -0.15306434 -0.21470483 0.04065515
-0.10332906 0.05969325 0.011590123 -0.07731264 -0.02608567 -0.04874043 -0.12218598 -0.0633603
-0.1068066 0.008243927 0.13352744 0.21159479 0.15187722 -0.1033768 -0.059967276 -0.050120726
-0.0482315 0.20867418 -0.08693051 -0.12118079 -0.019052014 0.0024997357 -0.021292768 -0.08381858
-0.11251255 0.12098802 0.05114766 0.1273472 -0.09362702 -0.07118863 0.11136052 -0.09244065
-0.19363993 0.031381816 0.05257189 -0.10238734 0.09881937 0.006555063 -0.0027497262 -0.035488762
-0.035447232 -0.041025586 0.06621047 -0.08320485 -0.09452507 0.038616426 0.07462437 0.028826755
0.092704825 -0.20514809 0.07470997 0.04664471 -0.033830766 0.09149643 0.13133235 0.20751652
0.07531946 -0.09848784 0.08374538 0.20785122 -0.11987647 -0.072845116 -0.051264532 0.008561428
-0.0596669 -0.09367222 -0.14440021 -0.074824646 0.06707448 0.18807966 -0.08953574 -0.12321038
-0.08479244 0.115116104 0.06940151 0.0886599 -0.04528808 0.022836912 0.109934025 0.109592296
0.02424286 0.018065121 -0.11875993 0.16716523 0.073491484 0.0024910693 0.018390939 0.08119271
-0.034895234 -0.03316995 0.16644728 0.12509702 0.11905897 -0.21675605 -0.07789595 0.13049813
-0.1210071 -0.12077262 0.07369546 0.062257223 0.044075638 -0.015103125 -0.021156782 -0.124395855
0.1322986 0.019329334 0.106797874 0.03883506 0.033398308 -0.17065454 0.09061308 -0.013426581
-0.107706964 0.054110408 0.01878105 0.25290078 -0.033533942 -0.20238851 0.033451784 -0.039418105
0.081914894 0.02539093 0.04009281 0.08420174 -0.12198673 -0.014834773 0.08027173 -0.13766432
-0.0454777 -0.046568964 -0.0048815985 0.08746754 -0.125011 0.04775772 -0.028533163 0.068726234
-0.1395114 0.1280278 -0.19724347 -0.11268468 0.069517076 0.13258155 0.06786126 -0.17820486
-0.1422341 0.06453088 -0.016775027 0.09768101 0.010701425 -0.08794777 -0.013933188 -0.095231496
0.10774787 -0.050934415 -0.09587087 -0.030611195 0.28558695 -0.078169346 -0.064862974 0.06498825
0.071791895 0.019847553 -0.03638148 -0.10875791 -0.07472717 0.109932065 0.05943257 -0.048408963
-0.059789527 0.011653372 0.025603581 -0.07245958 0.070585005 -0.05302319 0.081706084 0.19435447
-0.036120564 -0.1696638 -0.20461203 -0.030462071 -0.042454246 0.12936905 0.013040722 0.022709392
0.035785444 0.24534725 -0.010676516 -0.024150582 0.08264953 0.05344535 0.02773295 -0.055250723

l1.bias f4 [100]
00000000: a774 51be ecfb 1ebe 4bba 823e 392f 92bd
00000010: 5334 6abe e960 963d 4597 f0bd 44b0 ff3d
00000020: 985d 813d 9eb8 2fbe 5c16 f73b 659c 0fbe
00000030: c34e 453e ad6c 7a3d 0f38 813c 7fe0 c8bd
00000040: dd2a f83d e0de 91be 501d 0f3d 85f7 283d
00000050: 36b1 24be eea8 8a3d c78b 5e3e dd58 bcbc
00000060: 197f 6b3e 6e9d 31be 6eff 793b 46ee 133e
00000070: 20f5 b3bc fab3 2dbe ffd8 c8bd 4fde 02bd
00000080: 1eec dcbd 1095 e7bb 1e58 0e3e cc3c aabd
00000090: bf29 733d dacf a13e a39f 523e 6f67 203d
000000a0: c2a0 dfbd 9e07 c43d db93 f5bd a44a 963c
000000b0: cdc7 5abe f40d 15be a8c3 22be b437 573c
000000c0: 55b4 d3bd 55cb 33bd ab68 a0bd 65aa 07be
000000d0: f07f dcbd 7bf2 933d ef31 893d 01dc bbbd
000000e0: 8959 fa3d 2dfa 5d3e 9b2f 093d f1b7 133d
000000f0: 8e08 43bd e43b 863c 9667 323d 8352 033c
00000100: c440 23be e39e 7dbd 3d2b 86bd fd64 80bd
00000110: 8fff f23d 761a ca3c 433d debc a853 a93d
00000120: 6c2a 26bd 5035 9a3e 3f2d 4cbc 30c4 233e
00000130: 96e8 cabd 3c6c a93d ae6f c73d d7a1 a23d
00000140: 1da2 a33d 9606 493e 72e3 f5bc 0e31 a0bc
00000150: 91c8 a5be 9f5e c73e e75a 1dbd eaf6 663e
00000160: c6b5 0f3d 5e55 69be 5083 27be 9be9 4ebd
00000170: 8122 ffbd 7efb 68bd bf22 87be a47e 093d
00000180: eb3e 843d 016c 623e bb7d 2a3e 4c8d 5b3d
-0.20454656 -0.15525788 0.25532755 -0.07137913 -0.22871523 0.07342703 -0.117476024 0.12484792
0.0631668 -0.1716027 0.0075405072 -0.14024504 0.19268326 0.061138798 0.015773801 -0.09808444
0.121175505 -0.28490353 0.034940064 0.041251678 -0.16083226 0.06770502 0.21733008 -0.022991592
0.22997703 -0.17345211 0.0038146633 0.14446363 -0.02196747 -0.16963187 -0.09807014 -0.03195029
-0.10787223 -0.00706733 0.13900802 -0.08312377 0.059365984 0.3160389 0.20568709 0.039161142
-0.10919334 0.09571765 -0.11991092 0.018346138 -0.2136528 -0.14556104 -0.1589495 0.013135839
-0.1033713 -0.043895084 -0.07832464 -0.13248594 -0.1076659 0.07223984 0.06698977 -0.09172822
0.12224109 0.21677466 0.033492666 0.036064092 -0.04761558 0.01638598 0.04355582 0.008015278
-0.15942675 -0.061919104 -0.06551216 -0.06269262 0.1186515 0.02467082 -0.027128821 0.08267909
-0.0405678 0.301188 -0.012461959 0.15992808 -0.099076435 0.08272597 0.09738098 0.07941025
0.07989905 0.19631419 -0.030015681 -0.019554641 -0.32379583 0.38939378 -0.03841677 0.22555128
0.035085462 -0.22786471 -0.16358685 -0.050515752 -0.12457753 -0.056880467 -0.26393697 0.03356804
0.06457313 0.22111513 0.16649525 0.053601548

l2.weight f4 [100, 100]
00000000: 57b1 c0bb 2697 86bc 2f99 7ebe f7ab 9db9
00000010: 8e32 7ebd 341f 46bd 5e4d 4a3c 5cc8 a0bd
00000020: a8b6 a0bd 9f70 4ebe eb22 9fbd 9cee 62be
00000030: ea70 cf3d d717 c5bd bc00 c13d ae4b 5c3e
00000040: 3d86 eb3d 5480 6fba 9430 223e fa8b 61bd
00000050: a12c 363d 4cec fa3d 2b41 72bd 6303 d53d
00000060: 3788 073d 3a8c cdbd fe48 2a3d 0edf d8bd
00000070: a8f3 a13d 9405 403d d427 8dbc d90c 2c3d
00000080: 4aa7 603b f88c 1cbe 7909 4fbd c8f7 403c
00000090: c63b 233e 69f7 a03b 3338 ce3d d8b9 bcbd
000000a0: e846 65be 0380 27be 995f d03d 27b0 743e
000000b0: e51c 0dbd 3513 f6bd d1c0 2c3d d005 d23c
000000c0: c13f 553d 3de2 cb3c ae4b 3e3d 830f 933d
000000d0: fc10 283e fe53 75bd e6e3 01be 6ec7 2cbd
000000e0: f822 6a3d bb8f 4bbd 70ed ca3b 5f3a b3bc
000000f0: 393f c5bd dd99 f63d 87f3 233d af99 d93d
00000100: 34af 31be 7d72 4e3c c1b5 f9bc 5d76 9fbb
00000110: 3e68 053e 46d3 633d b5a8 9ebd 09ae 97bd
00000120: ef2a 283d 9c9c 11bd 2bc3 14bd 75de 9b3d
00000130: 5ba9 a43c d161 053e e061 a7bd 5189 333d
00000140: 7392 adbd 3f56 c1bd 568f 10bd 2370 0abc
00000150: e0b7 ac3d 6e1e 81bd bcae b2bd e91e 14bd
00000160: e6aa 4e3e fb57 c9bd 6ea2 f13c 536d ddbc
00000170: 53fd 013e e994 033b 1c7f 96bc 900f efbc
00000180: 6246 9abc e908 103d a4be f93d 7f50 f1bd
00000190: be02 4abd 460a 933d 2409 a8bd 507b 09be
000001a0: 2c39 9d3d f0f3 b8bd 4eed eebd 6db3 6f3c
000001b0: 81d8 553c bfe8 14be 4fbe 433e 9b9e 2cbe
000001c0: 2f6f bd3b 088f 593c bfab 0e3e 4934 b1bd
000001d0: 8cf3 8c3c 4361 7ebd fa2a 8bbd 0d70 f13d
000001e0: 907c 423e 0bc0 0f3e 3a9b f1bc ba4e a7bd
000001f0: 9628 d4bd 3e00 4c3d 0b92 693d 6c61 8f3d
00000200: 518f b0bd bc5d 063e d30d 3cbe 5f2f a9bb
00000210: 25bb 26be 32dc 183e 952a e8bb 86e8 893e
00000220: 2983 e53c 50cf 4f3e d5bd 743d 0b17 203d
00000230: 0856 73bd 25e0 ce3b e291 fabd dfc0 27be
00000240: 2e22 52be e223 93bc 3530 c7bd 60dc 423d
00000250: e6d2 ba3d 1611 ba3d 5d5c bcbd a20b 083e
00000260: dd7c 223d f0a1 dfbd 50a0 06bd 0788 c93c
00000270: 0a2a 5bbd e434 1abe 5fa9 edbd 3c3f 3c3d
00000280: e915 e4bd b101 823d 8f29 023e 50dd d83d
00000290: 5289 89bd d262 b2bc 5325 dbbc 50b3 c83c
000002a0: 779c 403c d6b6 b63d 0a4c 69bd 6ea2 efbd
000002b0: 1974 853d af24 50bd 94bd 553c 6c52 00be
000002c0: 6c24 32bc 8852 263d 84f3 403d 7b2d 20be
000002d0: a366 3e3d 6e78 49be ae61 75bc 4e36 1a3e
000002e0: 021f 473d e432 7dbd 2b6b 873c 87c4 373e
000002f0: fc70 25be bf7d e0bd ec22 8abd 3729 4a3e
00000300: 52d2 053e d470 51be 0eae 413d 3b8f 62bc
00000310: 2ecf d63c a18a 2a3d eb5d 683d 7ef4 9ebc
00000320: f772 33be 3ea1 f43c 9f9e 1cbe 94fb 343d
00000330: 5052 253e 0384 23be 1b53 cd3d e15c a2bd
00000340: e227 023e 83bf 223e d1c3 e4bd 6e58 ac3d
00000350: e53e 973d 0d11 84bd 9e2b 2bbd 4c20 43bd
00000360: 49ca 8bbe ccbf cdbc 9901 8abd 0b8e 32bd
00000370: 9857 e93c b08c 503e c118 d53d 0ad4 e33d
00000380: f28f 013d 5d7d 3cbc 934e 883c 04d4 b03d
00000390: 6a14 d73d 19b5 8abd 2d97 47bd 76f3 36bd
000003a0: e993 083d 72b6 02be a89e fabd a4cd a4bc
000003b0: 03a9 88bd e607 abbc 6d10 b63d 47ce 273e
000003c0: ea49 4f3d dc77 debd a257 153d a598 67be
000003d0: c698 a4bd 149b 99bd b83c 033d 09c4 c03d
000003e0: e3a8 a4bd b62b 8b3d cca8 a03d dfea 7e3e
000003f0: 0400 4c3e 7d8d 22be eaf4 4bbc 4f28 da3d
-0.0058805156 -0.016429495 -0.24863122 -0.00030073497 -0.06205993 -0.0483696 0.012347547 -0.078507155
-0.07847339 -0.20160149 -0.07770332 -0.22161335 0.101289585 -0.09623688 0.09423968 0.21513245
0.11500213 -0.0009136249 0.15838844 -0.055065133 0.044476155 0.12252101 -0.05914418 0.104010366
0.03308889 -0.10036512 0.041573517 -0.10589419 0.07907802 0.04688032 -0.017230906 0.04200444
0.00342794 -0.1528815 -0.050546143 0.011777826 0.1594077 0.004912306 0.10069313 -0.092151344
-0.2239033 -0.16357426 0.10174484 0.23895322 -0.034451384 -0.12015382 0.04217607 0.025637537
0.052062754 0.024888152 0.046458893 0.07180693 0.16412729 -0.059894554 -0.12684593 -0.04218238
0.057162255 -0.04969762 0.0061928555 -0.02187842 -0.096311994 0.12041066 0.040027168 0.10625016
-0.17351991 0.012600538 -0.030482175 -0.004866405 0.13028046 0.055621408 -0.07747022 -0.074062414
0.04105657 -0.035549745 -0.03631894 0.0761079 0.020100286 0.13025595 -0.08172965 0.043832127
-0.084751986 -0.09440278 -0.035292946 -0.008449587 0.08433509 -0.06304632 -0.08724734 -0.03616229
0.2018238 -0.09831234 0.029496398 -0.027029669 0.12694292 0.002007777 -0.018371157 -0.029182225
-0.01883239 0.035164747 0.12194565 -0.117829315 -0.04931902 0.07179694 -0.082048684 -0.13425946
0.0767692 -0.090309024 -0.11666356 0.014630181 0.013052107 -0.1454191 0.19115566 -0.16857378
0.0057810764 0.01327873 0.13932703 -0.08652551 0.017205976 -0.062104475 -0.067953065 0.1178895
0.1899283 0.14038102 -0.029492963 -0.08169313 -0.10359304 0.04980492 0.057024043 0.070010036
-0.086210854 0.13121694 -0.18364649 -0.005163118 -0.16282327 0.14927748 -0.0070851543 0.26935214
0.028016644 0.20293927 0.05975135 0.039084475 -0.059408218 0.006313341 -0.12234856 -0.16382168
-0.20520851 -0.017961446 -0.09725992 0.047573447 0.09122257 0.0908529 -0.091973044 0.13285688
0.03966986 -0.10919559 -0.03286773 0.024600996 -0.05350689 -0.15059239 -0.116045706 0.045958742
-0.111369915 0.06347979 0.12711166 0.10589087 -0.06715645 -0.021775637 -0.026751196 0.024499565
0.011756054 0.08921592 -0.056957282 -0.11700903 0.065162845 -0.050816234 0.013045687 -0.12531441
-0.010872941 0.04060605 0.047107235 -0.1564235 0.0464846 -0.19674847 -0.014976902 0.15059778
0.048613556 -0.06181611 0.016530594 0.17946063 -0.16156381 -0.10961484 -0.06744942 0.19742285
0.13068512 -0.20453197 0.047285132 -0.013828094 0.026221838 0.041636113 0.056730192 -0.019403692
-0.17524324 0.029862043 -0.15294884 0.044185236 0.16144681 -0.15968327 0.10025617 -0.079278715
0.12710527 0.15893368 -0.111701615 0.08415304 0.07385043 -0.06448565 -0.041789643 -0.047638223
-0.2730277 -0.02511587 -0.06738586 -0.043592494 0.02848415 0.20366168 0.10405112 0.111244276
0.031631418 -0.011504498 0.01663903 0.08634189 0.105019405 -0.06772823 -0.048728157 -0.044665776
0.033344183 -0.1276491 -0.122372925 -0.020117588 -0.066728614 -0.02087779 0.08889852 0.16387282
0.0506076 -0.10862705 0.036460526 -0.22616823 -0.08036952 -0.07500282 0.032040328 0.09412391
-0.08040025 0.067954466 0.078446954 0.24894284 0.19921881 -0.15874286 -0.012448529 0.106522195

l2.bias f4 [100]
00000000: ccfb 483d 8a5f 653d f3a4 913d e5eb 41be
00000010: 446f 263e 336f 01be b13a 2f3e 890e 86bd
00000020: fc9c b4bc 9523 9f3e cb68 093e 07d8 a3bc
00000030: 93c8 27be a350 acbb 8e6b c9bd c18e 233e
00000040: c247 66be bcd2 8c3e 5d2f 043e dc39 bebe
00000050: e0c0 e0bd 64cc 933e 6c2a 76bd 957c 98be
00000060: edc3 b43d 1e12 22be b541 8e3e 85ab 1d3e
00000070: 1016 863e f556 4bbd b115 0cbe 99ca 90b9
00000080: 0fa2 5e3d 75c4 2cbe 03f4 2bbe b2a2 683e
00000090: 3338 e4bd 93b3 16bd de87 aabd 4697 053d
000000a0: cb3a 133e cf72 c23d 1474 d33d 3a7f 63bb
000000b0: 0984 1dbe 14ec 323b d7aa 08bc ab4e 50be
000000c0: 41a6 e4bd a1ed 623d f0b0 1a3d 3ae3 20bd
000000d0: 4aeb 233e 068e 27be 9c41 293e 29a2 8a3e
000000e0: ebbd 3d3d 0bc9 9c3e d587 5cbe b7fb bdbd
000000f0: 65d2 3dbe 7e2d 02be 0dd1 2bbe 45d9 dd3d
00000100: 642d 0b3d 69c2 8d3e 70a8 053e 2ba5 513d
00000110: 7f92 80be 45db 353e f932 893b c536 073d
00000120: c395 03be 3f15 babd 824c 85bd 45bf 623d
00000130: 00a4 0f3d 4888 80be 6286 1c3d 4045 783d
00000140: 6766 393e c6bb 243e 8fc2 5a3d 3c86 a4be
00000150: 5f9c 6cbe 842d 3e3e e96a 8fbe 65c5 ee3a
00000160: 803a d2bd 382a 443e 5940 bbbd 9190 e7bd
00000170: 76ca 0c3e c559 f73d bad0 563e de2a 5b3e
00000180: ab7a 0abd 9e45 99bd 9e9c a6bc 1522 053d
0.049068257 0.055999316 0.0711154 -0.18937643 0.16253382 -0.12640075 0.17112233 -0.06545741
-0.022047512 0.31081834 0.13418882 -0.02000047 -0.16385107 -0.005258636 -0.098349676 0.15972425
-0.22488311 0.27504528 0.12908693 -0.37153518 -0.10974288 0.28866875 -0.06009905 -0.2978255
0.088264324 -0.15827224 0.27784505 0.15397461 0.26188707 -0.049643476 -0.1368015 -0.00027616767
0.05435377 -0.16871817 -0.16792302 0.22718313 -0.11143532 -0.03679235 -0.08326696 0.03261497
0.14377896 0.09494554 0.103248745 -0.0034713284 -0.15382399 0.0027301358 -0.008341513 -0.2034251
-0.11164523 0.0554024 0.037766397 -0.0392792 0.16007724 -0.16362771 0.16528934 0.27076843
0.046323698 0.30622134 -0.21536191 -0.092765264 -0.1853729 -0.12712666 -0.16778965 0.108324565
0.033978835 0.27687386 0.13052535 0.051182907 -0.25111768 0.17759426 0.0041869846 0.033011217
-0.12850098 -0.090860836 -0.06508733 0.05535819 0.035068512 -0.25103974 0.038214095 0.060612917
0.1810547 0.16087255 0.0534082 -0.32133663 -0.23106526 0.1857205 -0.28011253 0.0018216787
-0.10265064 0.1915673 -0.09143133 -0.11306871 0.13749108 0.12077669 0.2097806 0.21403071
-0.03380839 -0.074839815 -0.020338353 0.032503206

l3.weight f4 [18, 100]
00000000: d7b3 84bc 5733 703d 8390 053d 2d7b 793e
00000010: 0de8 07bd 52ad 0c3e 2282 6cbc 818b f8bd
00000020: 2734 aa3d df72 b33a a35f 553e ce05 27bd
00000030: 9aa9 a43b b979 50be 7eb5 703d d8cd c4bb
00000040: eb19 d0bb 8413 65be cf58 ef3c d567 b73b
00000050: 92cc fdbd 4c4f 1bbd 2511 483e 5dac a7bc
00000060: f7b0 9c3c b71b 61bc d6dd 22be 8386 0f3e
00000070: f38b 19bd 3dd0 12bd 9062 fcba 2238 75bb
00000080: 0aac dc3d 7f8a 2a3d 5b62 e13c d1df a63d
00000090: eb1b a1bd 7332 953e 4232 03be 0e1e 1ebd
000000a0: cf1c 4abe b94d ff3d 1cdb 463e 1024 b1bb
000000b0: 0b3c 0abe 94bc 8d3d 3525 2abe 14fb 2dbc
000000c0: 39ad c33c a501 2b3d c544 063e 7467 38bd
000000d0: f69a 3f3e 31b9 8e3d 489d 08bc 52ec 983e
000000e0: 66e1 03bd 5844 063e 83f0 f8bd 4b2f 103e
000000f0: 93e1 5f3d 5191 093d 990a 233c 7445 01bd
00000100: 5551 f3bd 76a7 663e 0952 5a3d 01f8 68bc
00000110: ff00 0cbc fae7 1ebe 54d7 54bd 149f 0b3e
00000120: f213 0f3e 79ff 9dbd 1423 c0bc 9106 b53d
00000130: bc50 153c fd68 8f3d e88f 1d3e 09e5 69be
00000140: eb5f 8f3a 31d8 343e 78f6 413d 6ec8 0c3e
00000150: 53ea bbbb a141 86be af61 d93d c346 c7bd
00000160: 5905 103c 8bcb d0be 1589 9bbd c1e1 0c3e
00000170: 34ff 38bd 102a cc3c cb36 30be 543f ec3c
00000180: af73 79be 35e6 e13c d339 f03d 907d 223e
00000190: d50f 253e d05f 2d3e d75f 473e 7cf5 623d
000001a0: 8c74 ae3d f782 203e d47b 073e e8dd ed3d
000001b0: ee92 7a3d 4f51 833c 2a45 af3d c178 16be
000001c0: a71f 3a3e 01c2 343e 6698 febc 4323 503d
000001d0: b830 1ebc c10c ba3d 5ded f5bd 0425 aa3c
000001e0: 5154 19bc f25d a93c b2ec 8bbe 00f2 98be
000001f0: 22b5 31be f5e5 b73c 38aa 813d 6e02 babd
00000200: 974e a5bd 2b90 763e 9872 8abe 4a50 ae3c
00000210: effc 463e 7630 3ebd 3665 9fbe f15c dd3c
00000220: 0174 5f3e 7913 e3bd 1b8e c23c 6a13 8a3e
00000230: 7747 3abd 18cb a4bd 50f7 0d3d 778b 5cbd
00000240: 7b85 ebbc 5cfc 85bd fce8 a1bd 6a11 7dbe
00000250: 0e01 09be 0d40 8b3e 44f8 4bbd 1284 413e
00000260: 4272 8c3e c83b c83d 32bf c73d 5c3b 31bc
00000270: 4160 1ebe ff64 43bd ce43 713d cfcf 93bd
00000280: 83a9 113e b1ed 37bc 3b7c 953d 0f20 2ebe
00000290: 4375 c63c 6487 3ebd 23e8 0a3e 5403 d53c
000002a0: 15f0 0fbe 9d92 2d3e e120 aa3c 1d93 143e
000002b0: 47ca 95be e999 68bd 7db3 3b3c f0a5 f7bd
000002c0: cd8e 60be c25c bc3c c435 40bd 866c 9bbd
000002d0: 791b 09bd 005d b93c f0ce 1a3d d466 efbd
000002e0: 0424 1c3c 20f9 f33d ab28 7dbe fe08 243d
000002f0: c54e 923e fff9 2c3e 1478 92be dd1a 39be
00000300: d113 183e b77a 8bbc 4125 3a3e 7488 25be
00000310: b636 e43c 476d ff3c fb65 f7bd 31b9 163e
00000320: c1cd 283d e6b6 813e 25a5 fcbb a648 2c3e
00000330: 7765 583e bfe1 02bc 5212 e23c 6276 0d3d
00000340: ef04 abbe 6d91 40bd ed5a 0abe a0e8 ef3c
00000350: 34d1 dfb9 7a86 36bd e550 ea3c ab86 973d
00000360: d2fc 95be b2a5 573e f8de 773d 9451 133e
00000370: 2a3b 7dbc f088 03be 144d 293b c8df 9cbc
00000380: e352 383e 7676 ea3d 79a1 74bc 53bb 113e
00000390: a7ef 9ebd 1cb9 91bd f95a 963d 5ac0 243d
000003a0: 7a68 013e 9f33 923d e00e 3c3e eec9 a7bd
000003b0: 3313 0abe e61b 1b3e 8f8d 24bd 3a28 bfbd
000003c0: b84d cfbc 51c3 dfbd a2d1 d83d 2e12 57bd
000003d0: dc37 443e fb22 debd 4eb1 5c3e 4f3d 113d
000003e0: 950c 463e 9007 cebd 6948 95bd 0c84 693d
000003f0: 0b22 783d 6971 9ebe c12f b4bc a266 6fbe
-0.016199036 0.05864271 0.03260852 0.24363394 -0.033180285 0.13737991 -0.014435323 -0.12135983
0.083107285 0.001369085 0.20837264 -0.04077702 0.005025101 -0.20358934 0.058766834 -0.006005984
-0.006350746 -0.22370726 0.029217152 0.0055970945 -0.12392534 -0.03791742 0.1953779 -0.020467931
0.019127352 -0.013739518 -0.15904936 0.14016156 -0.03748698 -0.035843123 -0.0019255448 -0.003741749
0.10775001 0.041635986 0.02751272 0.08148158 -0.07866653 0.29140052 -0.1281214 -0.03860288
-0.19737552 0.12465996 0.19419521 -0.0054059103 -0.13499467 0.06920734 -0.16615756 -0.010618944
0.02388631 0.041749615 0.13112171 -0.045020536 0.18711457 0.06968916 -0.00833828 0.29867798
-0.03219738 0.13112009 -0.12155249 0.14080541 0.054658484 0.03358585 0.009951257 -0.031560376
-0.11880747 0.22524819 0.05330089 -0.014219285 -0.008545159 -0.1551818 -0.051963165 0.13634902
0.13972452 -0.07714743 -0.023454227 0.08839143 0.009113487 0.07002447 0.15386927 -0.22841276
0.001093862 0.17660595 0.04735419 0.13748333 -0.0057347207 -0.26221946 0.10614335 -0.097302936
0.0087903375 -0.4078029 -0.07594506 0.13757993 -0.045165256 0.0249224 -0.17208402 0.028838791
-0.24360536 0.027575592 0.11729779 0.15868211 0.1611932 0.16931081 0.19470154 0.055409893
0.08518323 0.15674959 0.1323083 0.11614591 0.06117528 0.016029982 0.08558114 -0.14694501
0.18176137 0.17652132 -0.031078529 0.05081488 -0.00965517 0.09084464 -0.12008164 0.020769604
-0.0093584815 0.02067468 -0.27329022 -0.2987213 -0.17354253 0.02244852 0.06331295 -0.09082495
-0.080716304 0.24078433 -0.27040553 0.02127852 0.19432424 -0.046432935 -0.31131905 0.027021857
0.21821596 -0.110876985 0.023749402 0.26967937 -0.04547831 -0.080465496 0.034659684 -0.05384394
-0.028750172 -0.06542274 -0.07905766 -0.24713674 -0.13379309 0.27197304 -0.04979731 0.18898037
0.27430922 0.09777027 0.097532645 -0.010817375 -0.15466405 -0.04770374 0.058902554 -0.07217371
0.1422482 -0.011226104 0.07299086 -0.17004417 0.024225837 -0.046515837 0.13565116 0.026002564
-0.14056428 0.1695046 0.020767631 0.14509244 -0.29255888 -0.056787405 0.011456368 -0.12092197
-0.21929474 0.02299345 -0.046926275 -0.075890586 -0.033473466 0.022627354 0.037795007 -0.11689535
0.009530071 0.11912751 -0.24722545 0.040047638 0.2857572 0.16892241 -0.28607237 -0.18076654
0.1485131 -0.017026288 0.18178274 -0.16165334 0.02785812 0.031180037 -0.12079998 0.14719082
0.041211847 0.25334853 -0.0077101164 0.16824588 0.21132456 -0.007988392 0.027596626 0.034536727
-0.33402202 -0.04701369 -0.13511248 0.029285729 -0.00042689743 -0.04456184 0.028603027 0.07398733
-0.2929445 0.21059301 0.060515374 0.14386588 -0.015456 -0.12845206 0.0025833296 -0.019149676
0.18000369 0.11448376 -0.014931076 0.14231615 -0.07760554 -0.07115385 0.073415704 0.040222503
0.12637511 0.07138752 0.1836505 -0.08192812 -0.13483886 0.15147361 -0.040174063 -0.093338445
-0.025305614 -0.109259255 0.10586859 -0.052507572 0.19161934 -0.10846516 0.21552011 0.03545886
0.19340737 -0.10060036 -0.07289202 0.057010695 0.06057934 -0.309459 -0.021995427 -0.23378995

l3.bias f4 [18]
00000000: 4202 8bbe e85b b83c 85c8 50bf f12e e83d
00000010: 0b7c 813e 081d 5d3e d30e b43d 55b0 713e
00000020: 69b8 873e 0bf9 54be 26fc a63e 0699 f0be
00000030: 78f9 8fbe a088 a63d 0980 ee3e cd2a a43e
00000040: 07e1 cc3e ef44 1fbd
-0.2715016 0.022504762 -0.8155597 0.11337078 0.2528995 0.21593106 0.0879189 0.23602422
0.2650788 -0.20798127 0.3261425 -0.46991748 -0.28120017 0.08131528 0.46582058 0.32063904
0.40015432 -0.0388841
