LARA/weight/d_10.pt (torch, 94631 bytes, 7 tensors)

D_attr_matrix.weight f4 [36, 5]
-0.08173076 0.28307483 -0.53694713 0.40237406 0.10910075 0.45604685 0.48333043 0.07867988
0.3398134 0.34468397 0.61464614 -0.21909653 -0.20445849 0.13102469 0.132891 0.09296477
-0.26540437 -0.036443572 0.117781475 0.20928983 -0.118950956 -0.37753123 -0.15658084 -0.20346217
-0.10652371 -0.12397921 0.17142868 0.061843287 -0.18464778 -0.08393469 0.44198504 -0.06462151
0.07500187 0.13702616 -0.06917054 0.2765728 0.057597186 0.18273798 0.4529684 -0.306544
-0.25991538 0.38467357 -0.07300058 -0.003416204 -0.19891621 -0.09577896 0.16796774 -0.16164608
-0.15658651 -0.03406243 0.01200853 -0.06962249 -0.27070844 0.3156957 0.052528694 0.043839913
0.029925453 -0.00037812197 -0.032251325 0.13324514 0.16853069 0.016836777 0.19090952 -0.15265553
-0.1641565 -0.08117528 0.53437513 0.08586473 0.27577025 0.0035499195 -0.28641334 -0.30820346
-0.07220497 0.11772088 0.20436563 0.26939136 -0.08025301 -0.1633683 0.28663722 0.26890135
-0.2856575 -0.07747397 0.09159545 -0.43869463 0.18583116 -0.012868755 -0.18028226 -0.0669942
-0.45548582 -0.07834885 0.2012835 -0.14309083 0.34601963 0.33480227 -0.22788057 0.25583285
-0.34865314 -0.27433142 0.16604191 -0.41854936 -0.12226987 0.51635605 0.14488478 0.325573
0.22041081 0.2163975 0.66986626 0.34949675 -0.29780063 -0.088650204 -0.07507611 -0.1330225
-0.2903103 0.0480217 0.15324008 0.14093961 -0.3646735 -0.44341397 0.046770558 -0.14089242
0.1277521 0.14045306 0.1417696 -0.43161348 -0.15708934 -0.024636634 0.5249651 0.101043686
-0.20635018 0.16809247 0.15511684 -0.27884147 -0.15690832 0.15307087 -0.1296942 0.277126
-0.06747903 -0.009774324 -0.14986438 0.28075922 -0.42878783 -0.1028509 0.26068038 0.32357895
-0.17731853 -0.13142866 -0.30100566 0.10428926 0.48661512 -0.38319588 0.027185846 0.252553
0.34149906 0.18221667 0.24277645 -0.26080388 -0.23507135 0.27322868 0.20090872 -0.029543534
0.032135647 -0.22434193 -0.1431558 0.2967009 0.4146023 0.25451806 0.3535406 -0.62032264
-0.11058117 -0.23404877 -0.17466204 0.109886095 0.099001475 -0.13192016 0.13786082 -0.23819995
0.08957621 -0.038888346 0.17767459 0.17569374
00000000: 7562 a7bd 2fef 903e 5e75 09bf f903 ce3e
00000010: 3770 df3d f97e e93e 1677 f73e eb22 a13d
00000020: 06fc ad3e 6b7a b03e 7359 1d3f d75a 60be
00000030: 915d 51be 562b 063e 9414 083e 5064 be3d
00000040: 15e3 87be db45 15bd 6a37 f13d 1350 563e
00000050: 8f9c f3bd c64b c1be ba56 20be 6358 50be
00000060: 1a29 dabd d0e8 fdbd 008b 2f3e 634f 7d3d
00000070: 4f14 3dbe f3e5 abbd dd4b e23e 4858 84bd
00000080: 959a 993d 9650 0c3e 49a9 8dbd f39a 8d3e
00000090: 07eb 6b3d aa1f 3b3e 79eb e73e 56f3 9cbe
000000a0: a113 85be eff3 c43e 5481 95bd 64e2 5fbb
000000b0: b1b0 4bbe c227 c4bd bcff 2b3e 8d86 25be
000000c0: 3758 20be 0c85 0bbd 6dbf 443c 3c96 8ebd
000000d0: 4c9a 8abe dea2 a13e 5428 573d 7b91 333d
000000e0: 3926 f53c ac3e c6b9 f719 04bd 6a71 083e
000000f0: 4f93 2c3e 48ed 893c c97d 433e bb51 1cbe
00000100: a418 28be 3a3f a6bd cfcc 083f d9d9 af3d
00000110: c231 8d3e c4a5 683b c5a4 92be d8cc 9dbe
00000120: 33e0 93bd a517 f13d 3945 513e aaed 893e
00000130: b15b a4bd 054a 27be 1dc2 923e 70ad 893e
00000140: b341 92be acaa 9ebd 6596 bb3d 959c e0be
00000150: 864a 3e3e 78d7 52bc ea9b 38be 4134 89bd
00000160: 7035 e9be 5d75 a0bd 431d 4e3e 6786 12be
00000170: 7c29 b13e 346b ab3e 8659 69be 86fc 823e
00000180: aa82 b2be 2b75 8cbe e406 2a3e 1a4c d6be
00000190: a068 fabd e92f 043f ad5c 143e 81b1 a63e
000001a0: 5fb3 613e 4e97 5d3e 5b7c 2b3f 3df1 b23e
000001b0: 5379 98be 3d8e b5bd 81c1 99bd 0d37 08be
000001c0: 8da3 94be 67b2 443d f8ea 1c3e 7952 103e
000001d0: 7cb6 babe 2807 e3be 7c92 3f3d 1a46 10be
000001e0: 72d1 023e edd2 0f3e 0d2c 113e 71fc dcbe
000001f0: 07dc 20be c4d2 c9bc 1d64 063f feef ce3d
00000200: 764d 53be 6f20 2c3e f3d6 1e3e 4fc4 8ebe
00000210: 93ac 20be 9cbe 1c3e 8ece 04be 76e3 8d3e
00000220: 7232 8abd 7c24 20bc 0c76 19be acbf 8f3e
00000230: 148a dbbe 7ea3 d2bd e677 853e 24ac a53e
00000240: fd92 35be 3c95 06be 6a1d 9abe 9c95 d53d
00000250: 9e25 f93e 4032 c4be dab4 de3c a04e 813e
00000260: f7d8 ae3e 0297 3a3e 649a 783e 1688 85be
00000270: 8bb6 70be a1e4 8b3e 04bb 4d3e 4805 f2bc
00000280: aba0 033d e4b9 65be 6f97 12be 2ee9 973e
00000290: c146 d43e 3150 823e 4603 b53e 77cd 1ebf
000002a0: 6178 e2bd 7baa 6fbe 9bda 32be f60b e13d
000002b0: 49c1 ca3d 1416 07be 632b 0d3e b0ea 73be
000002c0: bb73 b73d 6349 1fbd 54f0 353e 0fe9 333e

l1.weight f4 [100, 108]
0.056182552 0.010354187 0.18735181 -0.030340347 -0.07284805 0.026064334 0.24281886 0.09670072
-0.036505625 0.11284589 -0.06478248 -0.0882719 0.17112191 0.082378514 0.09655308 -0.08962142
0.14271502 -0.11817158 -0.009136669 0.09398343 -0.073346905 -0.027740292 -0.12134053 -0.06979103
-0.05320057 0.005005171 0.055316363 0.032289207 -0.20906775 -0.030455751 0.06899994 -0.0728417
0.057658747 0.11851577 0.015909603 -0.02119491 -0.05461062 0.024478376 -0.17797709 0.14808977
0.044126518 0.062021453 -0.15448262 0.06327134 0.04913283 -0.08805446 -0.048339102 -0.050077356
-0.05906202 0.06607545 0.101073965 -0.14214619 0.03194995 -0.059122887 -0.05676401 0.08468089
-0.05834693 -0.013953047 0.089846894 0.0185793 -0.06658298 0.07788592 0.087103486 -0.08390139
0.011721301 0.017021663 -0.03139333 0.033378858 -0.14434399 0.17832924 0.16267982 0.043086138
-0.0037608338 0.07490119 0.12106923 -0.092291266 -0.17564982 -0.12855202 -0.017998978 0.08396101
-0.11414613 0.076640315 0.05155834 0.08887593 0.067152776 -0.058794413 0.15381339 -0.11214539
-0.106683575 -0.013690074 -0.15863578 0.074324 0.15020207 -0.12402913 0.0033024112 -0.1633924
-0.19413786 0.022856317 -0.18536024 0.09042614 0.066369526 -0.06354727 0.13102797 -0.16908197
0.04603327 -0.16073471 0.034943037 0.04751797 0.11493072 -0.101579145 0.062795796 -0.08150205
0.1110028 0.1927011 -0.06575904 0.14387527 -0.014211379 -0.006783653 0.11691968 -0.10810858
-0.030963816 -0.028366895 0.050717097 0.17989872 -0.12303639 0.016695378 -0.08626153 0.04356283
-0.15337618 0.25364125 -0.014446348 -0.117000714 -0.10510419 -0.032938182 -0.0799307 0.086440146
0.03869614 0.024787638 0.06355904 0.10355094 0.12748532 -0.09331107 0.09180399 0.012652312
0.03546642 0.08700821 0.1383573 -0.16163522 -0.08415907 -0.07339592 0.08096869 -0.10477911
0.08295241 0.03434059 -0.07974081 -0.062058516 0.2212571 0.020106563 0.08169401 0.05500122
0.06824703 0.0013396576 -0.13866234 -0.17218395 -0.104435906 0.0010215294 -0.103050634 0.013466472
0.15767221 -0.12289665 0.08866314 -0.05310872 -0.0697365 -0.047743835 -0.05864167 0.13043596
0.023592204 0.06358559 0.0032329874 0.014235933 0.05514738 0.10669932 -0.24980669 0.21986967
0.094428994 0.07119608 -0.07127821 0.040539626 0.023396412 -0.18376584 0.09670836 0.14048623
-0.11748047 -0.060594074 0.01042584 -0.013723698 -0.20992635 0.14198063 0.1315935 0.16012266
-0.002046667 0.04429575 0.054454323 0.048747245 0.11796415 -0.01266677 -0.06221503 -0.011228732
-0.03324927 -0.03796572 -0.06608404 0.07373083 -0.12631674 0.120717615 -0.18305849 0.023721749
-0.07967393 0.09495925 0.11516091 -0.16572669 -0.1539244 -0.017571516 0.035096988 -0.010043033
-0.09530107 -0.049994458 -0.15834399 0.07487058 0.06863611 0.05027674 -0.03143402 -0.123518735
0.06489722 0.09768331 0.066982545 0.060259048 0.06244897 0.16470253 0.08196813 -0.0405747
-0.023494525 0.025407638 0.100243896 0.06729913 0.107570544 -0.098575845 -0.09280792 -0.1303452
-0.018676357 -0.015950806 -0.071315005 -0.051537912 -0.023376646 0.057405125 -0.0144616645 -0.1973136
00000000: ad1f 663d 9ca4 293c 27d9 3f3e 528c f8bc
00000010: 5c31 95bd df84 d53c 82a5 783e 070b c63d
00000020: ec86 15bd bf1b e73d adac 84bd e6c7 b4bd
00000030: 953a 2f3e 11b6 a83d 9fbd c53d 6f8b b7bd
00000040: e323 123e f103 f2bd f8b1 15bc 627a c03d
00000050: e736 96bd 9c3f e3bc 6281 f8bd 99ee 8ebd
00000060: d7e8 59bd 6b02 a43b 6993 623d b041 043d
00000070: db15 56be 577e f9bc d74f 8d3d 072e 95bd
00000080: 942b 6c3d 65b8 f23d db54 823c f3a0 adbc
00000090: 63af 5fbd e086 c83c a03f 36be d8a4 173e
000000a0: 02be 343d 350a 7e3d b130 1ebe 6894 813d
000000b0: 823f 493d e655 b4bd 39ff 45bd ea1d 4dbd
000000c0: 04eb 71bd 9152 873d deff ce3d c58e 11be
000000d0: f3dd 023d d72a 72bd 6181 68bd 2d6d ad3d
000000e0: 31fd 6ebd 529b 64bc a601 b83d 9e33 983c
000000f0: a85c 88bd a782 9f3d 5063 b23d 7ed4 abbd
00000100: b30a 403c 0471 8b3c 4b96 00bd 45b8 083d
00000110: e9ce 13be f19b 363e 8a95 263e 177b 303d
00000120: 5278 76bb cc65 993d 25f3 f73d 3403 bdbd
00000130: 8cdd 33be 24a3 03be 9872 93bc c0f3 ab3d
00000140: 72c5 e9bd 99f5 9c3d d72e 533d 9504 b63d
00000150: 6587 893d 69d2 70bd 4281 1d3e 7bac e5bd
00000160: eb7c dabd 554c 60bc 6b71 22be 2e37 983d
00000170: 92ce 193e fc02 febd 446d 583b 5650 27be
00000180: 13cc 46be 2c3d bb3c 13cf 3dbe 5731 b93d
00000190: bfec 873d 1225 82bd 322c 063e d323 2dbe
000001a0: 628d 3c3d a497 24be 6e20 0f3d 34a2 423d
000001b0: cc60 eb3d ba08 d0bd 159b 803d 8cea a6bd
000001c0: 7055 e33d 7053 453e adac 86bd 0a54 133e
000001d0: d8d6 68bc 6849 debb 9673 ef3d 0868 ddbd
000001e0: d4a7 fdbc b161 e8bc bbbc 4f3d 5f37 383e
000001f0: 81fa fbbd bfc4 883c e3a9 b0bd f06e 323d
00000200: a50e 1dbe 44dd 813e 60b0 6cbc 129e efbd
00000210: de40 d7bd 30ea 06bd b5b2 a3bd 8807 b13d
00000220: d87f 1e3d 720f cb3c 3e2b 823d 8412 d43d
00000230: 838b 023e e019 bfbd bb03 bc3d a54b 4f3c
00000240: 3d45 113d 5c31 b23d 89ad 0d3e b483 25be
00000250: 975b acbd 9a50 96bd ead2 a53d 6e96 d6bd
00000260: f4e2 a93d b8a8 0c3d 264f a3bd 1231 7ebd
00000270: 3991 623e 85b6 a43c 304f a73d f648 613d
00000280: 19c5 8b3d 7397 af3a 80fd 0dbe fd50 30be
00000290: 7ee2 d5bd d7e4 853a 360c d3bd 7aa2 5c3c
000002a0: d374 213e 3db1 fbbd 0595 b53d 8788 59bd
000002b0: 03d2 8ebd 0a8f 43bd 3f32 70bd 0191 053e
000002c0: 7044 c13c 2939 823d 87e0 533b d53d 693c
000002d0: 38e2 613d 2c85 da3d 53cd 7fbe 8425 613e
000002e0: fd63 c13d 40cf 913d 4ffa 91bd e10c 263d
000002f0: d5a9 bf3c 1d2d 3cbe 080f c63d 9fdb 0f3e
00000300: 9a99 f0bd 7e31 78bd 24d1 2a3c 5dd9 60bc
00000310: eff6 56be 5f63 113e 72c0 063e 32f7 233e
00000320: 6021 06bb 766f 353d 7f0b 5f3d 31ab 473d
00000330: 3097 f13d 4988 4fbc 30d5 7ebd b7f8 37bc
00000340: 6330 08bd f181 1bbd 1257 87bd 3000 973d
00000350: 2d59 01be cc3a f73d af73 3bbe 1d54 c23c
00000360: 162c a3bd ff79 c23d 7cd9 eb3d 42b4 29be
00000370: 5c9e 1dbe 24f2 8fbc dcc1 0f3d 898b 24bc
00000380: 352d c3bd fdc6 4cbd ed24 22be bf55 993d
00000390: 1791 8c3d fcee 4d3d f5c0 00bd 64f7 fcbd
000003a0: d5e8 843d 300e c83d 252e 893d 31d2 763d
000003b0: 7eca 7f3d c8a7 283e e8de a73d a831 26bd
000003c0: 9777 c0bc ae23 d03c ac4c cd3d 20d4 893d
000003d0: f24d dc3d 22e2 c9bd 1412 bebd 3679 05be
000003e0: 29ff 98bc 44ab 82bc 9a0d 92bd 6b19 53bd
000003f0: 6180 bfbc a321 6b3d 9ef0 6cbc 940c 4abe

l1.bias f4 [100]
-0.032923646 0.17087321 -0.1664675 0.0064934436 0.14298089 -0.15035494 0.039275244 0.31349772
-0.18296045 0.27303365 -0.11009348 -0.27568197 -0.0013298305 -0.094511345 0.22743657 -0.08317441
0.15599567 0.043242227 0.012563286 -0.027679747 -0.21732794 -0.06865067 -0.04970721 0.14930597
-0.10930499 0.14406806 0.08740939 -0.08621909 0.120915055 -0.16749595 0.068027355 0.17961532
0.08007285 -0.08722721 -0.06418345 -0.032195415 0.42799228 0.10018847 -0.19920053 -0.081146784
-0.13574575 -0.010657572 0.120643556 0.20985217 0.12171413 0.074638285 -0.11638309 -0.121719
-0.13760014 -0.15108603 0.031215027 -0.15211377 0.044716533 -0.14367029 0.2159742 -0.015768139
-0.11962095 -0.14639881 0.2295916 0.105746165 -0.08939338 0.008909573 0.00644166 -0.09481763
0.24584071 0.01686795 0.10945034 -0.10975008 0.07506499 -0.03935681 -0.12892705 0.054477856
0.24483363 -0.10967073 0.17493543 0.031196203 0.027317325 0.06324329 0.031839836 -0.041840263
-0.33020347 -0.04341226 -0.1704609 -0.10772932 -0.22480878 0.121324524 0.034651775 0.08767934
0.028499857 0.3415078 0.023985669 0.15655892 -0.32375583 0.0029680827 -0.09826528 -0.12967575
-0.0026965707 0.15634488 -0.013509011 -0.026444368
00000000: f2da 06bd 63f9 2e3e 7576 2abe f4c6 d43b
00000010: 9569 123e a5f6 19be 14df 203d c682 a03e
00000020: fc59 3bbe 11cb 8b3e b178 e1bd 3026 8dbe
00000030: b54d aeba 2a8f c1bd 22e5 683e 5857 aabd
00000040: 54bd 1f3e c31e 313d 3ed6 4d3c a3c0 e2bc
00000050: 378b 5ebe b998 8cbd ca99 4bbd aae3 183e
00000060: 4bdb dfbd 9486 133e b203 b33d a293 b0bd
00000070: 50a2 f73d 0f84 2bbe ed51 8b3d 14ed 373e
00000080: 3cfd a33d 2ea4 b2bd 9d72 83bd 57df 03bd
00000090: ce21 db3e 9d2f cd3d 39fb 4bbe 4930 a6bd
000000a0: ef00 0bbe 199d 2ebc f813 f73d 7de3 563e
000000b0: 4245 f93d f5db 983d 425a eebd d047 f9bd
000000c0: 0de7 0cbe 4cb6 1abe a8b6 ff3c b6c3 1bbe
000000d0: af28 373d 4e1e 13be 5728 5d3e 2f2c 81bc
000000e0: d4fb f4bd 92e9 15be 0f1a 6b3e 7291 d83d
000000f0: e013 b7bd 75f9 113c 9014 d33b bf2f c2bd
00000100: abbd 7b3e a82e 8a3c 8027 e03d a6c4 e0bd
00000110: acbb 993d 9b34 21bd 7405 04be 2c24 5f3d
00000120: abb5 7a3e 0c9b e0bd 4622 333e 2e8f ff3c
00000130: 95c8 df3c b385 813d 7d6a 023d b260 2bbd
00000140: 6e10 a9be 0ed1 31bd 4d8d 2ebe 31a1 dcbd
00000150: 4634 66be fe78 f83d 05ef 0d3d 3a91 b33d
00000160: 8878 e93c 1cda ae3e 987d c43c fb50 203e
00000170: 53c3 a5be 2a84 423b 4f3f c9bd b8c9 04be
00000180: f3b8 30bb df18 203e e654 5dbc dca1 d8bc

l2.weight f4 [100, 100]
-0.012130584 -0.12582012 0.17155847 -0.01242952 -0.09306263 -0.023393534 0.018817987 0.085952476
0.1454798 0.1745445 0.20960361 0.03648283 -0.040531773 0.040889483 -0.21529093 -0.096951574
-0.09505678 0.05166209 0.053123675 0.16196588 -0.11330552 -0.10947541 -0.023326239 0.08254438
-0.011239618 0.070630506 -0.12769 0.06417519 -0.073082276 -0.26426902 -0.0818851 -0.0706253
-0.07246268 -0.024159439 0.13838285 0.12268284 0.036445286 -0.036491066 0.20322733 -0.020546574
0.00850335 -0.168352 -0.009605727 -0.0051719774 -0.14639764 0.15658359 -0.18725398 0.22459887
-0.044088263 0.04063488 -0.0034910585 0.0022040743 0.058117 -0.01634683 -0.020267015 0.009279938
-0.06935469 0.037174627 0.02281748 -0.0334155 -0.23975043 0.0073769777 -0.1638229 -0.006866755
-0.0099877 -0.06189769 -0.029376682 0.040526997 -0.14985447 0.14846338 0.019189224 -0.20558155
0.058267225 0.067409664 -0.11275221 -0.0010350291 -0.00087269256 -0.059004027 -0.1420654 -0.10112449
0.2075582 -0.07511807 -0.034988627 0.17305858 0.05867279 -0.24075867 -0.013283057 0.0058498783
0.25069857 -0.007298383 -0.169915 -0.0967842 -0.021365821 0.06712356 0.11889396 0.1356626
-0.083609775 -0.099668786 0.017587017 -0.03043568 0.20698826 0.11348298 0.11713067 -0.18766718
0.045705974 -0.027639546 -0.05004888 0.07029732 -0.14619753 -0.047175527 -0.1416443 -0.11832733
0.024233583 -0.004244621 -0.006767898 -0.3583831 0.08468128 -0.04829495 0.009255524 -0.117247336
0.04312895 -0.1656259 0.115188316 -0.2854672 -0.022307133 0.04021164 -0.054957394 -0.040136214
0.032887526 -0.22409543 0.04125215 -0.16086602 0.024293581 0.18913288 -0.037671205 0.1030721
-0.052607123 -0.032788187 0.31147793 0.19545071 -0.0046995017 -0.1943482 -0.013277563 0.09175864
0.166464 -0.06734289 -0.16511753 0.027171105 -0.21988933 0.1357265 0.033724565 0.0032246776
-0.07778941 0.12171186 0.0590996 0.049516406 -0.073904574 0.08237878 -0.1473014 -0.17468861
0.21441825 -0.048262972 0.037985835 0.05426757 0.17759226 0.08110664 -0.08646249 -0.21099502
0.048059877 0.2157017 -0.029369833 0.079112016 0.008605705 0.0794493 0.08741464 -0.018704064
-0.07583118 0.08550612 0.12599593 -0.27902603 0.01153109 -0.09299465 -0.039455418 -0.04228416
0.16804874 -0.10118636 0.057438187 -0.11555917 -0.03393326 -0.018637389 -0.15223657 0.00038523646
-0.308152 -0.051068146 -0.047755323 -0.008424942 0.19662194 0.027217112 -0.078290515 0.13866886
0.00019199467 -0.002782528 0.020056564 -0.09102314 -0.00045718602 -0.015711248 -0.13870586 0.01172952
0.18821098 0.01008676 -0.15288748 0.033678465 0.012271264 0.21365799 -0.07893682 0.14379853
-0.05551611 -0.039583385 -0.028549176 -0.078321055 -0.09203918 -0.04005391 -0.0084568495 -0.07992047
-0.1124881 0.13746229 0.025789283 -0.04346488 -0.08144729 -0.17506093 -0.16360624 0.14863122
-0.010275056 -0.10359598 0.0030482754 0.004258252 -0.12686102 0.08615248 0.10566524 -0.14354214
0.20544155 -0.06971531 -0.054378122 -0.18279438 -0.014435127 -0.06973683 0.055808052 0.11351884
0.055610333 0.038864817 -0.15255655 -0.09785335 -0.011179872 -0.086748935 -0.10856174 0.15498684
00000000: 5bbf 46bc fdd6 00be 06ad 2f3e 2fa5 4bbc
00000010: 9f97 bebd cca3 bfbc 2e28 9a3c da07 b03d
00000020: a8f8 143e cbbb 323e 54a2 563e 056f 153d
00000030: a504 26bd bb7b 273d 3a75 5cbe 8c8e c6bd
00000040: 21ad c2bd a19b 533d 3698 593d 62da 253e
00000050: b90c e8bd a534 e0bd ab16 bfbc 070d a93d
00000060: 6026 38bc baa6 903d 2bc1 02be 486e 833d
00000070: 29ac 95bd 454e 87be 60b3 a7bd ffa3 90bd
00000080: 5067 94bd 04ea c5bc 3cb4 0d3e 2441 fb3d
00000090: a747 153d a877 15bd d31a 503e 4a51 a8bc
000000a0: a351 0b3c 7764 2cbe 5761 1dbc b179 a9bb
000000b0: 43e9 15be 7357 203e 82bf 3fbe 3ffd 653e
000000c0: e595 34bd c370 263d 3eca 64bb 3b72 103b
000000d0: 170c 6e3d cae9 85bc 0307 a6bc e20a 183c
000000e0: d509 8ebd 6c44 183d b9eb ba3c b1de 08bd
000000f0: 2381 75be 93ba f13b 31c1 27be 8402 e1bb
00000100: 73a3 23bc 6f88 7dbd 5ea7 f0bc a3ff 253d
00000110: 7373 19be c906 183e b832 9d3c f883 52be
00000120: 9da9 6e3d 140e 8a3d a1ea e6bd d0a9 87ba
00000130: 68c5 64ba 35ae 71bd 9879 11be 5b1a cfbd
00000140: 238a 543e 81d7 99bd 3c50 0fbd 4536 313e
00000150: e152 703d 7189 76be 2ea1 59bc 56b0 bf3b
00000160: 905b 803e 4627 efbb 33fe 2dbe cb36 c6bd
00000170: 6007 afbc 1478 893d ad7e f33d 23eb 0a3e
00000180: 9a3b abbd 261f ccbd a612 903c 3f54 f9bc
00000190: bbf4 533e c469 e83d 34e2 ef3d d32b 40be
000001a0: 3036 3b3d 546c e2bc 0e00 4dbd 0bf8 8f3d
000001b0: ceb4 15be 203b 41bd 340b 11be 9955 f2bd
000001c0: 8285 c63c 7616 8bbb 3ec5 ddbb fd7d b7be
000001d0: 616d ad3d edd0 45bd 7ba4 173c 5f1f f0bd
000001e0: fba7 303d d699 29be dae7 eb3d c228 92be
000001f0: 73bd b6bc f6b4 243d 011b 61bd df65 24bd
00000200: 12b5 063d 4679 65be 04f8 283d 10ba 24be
00000210: 5503 c73c 0dac 413e 1f4d 1abd 7717 d33d
00000220: 917a 57bd e84c 06bd 097a 9f3e 3b24 483e
00000230: 47fe 99bb 3703 47be 238a 59bc f4eb bb3d
00000240: 8a75 2a3e 12eb 89bd 9214 29be f095 de3c
00000250: ab2a 61be e3fb 0a3e c522 0a3d 1d55 533b
00000260: 0e50 9fbd 1144 f93d 6c12 723d b7d1 4a3d
00000270: 485b 97bd 35b6 a83d 2ed6 16be 92e1 32be
00000280: 7590 5b3e 65af 45bd 0997 1b3d ac47 5e3d
00000290: bfda 353e 3d1b a63d 3f13 b1bd 140f 58be
000002a0: 6fda 443d e8e0 5c3e 0199 f0bc 7b05 a23d
000002b0: f1fe 0c3c 51b6 a23d 7206 b33d 4439 99bc
000002c0: 614d 9bbd d51d af3d 1405 013e 80dc 8ebe
000002d0: e6ec 3c3c fb73 bebd 019c 21bd 2832 2dbd
000002e0: f814 2c3e cb3a cfbd 4e44 6b3d 49aa ecbd
000002f0: 9afd 0abd 70ad 98bc e7e3 1bbe 90f9 c939
00000300: 19c6 9dbe d52c 51bd 169b 43bd c508 0abc
00000310: 4357 493e 6cf6 de3c c756 a0bd 36ff 0d3e
00000320: 2d52 4939 135b 36bb aa4d a43c 576a babd
00000330: 78b2 efb9 e0b4 80bc e908 0ebe 2c2d 403c
00000340: 61ba 403e f042 253c 898e 1cbe 6ef2 093d
00000350: 690d 493c 29c9 5a3e a1a9 a1bd ec3f 133e
00000360: dc64 63bd 3022 22bd f6df e9bc ca66 a0bd
00000370: 0a7f bcbd 920f 24bd 998e 0abc 58ad a3bd
00000380: 2960 e6bd eac2 0c3e 0c44 d33c 3b08 32bd
00000390: d6cd a6bd 2c43 33be 6588 27be c832 183e
000003a0: b558 28bc 212a d4bd 93c5 473b cf88 8b3b
000003b0: dbe7 01be b670 b03d 0467 d83d b6fc 12be
000003c0: 455f 523e e7c6 8ebd 98bb 5ebd 732e 3bbe
000003d0: 5081 6cbc 2fd2 8ebd fc96 643d 917c e83d
000003e0: a9c7 633d b730 1f3d c937 1cbe 5667 c8bd
000003f0: c82b 37bc 6da9 b1bd 9e55 debd dfb4 1e3e

l2.bias f4 [100]
0.033867817 0.12151423 0.010157266 -0.21934013 0.13321437 -0.00849984 -0.008717201 -0.09215564
0.04793193 -0.084345125 -0.17345697 0.027989719 0.13286044 0.3123204 -0.021782478 0.182126
0.13403805 0.018608345 -0.078415975 0.27770954 -0.057119664 0.27410033 -0.1428564 0.018925842
0.22826153 -0.1323887 0.0033704084 0.18578267 0.0019409806 -0.17474578 0.028627083 -0.0045962273
0.070058964 -0.11402913 -0.18100244 0.15052678 0.02177119 0.25853616 0.123749234 -0.00056544854
-0.017830068 0.16366865 -0.036413077 -0.06826329 -0.1764803 -0.18390444 -0.3127951 -0.106702566
-0.055896893 0.014992117 0.058036998 -0.21906532 0.0017774396 0.11800389 -0.0729507 -0.1425151
0.020670049 0.13703987 0.16164647 0.13095593 -0.018282166 0.18295297 -0.29075888 -0.001276353
0.4622808 -0.016416274 -0.0038885535 0.09478785 0.038560778 0.025459986 -0.031287722 -0.29217798
0.10353677 0.15175402 -0.14161104 0.0875497 0.06133773 -0.07841884 -0.04625453 -0.40582603
-0.16130507 -0.08532794 -0.13771601 -0.061626066 0.06603168 -0.06122796 0.2563424 0.02550665
0.14066368 0.16827899 -0.031934336 -0.1789496 -0.15244234 0.18580554 0.027559157 -0.022232886
0.041041534 0.17410055 -0.30479884 -0.24243733
00000000: fbb8 0a3d 74dc f83d a96a 263c b39a 60be
00000010: 5969 083e ea42 0bbc 97d2 0ebc 19bc bcbd
00000020: 4554 443d 23bd acbd b49e 31be b24a e53c
00000030: 910c 083e 76e8 9f3e 2b71 b2bc 3d7f 3a3e
00000040: 4541 093e 8770 983c 8e98 a0bd f22f 8e3e
00000050: 4ff6 69bd e156 8c3e f348 12be 5e0a 9b3c
00000060: 64bd 693e e790 07be 12e2 5c3b d03d 3e3e
00000070: 8068 fe3a 8ff0 32be 5883 ea3c f39b 96bb
00000080: 137b 8f3d 1b88 e9bd b458 39be b123 1a3e
00000090: 7f59 b23c da5e 843e 3d70 fd3d 9c3a 14ba
000000a0: 5d10 92bc c198 273e e125 15bd a0cd 8bbd
000000b0: 40b7 34be 7251 3cbe ae26 a0be e086 dabd
000000c0: 24f4 64bd 7fa1 753c 34b8 6d3d a952 60be
000000d0: faf8 e83a 06ac f13d 2d67 95bd 7aef 11be
000000e0: 3c54 a93c 2e54 0c3e a786 253e 5019 063e
000000f0: 7bc4 95bc 0658 3b3e 59de 94be 4d4b a7ba
00000100: 12b0 ec3e 6c7b 86bc 1ad7 7ebb 2220 c23d
00000110: e8f1 1d3d 7691 d03c 8e27 00bd 5a98 95be
00000120: 160b d43d 6865 1b3e 7c02 11be 424d b33d
00000130: 463d 7b3d 0f9a a0bd 6475 3dbd 6ec8 cfbe
00000140: 282d 25be 6ac0 aebd 6d05 0dbe 9d6b 7cbd
00000150: 9e3b 873d 2bca 7abd 503f 833e 52f3 d03c
00000160: 240a 103e 5451 2c3e 94cd 02bd 903e 37be
00000170: d819 1cbe cf43 3e3e bec3 e13c be21 b6bc
00000180: 2b1b 283d 6a47 323e 980e 9cbe 7e41 78be

l3.weight f4 [18, 100]
0.15786289 0.13541591 -0.06199657 -0.12516016 -0.022147836 0.18825133 0.14255337 0.13924477
-0.049630597 0.07166953 -0.085254066 0.102755755 -0.16537093 -0.29300302 0.13516791 0.08118079
0.07769695 0.07873259 0.050208565 0.10218086 0.026376521 -0.16540249 0.061902396 -0.23997723
-0.3270478 -0.14342855 0.19650207 0.11469273 -0.22637531 -0.009813166 -0.3296946 0.18172103
0.16970232 0.15234801 0.17866981 -0.18610992 0.06731798 0.08439401 -0.086352624 0.033739366
0.009460578 0.00065261684 0.23510002 0.0010462934 0.11661026 -0.113103874 0.07475287 0.13498546
-0.05409265 0.1350695 0.06530398 -0.10021403 -0.09525598 -0.117903754 0.036823273 -0.036920514
0.1391807 0.024383027 -0.056236565 0.09103007 0.10081973 -0.001920947 0.08749873 -0.19174084
-0.114040084 -0.048997827 -0.051128343 -0.024930738 -0.13522339 0.1111221 0.37394318 -0.12173411
-0.071844205 -0.009061475 0.17745858 0.1023957 -0.13313353 -0.019492637 0.09100553 0.09340914
0.08016235 0.1333564 -0.0029347274 -0.06904092 -0.010069265 -0.089938305 -0.33187914 -0.042466518
0.061335932 0.054612324 0.114995606 0.034225598 0.198343 -0.17518373 -0.013048558 -0.11279822
0.01986295 -0.06118711 0.20769002 -0.088592306 -0.10601218 0.11157798 0.18899399 0.083575405
0.2077655 -0.026852867 0.040246546 0.12000611 -0.2802603 0.04482232 0.021768522 0.190941
-0.04454248 -0.16953418 0.13986906 -0.1495477 0.11607526 -0.0028710596 -0.18450275 0.2156248
0.26835757 -0.27192855 -0.07249857 -0.06113931 0.06794725 0.045792665 0.13742575 -0.188887
-0.18632117 -0.018203687 -0.15782554 -0.14951017 0.016200867 0.2982697 0.24438967 -0.1401852
-0.0025452655 -0.1930188 0.06252369 0.07945698 -0.030659826 0.20898874 0.15942235 -0.24132764
0.028655892 -0.06689378 -0.038512394 -0.114953466 -0.14407487 0.23868535 -0.037219554 0.05025379
0.17371328 -0.077715725 0.30676028 -0.045734417 0.2460147 -0.13487418 -0.00414798 -0.10336548
-0.10538995 0.1970336 0.40586966 0.03666864 -0.13924807 0.27395436 0.026163993 -0.009201262
0.23923753 0.069971256 -0.20453349 0.28673366 -0.026738327 0.057981417 0.032474656 0.26037392
0.13340986 0.056866076 -0.0020042723 -0.035864763 0.029141199 0.155832 0.08124475 0.20252429
-0.21430758 -0.26339102 0.0014663361 -0.11486289 -0.02666331 0.08480497 -0.10688351 -0.022326088
0.10254699 -0.16109484 -0.21123448 -0.06755772 0.04209774 0.109636605 0.122975305 0.0059234714
-0.027459707 0.010459724 -0.039826497 -0.15099667 0.25454935 -0.013550039 0.13374858 0.12506007
-0.14329365 0.16626836 0.01715498 -0.0057196203 -0.14193365 -0.13691981 0.18470679 0.10925915
-0.06738086 0.042236608 -0.14656103 0.05142091 0.16712539 0.05498743 -0.08098657 -0.09450014
0.0025615622 0.10906863 -0.0031520773 0.047146775 0.0083315065 0.05889233 0.0025408512 0.15382367
-0.121712215 0.12050841 0.13436984 0.11814915 0.10415252 -0.08241438 -0.014576838 0.18385603
0.20227166 -0.23197033 0.07219364 0.10597181 0.1086335 0.04785844 0.006327721 0.046561927
0.20931165 0.07040017 0.12131279 0.02687386 -0.0037082653 0.23430565 0.29514444 0.19334148
00000000: cfa6 213e 78aa 0a3e 1ef0 7dbd fc29 00be
00000010: 616f b5bc f5c4 403e 83f9 113e 2e96 0e3e
00000020: 7449 4bbd 79c7 923d af99 aebd 9c71 d23d
00000030: ff56 29be 7e04 96be 7569 0a3e 1d42 a63d
00000040: 941f 9f3d 8d3e a13d 7fa7 4d3d 3344 d13d
00000050: 9313 d83c 455f 29be 5e8d 7d3d 97bc 75be
00000060: cf72 a7be efde 12be d737 493e 06e4 ea3d
00000070: eece 67be 67c7 20bc bbcd a8be 1415 3a3e
00000080: 72c6 2d3e 1e01 1c3e 38f5 363e 9993 3ebe
00000090: 02de 893d c4d6 ac3d a5d9 b0bd 4a32 0a3d
000000a0: 8a00 1b3c 6014 2b3a 0fbe 703e c823 893a
000000b0: 5cd1 ee3d 01a3 e7bd 0818 993d a139 0a3e
000000c0: 4190 5dbd a94f 0a3e 18be 853d 033d cdbd
000000d0: 9115 c3bd 8677 f1bd 00d4 163d f739 17bd
000000e0: 6385 0e3e eabe c73c 5058 66bd f96d ba3d
000000f0: 937a ce3d 49c8 fbba 8932 b33d b657 44be
00000100: d98d e9bd f2b1 48bd f46b 51bd 8c3b ccbc
00000110: 0078 0abe fc93 e33d 7b75 bf3e bc4f f9bd
00000120: 0e23 93bd 9576 14bc b4b7 353e d6b4 d13d
00000130: 2854 08be 06af 9fbc 1b61 ba3d 4b4d bf3d
00000140: 282c a43d 958e 083e 8e54 40bb 5365 8dbd
00000150: 8ff9 24bc 9331 b8bd 10ec a9be 5ff1 2dbd
00000160: 633b 7b3d 2cb1 5f3d d182 eb3d 2430 0c3d
00000170: 6d1a 4b3e 5d63 33be 9ec9 55bc c102 e7bd
00000180: a0b7 a23c 569f 7abd b1ac 543e e26f b5bd
00000190: ea1c d9bd ff82 e43d a487 413e 9529 ab3d
000001a0: 7bc0 543e 8bfa dbbc 90d9 243d c3c5 f53d
000001b0: 477e 8fbe 9c97 373d e653 b23c 0a86 433e
000001c0: 2d72 36bd 5e9a 2dbe d639 0f3e 0823 19be
000001d0: deb8 ed3d 6328 3cbb 4aee 3cbe bfcc 5c3e
000001e0: 2a66 893e 383a 8bbe 217a 94bd 376d 7abd
000001f0: ee27 8b3d 1791 3b3d 56b9 0c3e 986b 41be
00000200: faca 3ebe e61f 95bc 059d 21be 3219 19be
00000210: aeb7 843c ceb6 983e 4941 7a3e b68c 0fbe
00000220: 78ce 26bb b8a6 45be 6c0c 803d 57ba a23d
00000230: 512a fbbc 2501 563e 9d3f 233e 981e 77be
00000240: c3bf ea3c 9bff 88bd 2cbf 1dbd b96c ebbd
00000250: 5d88 13be ef69 743e 8873 18bd ebd6 4d3d
00000260: e5e1 313e 6c29 9fbd af0f 9d3e 0354 3bbd
00000270: 47eb 7b3e 751c 0abe c7eb 87bb 48b1 d3bd
00000280: b0d6 d7bd 2dc3 493e 26ce cf3e db31 163d
00000290: 0c97 0ebe bf43 8c3e df55 d63c e4c0 16bc
000002a0: affa 743e 174d 8f3d 3a71 51be c1ce 923e
000002b0: 560a dbbc ec7d 6d3d 2504 053d bb4f 853e
000002c0: 989c 083e 67ec 683d 1c5a 03bb eee6 12bd
000002d0: 86b9 ee3c 6c92 1f3e a663 a63d 8762 4f3e
000002e0: 7273 5bbe 30db 86be 1332 c03a 3c3d ebbd
000002f0: 046d dabc 3aae ad3d bee5 dabd 33e5 b6bc
00000300: 2804 d23d 0cf6 24be da4d 58be b45b 8abd
00000310: ae6e 2c3d 2889 e03d 7ada fb3d ae19 c23b
00000320: 2ef3 e0bc 435f 2b3c 1c21 23bd df9e 1abe
00000330: 4b54 823e fc00 5ebc 63f5 083e bf0f 003e
00000340: 92bb 12be 4142 2a3e 9a88 8c3c a76b bbbb
00000350: 0e57 11be b534 0cbe c723 3d3e 43c3 df3d
00000360: fafe 89bd 4b00 2d3d 1814 16be bb9e 523d
00000370: eb22 2b3e 803a 613d 49dc a5bd 4a89 c1bd
00000380: e2df 273b 605f df3d 1593 4ebb fa1c 413d
00000390: df80 083c 1539 713d 6984 263b f483 1d3e
000003a0: 4144 f9bd 1dcd f63d 3f98 093e 2ef8 f13d
000003b0: eb4d d53d dfc8 a8bd b1d3 6ebc c144 3c3e
000003c0: 4d20 4f3e a189 6dbe 42da 933d c007 d93d
000003d0: 3e7b de3d 3607 443d c558 cf3b b8b7 3e3d
000003e0: cb55 563e f72d 903d d772 f83d 9226 dc3c
000003f0: 5e06 73bb d2ed 6f3e 2c1d 973e 4ffb 453e

l3.bias f4 [18]
0.41169247 -0.3930027 -0.6010378 -0.004988739 -0.007572892 0.24475889 0.4621057 -0.17698711
0.03254984 -0.6314518 0.32700166 0.5310547 -0.502273 -0.31004104 -0.13252959 -0.04494303
-0.35133046 0.05069257
00000000: 5bc9 d23e a637 c9be 9ddd 19bf 9378 a3bb
00000010: 0626 f8bb 13a2 7a3e 1e99 ec3e 1c3c 35be
00000020: fb52 053d d3a6 21bf c36c a73e 33f3 073f
00000030: f794 00bf b3bd 9ebe d6b5 07be 2f16 38bd
00000040: 96e1 b3be 03a3 4f3d
