LARA/weight/d_2.pt (torch, 94631 bytes, 7 tensors)

D_attr_matrix.weight f4 [36, 5]
0.07792847 0.27154875 -0.0073590646 -0.25552645 0.34098974 -0.031122284 -0.18477024 0.19115901
-0.065987706 0.12093194 -0.14872456 0.068043254 -0.039050195 0.08849752 0.122317284 0.042601492
-0.3093159 -0.33151355 0.24058945 0.14373799 0.22929265 0.17531289 -0.41918635 0.20124066
-0.25270632 0.34244284 0.020167783 -0.20493767 -0.12187646 -0.27739397 -0.037779506 0.21587285
-0.11420714 -0.15048361 -0.11312443 0.038716972 0.28511333 -0.1942885 -0.3785958 -0.23430052
-0.18100205 0.24779135 0.18853962 0.046700235 -0.07315089 0.074699104 0.36970624 -0.13913025
0.21324094 -0.31142345 -0.18710156 0.0036881738 0.2892462 0.24881965 0.46440202 0.14676489
-0.17609403 -0.100372136 0.13502914 0.04099127 0.19004044 0.11483408 0.057897627 0.27403793
-0.2392127 0.027248822 0.002148701 -0.007016513 0.112604246 -0.23653159 0.17051686 -0.06648519
0.059909314 0.15464313 0.4949959 0.51590884 -0.01444281 0.42140707 0.117182694 -0.13516437
0.18307589 -0.13450822 -0.16475621 0.2609387 -0.17454891 -0.029208884 0.053528983 0.23363665
-0.13756174 0.22414453 0.092029765 -0.39493293 -0.1614327 0.091701366 0.03922229 0.09604197
0.0472818 0.07745439 0.12746075 -0.056126095 -0.06471956 -0.08539707 -0.20482025 0.02687358
-0.21347362 -0.42954645 -0.63637763 -0.37021318 0.22901309 -0.014505032 0.08841132 0.30893213
0.05098911 -0.1555706 0.16099381 -0.002363188 -0.076083824 0.083628714 0.007138297 -0.1289591
-0.3109918 0.18161236 -0.38710412 0.2909245 0.09171256 -0.32117507 0.07916501 -0.10961194
-0.010774103 0.24605238 0.11694807 0.1626387 -0.18102027 -0.011030281 -0.042742696 -0.0968412
-0.34791592 -0.20121437 -0.07383071 -0.019013166 0.35353792 -0.30894497 -0.21433586 0.41918704
0.47058323 0.19915645 0.08153894 0.34477007 0.24989651 -0.109227985 0.26145843 0.2916618
0.48723632 -0.007959426 0.61569244 0.16374362 0.23898873 0.1555393 -0.04165328 -0.15778133
0.26626536 0.3102678 -0.28460622 -0.36215153 -0.07986612 0.4761018 -0.12489613 -0.52026284
0.10095267 -0.1862359 -0.1113946 0.23965394 -0.16341795 0.25392792 -0.19401856 0.29715094
0.03774123 -0.036354415 -0.27982667 -0.21175578
00000000: f698 9f3d 7008 8b3e 4f24 f1bb 5dd4 82be
00000010: 3596 ae3e 29f4 febc 6934 3dbe 30bf 433e
00000020: 9024 87bd 2aab f73d 404b 18be 435a 8b3d
00000030: 19f3 1fbd 303e b53d 7c81 fa3d e77e 2e3d
00000040: a75e 9ebe 25bc a9be 155d 763e 0d30 133e
00000050: b1cb 6a3e 3985 333e 989f d6be 0812 4e3e
00000060: b962 81be ab54 af3e e836 a53c 2edb 51be
00000070: 5e9a f9bd 9506 8ebe afbe 1abd c60d 5d3e
00000080: 6fe5 e9bd 6018 1abe c8ad e7bd b095 1e3d
00000090: 60fa 913e 91f3 46be 4fd7 c1be 7aec 6fbe
000000a0: 9a58 39be 04bd 7d3e 8810 413e bf48 3f3d
000000b0: 22d0 95bd d8fb 983d 234a bd3e 2978 0ebe
000000c0: d55b 5a3e e572 9fbe 8d97 3fbe 4ab5 713b
000000d0: 1418 943e 94ca 7e3e 1ac6 ed3e 8949 163e
000000e0: fe51 34be e88f cdbd 1445 0a3e 76e6 273d
000000f0: f699 423e 212e eb3d 1026 6d3d b34e 8c3e
00000100: 2df4 74be ec38 df3c 39d1 0c3b c7ea e5bb
00000110: 0e9d e63d 5635 72be f99b 2e3e 6329 88bd
00000120: 7863 753d c55a 1e3e 1a70 fd3e 9a12 043f
00000130: 89a1 6cbc abc2 d73e 7bfd ef3d 8768 0abe
00000140: 3f78 3b3e 86bc 09be dab5 28be c299 853e
00000150: f3bc 32be 7847 efbc 3541 5b3d 723e 6f3e
00000160: fcdc 0cbe 2586 653e 1a7a bc3d a634 cabe
00000170: 9d4e 25be edcd bb3d 8da7 203d a7b1 c43d
00000180: 90aa 413d 68a0 9e3d 1285 023e 7ae4 65bd
00000190: b08b 84bd a9e4 aebd 66bc 51be fb25 dc3c
000001a0: d498 5abe 83ed dbbe a5e9 22bf 958c bdbe
000001b0: 6882 6a3e 84a6 6dbc fe10 b53d 5a2c 9e3e
000001c0: f5d9 503d e64d 1fbe 90db 243e b7df 1abb
000001d0: d6d1 9bbd 8845 ab3d 60e8 e93b db0d 04be
000001e0: 513a 9fbe 97f8 393e 8332 c6be 0ef4 943e
000001f0: cbd3 bb3d 0f71 a4be 4421 a23d 3a7c e0bd
00000200: dd85 30bc 28f5 7b3e 7882 ef3d c28a 263e
00000210: 615d 39be 5ab8 34bc f712 2fbd ae54 c6bd
00000220: 0922 b2be 240b 4ebe 8e34 97bd 80c1 9bbc
00000230: ec02 b53e 092e 9ebe dc7a 5bbe af9f d63e
00000240: 49f0 f03e abef 4b3e e3fd a63d b485 b03e
00000250: dfe4 7f3e ecb2 dfbd e1dd 853e b254 953e
00000260: 0a77 f93e 4168 02bc 059e 1d3f 68ac 273e
00000270: 76b9 743e b245 1f3e a19c 2abd 6e91 21be
00000280: ef53 883e 6cdb 9e3e e8b7 91be ed6b b9be
00000290: d990 a3bd 9dc3 f33e 8bc9 ffbd f22f 05bf
000002a0: 46c0 ce3d a0b4 3ebe da22 e4bd d867 753e
000002b0: 0957 27be d702 823e cdac 46be 2b24 983e
000002c0: 8c96 1a3d 5ee8 14bd 7145 8fbe 82d6 58be

l1.weight f4 [100, 108]
0.0027411734 0.08491913 -0.06869837 -0.0528543 0.14921245 0.032423977 -0.016845236 -0.08858543
0.040197138 0.1871431 -0.010977775 0.0018414872 0.003145859 0.07232315 -0.06996391 -0.17871252
-0.04574828 0.13125247 0.035259925 -0.046289243 0.19251478 -0.07835742 0.0113475835 -0.0413243
-0.12340338 0.10477959 -0.05335244 -0.009973053 0.09413887 0.09888112 0.113546215 -0.2322894
-0.10941346 0.25506237 0.07757848 -0.009807527 -0.13866378 0.0008414791 0.098699205 0.15737018
0.024966575 0.029440839 0.0051155593 0.00109365 0.09463493 -0.045390606 0.09257939 0.07969132
-0.022067672 -0.08325417 -0.059810486 0.022307219 -0.26332307 0.22467832 0.05192821 -0.06275257
0.37007087 -0.050634015 -0.09116174 -0.07847553 -0.13147494 -0.14713964 -0.22079721 0.0466696
-0.097971536 0.065460436 0.016633542 -0.083228335 -0.031453047 -0.055418212 -0.116320856 -0.06889723
-0.111679815 0.014150352 0.13882037 0.21771345 0.15803331 -0.09708712 -0.063211195 -0.043551378
-0.042969387 0.21570016 -0.09235143 -0.12797947 -0.024174627 -0.0039930404 -0.015132382 -0.08996177
-0.10627508 0.114882745 0.06336591 0.11264009 -0.07820206 -0.05596212 0.12748064 -0.07582654
-0.17877987 0.046096005 0.03616643 -0.11918838 0.08202439 0.021982938 -0.015936946 -0.05219556
-0.020078706 -0.05974459 0.049635176 -0.071194656 -0.08037868 0.056180872 0.0657978 0.0178707
0.103271335 -0.21508908 0.0947032 0.042496093 -0.027107244 0.098886475 0.13948691 0.21581037
0.06773746 -0.09098107 0.07605194 0.19437261 -0.11247313 -0.079998836 -0.05684647 0.0031710817
-0.07221579 -0.08670604 -0.123794615 -0.07037731 0.06263705 0.18053593 -0.093271054 -0.11587359
-0.07666182 0.122668326 0.077627406 0.09487101 -0.038905893 0.030364541 0.1015173 0.123607986
0.021725303 0.03622938 -0.11205999 0.16146971 0.08155269 -0.004877057 0.009861393 0.08864167
-0.042428885 -0.02522902 0.16026199 0.119300425 0.12803778 -0.21181308 -0.07734998 0.13217425
-0.12747633 -0.12453785 0.063580416 0.06974763 0.051754996 -0.008082738 -0.029079292 -0.117224716
0.12453513 0.028048106 0.099499606 0.046206493 0.042530753 -0.16324891 0.09793101 -0.021839593
-0.11336109 0.04622338 0.027018897 0.24277157 -0.047364 -0.19456579 0.043631043 -0.031732745
0.08969287 0.03253946 0.032088038 0.091172986 -0.11292072 -0.009987158 0.07131635 -0.14282368
-0.05457138 -0.053938895 0.0024594052 0.07996531 -0.11820492 0.040103212 -0.05021443 0.09810906
-0.168211 0.100018874 -0.22432297 -0.142296 0.041894484 0.10854105 0.097702585 -0.14799568
-0.11182046 0.03626402 0.009659523 0.12875934 -0.017229334 -0.05452767 0.016655535 -0.118838914
0.10426986 -0.053983267 -0.10843295 -0.025267694 0.2796489 -0.071150735 -0.06379816 0.07512226
0.063299075 0.013204019 -0.043655 -0.116371386 -0.06809408 0.1032324 0.066385105 -0.042520706
-0.06701803 0.0188086 0.03403823 -0.065744154 0.073823474 -0.06076066 0.08013026 0.18579614
-0.027522774 -0.16239911 -0.20268199 -0.037429012 -0.049840026 0.1224731 0.0050318213 0.016225008
0.028212082 0.23808639 -0.0031945975 -0.027909057 0.09451381 0.051492695 0.019945996 -0.06819298
00000000: 42a5 333b 15ea ad3d bbb1 8cbd c07d 58bd
00000010: 26cb 183e 01cf 043d 05ff 89bc 476c b5bd
00000020: c1a5 243d 71a2 3f3e 20dc 33bc 0f5e f13a
00000030: c22a 4e3b 291e 943d 3d49 8fbd 6a00 37be
00000040: 8c62 3bbd 0c67 063e b66c 103d ca99 3dbd
00000050: 9822 453e db79 a0bd 37eb 393c ab43 29bd
00000060: e9ba fcbd af96 d63d 1788 5abd 0466 23bc
00000070: e1cb c03d 2f82 ca3d eb8a e83d 46dd 6dbe
00000080: 2a14 e0bd 8997 823e 77e1 9e3d c0af 20bc
00000090: e1fd 0dbe b596 5c3a cf22 ca3d a625 213e
000000a0: b486 cc3c ea2d f13c 6ca0 a73b ce58 8f3a
000000b0: f5cf c13d 80eb 39bd 439a bd3d 3435 a33d
000000c0: 43c7 b4bc 2a81 aabd d7fb 74bd a1bd b63c
000000d0: 48d2 86be 1312 663e adb2 543d 6b84 80bd
000000e0: ee79 bd3e 9d65 4fbd 02b3 babd c7b7 a0bd
000000f0: 5ea1 06be c6ab 16be aa18 62be 9f28 3f3d
00000100: 4da5 c8bd 1f10 863d 1143 883c 9e73 aabd
00000110: e9d4 00bd 35fe 62bd a139 eebd fe19 8dbd
00000120: 63b8 e4bd e1d6 673c ed26 0e3e 46f0 5e3e
00000130: 7cd3 213e 9dd5 c6bd df74 81bd ee62 32bd
00000140: ab00 30bd 81e0 5c3e bf22 bdbd 0d0d 03be
00000150: de09 c6bc 0dd8 82bb cfed 77bc e03d b8bd
00000160: c0a6 d9bd a547 eb3d fcc5 813d d9af e63d
00000170: 6728 a0bd 8938 65bd 498a 023e f24a 9bbd
00000180: 1212 37be 2acf 3c3d 4023 143d 0a19 f4bd
00000190: 67fc a73d 9015 b43c 338e 82bc 03cb 55bd
000001a0: 197c a4bc beb6 74bd 414e 4b3d 81ce 91bd
000001b0: 949d a4bd ea1d 663d ffc0 863d 9365 923c
000001c0: ec7f d33d 5040 5cbe c0f3 c13d 6210 2e3d
000001d0: 0310 debc fe84 ca3d a8d5 0e3e 65fd 5c3e
000001e0: f0b9 8a3d 4954 babd 1fc1 9b3d 9d09 473e
000001f0: 5058 e6bd 6ed6 a3bd d8d7 68bd ecd1 4f3b
00000200: dfe5 93bd f092 b1bd 0888 fdbd fb21 90bd
00000210: db47 803d 69de 383e e504 bfbd 224f edbd
00000220: df00 9dbd 8839 fb3d 1efb 9e3d bb4b c23d
00000230: c95b 1fbd 0fbf f83c 4de8 cf3d 2f26 fd3d
00000240: 43f9 b13c 4265 143d b57f e5bd 5158 253e
00000250: 1905 a73d b8cf 9fbb ae91 213c c489 b53d
00000260: e9c9 2dbd 17ad cebc b81b 243e c853 f43d
00000270: 561c 033e 87e5 58be ab69 9ebd b058 073e
00000280: 2889 02be b30d ffbd 7336 823d d8d7 8e3d
00000290: 0cfd 533d 766d 04bc b237 eebc 8313 f0bd
000002a0: 460c ff3d 24c5 e53c 73c6 cb3d 0543 3d3d
000002b0: ba34 2e3d b92a 27be 0e90 c83d f2e8 b2bc
000002c0: dc29 e8bd ba54 3d3d bc56 dd3c 1c99 783e
000002d0: c100 42bd 413c 47be 77b6 323d 32fa 01bd
000002e0: e5b0 b73d 1948 053d bf6e 033d e7b8 ba3d
000002f0: fa42 e7bd 2da1 23bc 4e0e 923d 5f40 12be
00000300: 3d86 5fbd 08ef 5cbd f92d 213b dac4 a33d
00000310: 6c15 f2bd 4443 243d a5ad 4dbd 67ed c83d
00000320: 813f 2cbe b2d6 cc3d ecb4 65be 0bb6 11be
00000330: 8d99 2b3d c54a de3d 4b18 c83d 2e8c 17be
00000340: 2002 e5bd 9589 143d fa42 1e3c 7dd9 033e
00000350: 8824 8dbc 6858 5fbd 3071 883c d161 f3bd
00000360: 708b d53d 8f1d 5dbd 1812 debd 32fe cebc
00000370: 242e 8f3e 7ab7 91bd 9ca8 82bd b3d9 993d
00000380: f2a2 813d ab55 583c 96cf 32bd 1f54 eebd
00000390: e974 8bbd 826b d33d eaf4 873d 312a 2ebd
000003a0: c040 89bd 7e14 9a3c ac6b 0b3d dfa4 86bd
000003b0: c330 973d 2be0 78bd 551b a43d 5841 3e3e
000003c0: 7177 e1bc f44b 26be de8b 4fbe 2a4f 19bd
000003d0: 0e25 4cbd 2dd3 fa3d fae1 a43b 4fea 843c
000003e0: 061d e73c ebcc 733e 745c 51bb 89a1 e4bc
000003f0: 7590 c13d 01ea 523d c965 a33c c3a8 8bbd

l1.bias f4 [100]
-0.19864658 -0.14780548 0.24853785 -0.07168759 -0.2233413 0.07348481 -0.097563766 0.12103394
0.06402652 -0.15639211 0.0062058074 -0.13493517 0.18332143 0.061770268 0.0047135386 -0.10545575
0.12743063 -0.27111825 0.06712187 0.038507756 -0.16317417 0.067959175 0.22466101 -0.028121259
0.22845396 -0.17850983 0.007157314 0.14199352 -0.024886949 -0.17646253 -0.0908656 -0.03508181
-0.09184346 -0.009675065 0.14663476 -0.086385205 0.043206222 0.31904137 0.21188615 0.038067687
-0.11305017 0.10023852 -0.11842443 0.01845246 -0.22731881 -0.14855036 -0.16554569 0.02743355
-0.10394534 -0.0507469 -0.05577261 -0.14030588 -0.09929183 0.07571688 0.07720895 -0.09543957
0.11796213 0.20401946 0.027688008 0.041185863 -0.0469981 0.027254336 0.044483103 0.012542479
-0.16267805 -0.06662263 -0.070566386 -0.04543747 0.11834173 0.018322779 -0.025681518 0.08413185
-0.04391683 0.29590255 0.0122915935 0.16855733 -0.09129096 0.085361205 0.10310917 0.07718222
0.08254078 0.20023157 -0.032936446 -0.02389126 -0.33255586 0.40142122 -0.038993426 0.2192787
0.041411217 -0.22093573 -0.16508028 -0.049722604 -0.11279369 -0.06586782 -0.26511154 0.028924236
0.05869016 0.23270088 0.14306498 0.05984149
00000000: 026a 4bbe 525a 17be b580 7e3e f1d0 92bd
00000010: 95b3 64be 347f 963d 83cf c7bd a4e0 f73d
00000020: 5620 833d 4125 20be 165a cb3b 722c 0abe
00000030: 9db8 3b3e d202 7d3d 0774 9a3b 2ff9 d7bd
00000040: 2d7d 023e 03d0 8abe 3177 893d 4fba 1d3d
00000050: 2117 27be 2e2e 8b3d 890d 663e 8e5e e6bc
00000060: d6ef 693e 48cb 36be e787 ea3b c066 113e
00000070: b7df cbbc 98b2 34be be17 babd f2b1 0fbd
00000080: 6d18 bcbd 2a84 1ebc 6c27 163e baea b0bd
00000090: 02f9 303d 6459 a33e aff8 583e ddec 1b3d
000000a0: d986 e7bd da49 cd3d 8288 f2bd 9d29 973c
000000b0: 43c6 68be 961d 18be cf84 29be 53bc e03c
000000c0: 4be1 d4bd fbdb 4fbd d271 64bd 58ac 0fbe
000000d0: 8459 cbbd 7411 9b3d ba1f 9e3d d275 c3bd
000000e0: 2196 f13d 7aea 503e f6d1 e23c 82b2 283d
000000f0: 1481 40bd 7c44 df3c ea33 363d f87e 4d3c
00000100: 1395 26be 7271 88bd 1c85 90bd a41c 3abd
00000110: 265d f23d a719 963c 0c62 d2bc 524d ac3d
00000120: 22e2 33bd 8a80 973e ae62 493c 4b9a 2c3e
00000130: c1f6 babd dbd1 ae3d e72a d33d b611 9e3d
00000140: 240b a93d 8109 4d3e 5ee8 06bd 9bb7 c3bc
00000150: c344 aabe 1587 cd3e 92b7 1fbd 988a 603e
00000160: cf9e 293d fa3c 62be ce0a 29be eea9 4bbd
00000170: 6100 e7bd b5e5 86bd b3bc 87be 85f2 ec3c
00000180: 1865 703d 2449 6e3e a07f 123e 5a1c 753d

l2.weight f4 [100, 100]
0.0018156958 -0.012584021 -0.2485338 -0.00599184 -0.057624552 -0.05094684 -0.0013589172 -0.0875687
-0.06825304 -0.17025311 -0.085492104 -0.2209325 0.09322835 -0.0916291 0.085737765 0.20718202
0.13154139 0.014894642 0.14232676 -0.033302292 0.045924995 0.10200848 -0.04807442 0.098060936
0.020378685 -0.099572875 0.040510774 -0.1082911 0.07153697 0.03847976 -0.007392875 0.049941633
0.028360851 -0.15736564 -0.040403683 0.015943743 0.14373183 0.00267665 0.10573177 -0.10884205
-0.23469909 -0.15838487 0.09660018 0.24416122 -0.022258587 -0.12531225 0.054536678 0.03649497
0.05939198 0.014930492 0.07620265 0.0766017 0.17044364 -0.06119517 -0.12832472 -0.035503954
0.06400385 -0.06282399 0.0073013473 -0.008105571 -0.10042255 0.12960313 0.05249686 0.12481424
-0.1671323 -0.0035775318 -0.035722792 -0.012170039 0.13082333 0.06335253 -0.078145616 -0.06502434
0.020012803 -0.030093452 -0.04440189 0.09567961 0.039623905 0.13878454 -0.09651901 0.03676117
-0.08931371 -0.09672336 -0.061218128 -0.010559251 0.084619984 -0.056806594 -0.073202126 -0.04502374
0.19870098 -0.09260853 0.03521232 -0.016312055 0.14036334 -0.0042856503 -0.0150072165 -0.045292087
-0.017956011 0.035864837 0.13473581 -0.12295669 -0.027650911 0.07808582 -0.080213755 -0.14352342
0.081797324 -0.09279093 -0.13216355 0.0064455913 0.031849593 -0.11706168 0.17598939 -0.16739978
-0.017863164 0.022753695 0.11506864 -0.106024876 0.046110496 -0.04453033 -0.08539262 0.14728408
0.1905294 0.107760504 -0.006171754 -0.094910815 -0.117552854 0.04477985 0.058664568 0.06603078
-0.10238213 0.114741035 -0.16754955 0.005374359 -0.13084666 0.13779002 0.022699287 0.2741749
0.0018711109 0.20215757 0.07112701 0.017848682 -0.077088386 0.02265005 -0.1289443 -0.15667336
-0.19011302 -0.026704106 -0.08319835 0.06632592 0.09711553 0.06832602 -0.05911247 0.13695481
0.051229354 -0.107958175 -0.02639478 0.036131017 -0.042599134 -0.17288876 -0.11513973 0.068004936
-0.11320465 0.08090136 0.14488067 0.1335688 -0.05563603 -0.047220238 -0.039797828 0.008290973
0.01409154 0.09844067 -0.057702243 -0.09925787 0.03168541 -0.037851736 0.00154386 -0.096651
0.008857196 0.05835069 0.03340173 -0.1693799 0.04330947 -0.1973181 -0.04561922 0.14392555
0.045694444 -0.044892985 0.033673663 0.16844788 -0.16900805 -0.09749049 -0.059364483 0.20861624
0.14660445 -0.22054012 0.050422397 -0.027610144 0.024770526 0.047262806 0.07190862 -0.031006943
-0.16166987 0.034555644 -0.15195635 0.036981218 0.16553622 -0.1619253 0.08694335 -0.08753201
0.1422183 0.18781824 -0.12320839 0.084929876 0.058894373 -0.057488002 -0.057160527 -0.059812903
-0.25151154 -0.009331686 -0.08317526 -0.017713724 0.02975115 0.17609899 0.120926835 0.10144123
0.018900923 -0.013940783 0.017329797 0.0834221 0.093727864 -0.07986021 -0.03644766 -0.0361069
0.06330493 -0.13512535 -0.10310858 -0.01630658 -0.08869448 -0.021937754 0.09691371 0.14592524
0.035748363 -0.09875417 0.031449933 -0.22047485 -0.06782874 -0.08186336 0.043552235 0.10923108
-0.07496583 0.05220921 0.11033004 0.25217026 0.20778961 -0.1586097 -0.009188312 0.11565627
00000000: a4fc ed3a 362d 4ebc a57f 7ebe 3257 c4bb
00000010: b907 6cbd a2ad 50bd b21d b2ba 3857 b3bd
00000020: 40c8 8bbd d556 2ebe 7c16 afbd 213c 62be
00000030: 81ee be3d 0aa8 bbbd 4897 af3d 8627 543e
00000040: c9b2 063e a808 743c 1bbe 113e fc67 08bd
00000050: d91b 3c3d d2e9 d03d afe9 44bd 2cd4 c83d
00000060: 33f1 a63c ddec cbbd a0ee 253d b9c7 ddbd
00000070: fa81 923d f49c 1d3d ee3f f2bb 998f 4c3d
00000080: 0455 e83c 7524 21be 557e 25bd 749c 823c
00000090: 702e 133e bc6a 2f3b e689 d83d 95e8 debd
000000a0: f554 70be a52f 22be 51d6 c53d 6605 7a3e
000000b0: a457 b6bc db51 00be da61 5f3d c07b 153d
000000c0: 0145 733d 069f 743c 2310 9c3d 5ae1 9c3d
000000d0: c788 2e3e c9a7 7abd 8e67 03be 986c 11bd
000000e0: 7314 833d dda9 80bd 2440 ef3b 3bcd 04bc
000000f0: 57aa cdbd afb6 043e f306 573d 9c9e ff3d
00000100: bb24 2bbe 0675 6abb 1052 12bd d864 47bc
00000110: 8df6 053e f9be 813d cf0a a0bd 7b2b 85bd
00000120: e4f1 a33c 8b86 f6bc c2de 35bd acf3 c33d
00000130: ad4c 223d 891d 0e3e c2ab c5bd e192 163d
00000140: 1bea b6bd e616 c6bd dcbf 7abd b500 2dbc
00000150: 3e4d ad3d 08ae 68bd ffea 95bd d06a 38bd
00000160: 4578 4b3e 8aa9 bdbd cb3a 103d dca0 85bc
00000170: 68bb 0f3e a46e 8cbb d4e0 75bc 3284 39bd
00000180: 7c18 93bc 02e7 123d 2ff8 093e b8d0 fbbd
00000190: 2a84 e2bc 75eb 9f3d 1c47 a4bd cef7 12be
000001a0: 5b85 a73d 2c09 bebd e255 07be 8a35 d33b
000001b0: b874 023d 09be efbd 9036 343e d96a 2bbe
000001c0: c555 92bc f565 ba3c 1ba9 eb3d 9223 d9bd
000001d0: 5cde 3c3d 6f65 36bd 53e2 aebd a3d1 163e
000001e0: 241a 433e 8ab1 dc3d 6d3c cabb 9a60 c2bd
000001f0: 8dbf f0bd 136b 373d 424a 703d 253b 873d
00000200: b9ad d1bd 59fd ea3d 1c92 2bbe 641b b03b
00000210: abfc 05be d418 0d3e dbf3 b93c a760 8c3e
00000220: 1040 f53a 6502 4f3e 0aab 913d 6637 923c
00000230: 84e0 9dbd 998c b93c f909 04be fb6e 20be
00000240: fdac 42be 92c2 dabc e663 aabd e2d5 873d
00000250: 82e4 c63d 83ee 8b3d eb1f 72bd e23d 0c3e
00000260: dfd5 513d 2d19 ddbd de39 d8bc 1efe 133d
00000270: 6e7c 2ebd c009 31be 61ce ebbd 2c46 8b3d
00000280: d7d7 e7bd 9daf a53d 995b 143e 42c6 083e
00000290: 9be2 63bd 026a 41bd 0c03 23bd dcd6 073c
000002a0: 34e0 663c 439b c93d 3059 6cbd b647 cbbd
000002b0: 8fc8 013d 6c0a 1bbd 585b ca3a f6f0 c5bd
000002c0: c61d 113c 2201 6f3d 41d0 083d ed71 2dbe
000002d0: 4565 313d c20d 4abe 38db 3abd 3861 133e
000002e0: 192a 3b3d b5e1 37bd 65ed 093d 9a7d 2c3e
000002f0: 7210 2dbe 18a9 c7bd 2c28 73bd 7f9f 553e
00000300: 7a1f 163e 45d5 61be b787 4e3d ab2e e2bc
00000310: 8feb ca3c a596 413d d444 933d 4602 febc
00000320: c98c 25be 388a 0d3d 729a 1bbe 9e79 173d
00000330: 5482 293e bfcf 25be 5b0f b23d fc43 b3bd
00000340: ada1 113e 6d53 403e ae54 fcbd b7ef ad3d
00000350: 3a3b 713d 8a78 6bbd 2821 6abd 60fe 74bd
00000360: 1fc6 80be eee3 18bc ca57 aabd 5f1c 91bc
00000370: afb8 f33c 4b53 343e 7da8 f73d 6bc0 cf3d
00000380: 1cd6 9a3c e267 64bc 38f7 8d3c 35d9 aa3d
00000390: 65f4 bf3d c08d a3bd 244a 15bd d4e4 13bd
000003a0: 04a6 813d 4d5e 0abe 972a d3bd 6095 85bc
000003b0: 74a5 b5bd ceb6 b3bc b27a c63d 6d6d 153e
000003c0: e06c 123d a03f cabd a5d1 003d 29c4 61be
000003d0: cbe9 8abd faa7 a7bd d463 323d 8bb4 df3d
000003e0: af87 99bd 53d9 553d b7f4 e13d 761c 813e
000003f0: cdc6 543e 956a 22be 938a 16bc 32dd ec3d

l2.bias f4 [100]
0.046671733 0.05373354 0.06919044 -0.17202136 0.15590681 -0.1288687 0.16535361 -0.06639686
-0.025921848 0.30410746 0.13056731 -0.020250037 -0.16804259 -0.0002601821 -0.08936374 0.1547078
-0.22065547 0.2830003 0.1281331 -0.37234035 -0.105108865 0.28417084 -0.054246277 -0.28672013
0.09188986 -0.16557597 0.2722941 0.15108676 0.26375535 -0.049180213 -0.12865037 -0.0008471112
0.04875521 -0.16811296 -0.16867849 0.22043478 -0.11305162 -0.045987584 -0.085831456 0.03087436
0.14763576 0.102068245 0.10112404 -0.0015428546 -0.15080523 0.0048081274 -0.0029597175 -0.18610944
-0.11868185 0.060796373 0.03210757 -0.043978654 0.1613984 -0.15873697 0.16369402 0.28201643
0.038204264 0.29685497 -0.21130797 -0.08245843 -0.18929969 -0.12274187 -0.1653943 0.09973007
0.02788193 0.2758414 0.13513677 0.063301995 -0.24199888 0.17228028 0.0077483365 0.028884795
-0.12310427 -0.09397409 -0.063130654 0.053290226 0.039847933 -0.24806908 0.034361 0.059061546
0.18677033 0.15131976 0.05024641 -0.31435773 -0.22506355 0.18413848 -0.2802283 0.00024283791
-0.108265415 0.19681862 -0.092663124 -0.11169394 0.15859513 0.116948046 0.21671759 0.22066528
-0.034800436 -0.0684732 -0.0086671375 0.033107847
00000000: dc2a 3f3d b317 5c3d b8b3 8d3d 5e26 30be
00000010: 09a6 1f3e 28f6 03be 7552 293e 14fb 87bd
00000020: 0e5a d4bc f9b3 9b3e 70b3 053e 68e3 a5bc
00000030: 5b13 2cbe 0d69 88b9 5604 b7bd b96b 1e3e
00000040: 82f3 61be 6ae5 903e 5335 033e 65a3 bebe
00000050: 5143 d7bd d77e 913e 5831 5ebd fbcc 92be
00000060: c030 bc3d bf8c 29be 226a 8b3e 7db6 1a3e
00000070: f10a 873e 3171 49bd ecbc 03be ac10 5eba
00000080: 8bb3 473d ce25 2cbe 0eba 2cbe a8b9 613e
00000090: 9c87 e7bd 7a5d 3cbd 67c8 afbd 3aec fc3c
000000a0: d42d 173e 2809 d13d 1f1a cf3d 9c39 caba
000000b0: b06c 1abe 7f8d 9d3b d2f7 41bb 7993 3ebe
000000c0: 780f f3bd 9e05 793d 3a83 033d f622 34bd
000000d0: 9f45 253e f28b 22be 689f 273e 7564 903e
000000e0: 137c 1c3d 60fd 973e 1e61 58be f7df a8bd
000000f0: c7d7 41be 1760 fbbd 205d 29be 473f cc3d
00000100: a568 e43c 153b 8d3e 4b61 0a3e 7aa4 813d
00000110: 8ece 77be 3e6a 303e c2e5 fd3b ce9f ec3c
00000120: 171e fcbd 7d75 c0bd a54a 81bd da46 5a3d
00000130: 9637 233d d205 7ebe 1fbe 0c3d 85ea 713d
00000140: b940 3f3e 91f3 1a3e 2ecf 4d3d 7ff3 a0be
00000150: 0f77 66be cc8e 3c3e 157a 8fbe 4ea2 7e39
00000160: 42ba ddbd d28a 493e 2ac6 bdbd cbbf e4bd
00000170: c366 223e 7582 ef3d 37eb 5d3e 14f6 613e
00000180: e78a 0ebd ad3b 8cbd 9c00 0ebc 189c 073d

l3.weight f4 [18, 100]
-0.01007814 0.06312203 0.03854279 0.23035343 -0.043399855 0.1471145 -0.015657455 -0.13885841
0.07039666 0.0065449253 0.21835624 -0.03274152 0.013751636 -0.20683871 0.06942008 -0.011564624
0.007429781 -0.22582908 0.006675272 0.008886756 -0.12425689 -0.043350153 0.1972203 -0.033808846
0.011969217 -0.0023415214 -0.17164683 0.14163432 -0.04366994 -0.04069527 0.0028274385 0.0034628143
0.106190525 0.05435541 0.05073145 0.08156877 -0.06660746 0.29106325 -0.11847261 -0.034630045
-0.2118243 0.15135804 0.19019186 -0.020477371 -0.115518056 0.08512401 -0.16263004 -0.018375346
0.040234152 0.053511605 0.12778133 -0.04078624 0.17819275 0.08148292 0.0068464098 0.29578313
-0.030269496 0.10689887 -0.14378084 0.115253255 0.055240434 0.045062024 0.02257039 -0.038110577
-0.11643953 0.2498317 0.045787584 0.018421974 -0.032371666 -0.16265061 -0.053779993 0.14111036
0.12832509 -0.0702853 -0.029212393 0.104439296 0.0075545385 0.08505237 0.16802134 -0.22204147
-0.0022214705 0.16649805 0.053043768 0.13763247 0.023144564 -0.27409014 0.112717494 -0.0909888
0.020103686 -0.3925494 -0.064993784 0.14855465 -0.054134537 0.0008812142 -0.16741213 0.052648865
-0.2559319 0.03026276 0.12587062 0.14869867 0.16602534 0.17057839 0.19919626 0.043188147
0.07460575 0.16354097 0.1283591 0.09841521 0.048625097 0.01942039 0.093872055 -0.14103884
0.18786338 0.17414477 -0.022270195 0.045859434 0.0015855605 0.09047255 -0.14198893 0.022310734
-0.007800945 0.013566975 -0.26990834 -0.31134856 -0.18000294 0.03129993 0.052114103 -0.09036959
-0.085394666 0.23727402 -0.26379165 0.026793452 0.19074576 -0.036645684 -0.2897369 0.025807466
0.22905359 -0.112604454 0.031773582 0.27120647 -0.059296686 -0.056015104 0.029256752 -0.066890895
-0.012790704 -0.05138955 -0.074614085 -0.25341436 -0.11838148 0.28201586 -0.054739986 0.19095758
0.26647544 0.10707834 0.10995667 -0.012007493 -0.15329926 -0.070482604 0.037337758 -0.09772845
0.1408712 0.0009896455 0.08238626 -0.17796011 0.024364712 -0.026974887 0.12982193 0.06281948
-0.16414848 0.16103658 0.021149404 0.14833905 -0.30330437 -0.050777953 0.0069157504 -0.10517171
-0.21829456 0.035258897 -0.034610588 -0.06942204 -0.03528965 0.011374208 0.042035695 -0.11432854
0.03567281 0.11048492 -0.24204996 0.045269724 0.2965326 0.18181469 -0.2753383 -0.17268026
0.13977343 -0.039931405 0.18877095 -0.1421306 0.01733423 0.03615219 -0.10931627 0.1371022
0.050382994 0.25917897 0.00048863585 0.15356587 0.20068723 0.0037443764 0.027969902 0.015691957
-0.346286 -0.041730143 -0.122893654 0.03838759 0.008400401 -0.048764676 0.041085523 0.06665399
-0.277487 0.20380636 0.037838455 0.15268818 -0.015076105 -0.13381448 0.0024672002 -0.032774758
0.17103596 0.12538156 -0.028923461 0.1440507 -0.085452914 -0.07827255 0.076731615 0.049765702
0.12544224 0.08801958 0.20633304 -0.083641775 -0.12205156 0.15338649 -0.02936256 -0.088876
-0.04092271 -0.08327359 0.101692036 -0.068176836 0.21569194 -0.091397986 0.22051355 0.029849892
0.20960636 -0.08564151 -0.075662374 0.06253332 0.051857755 -0.29124218 -0.0075318753 -0.2361072
00000000: c81e 25bc 1f46 813d 0bdf 1d3d c5e1 6b3e
00000010: 0cc4 31bd 2fa5 163e 1044 80bc e630 0ebe
00000020: 202c 903d d076 d63b c798 5f3e f91b 06bd
00000030: 8b4e 613c 87cd 53be 1d2c 8e3d 8c79 3dbc
00000040: 8575 f33b bd3f 67be 3dbc da3b c299 113c
00000050: 657a febd ee8f 31bd 1ef4 493e 257b 0abd
00000060: 891a 443c 3674 19bb 30c4 2fbe 9608 113e
00000070: 40df 32bd 15b0 26bd 8c4c 393b 62f0 623b
00000080: 6b7a d93d c7a3 5e3d c8cb 4f3d 870d a73d
00000090: 7e69 88bd 3e06 953e c5a1 f2bd 3cd8 0dbd
000000a0: 78e8 58be 9afd 1a3e a8c1 423e 29c0 a7bc
000000b0: bb94 ecbd 7f55 ae3d 7d88 26be e587 96bc
000000c0: 91cc 243d fc2e 5b3d 1cd9 023e 790f 27bd
000000d0: 2978 363e 84e0 a63d d957 e03b e370 973e
000000e0: bcf7 f7bc cbed da3d 493b 13be e609 ec3d
000000f0: cb43 623d f592 383d 8ae5 b83c d619 1cbd
00000100: d977 eebd e2d3 7f3e c38b 3b3d aee9 963c
00000110: 2798 04bd e28d 26be 6948 5cbd 3c7f 103e
00000120: a767 033e bdf1 8fbd d44e efbc 45e4 d53d
00000130: 108c f73b f02f ae3d c90d 2c3e d75e 63be
00000140: 1796 11bb 777e 2a3e 6c44 593d 87ef 0c3e
00000150: ab99 bd3c 8b55 8cbe 6ed8 e63d 5658 babd
00000160: 7cb0 a43c 3cfc c8be 761b 85bd b61e 183e
00000170: 2dbc 5dbd 4901 673a 166e 2bbe 56a6 573d
00000180: 8209 83be 9ce9 f73c 3ae4 003e 7744 183e
00000190: 8c02 2a3e 1aac 2e3e 1bfa 4b3e 0ee6 303d
000001a0: e6ca 983d 4977 273e 9170 033e ea8d c93d
000001b0: 1c2b 473d 8217 9f3c fe3f c03d 7c6c 10be
000001c0: 425f 403e 0253 323e fc6f b6bc 1ad7 3b3d
000001d0: 95d2 cf3a ac49 b93d 8c65 11be 00c5 b63c
000001e0: 129f ffbb 0448 5e3c 6d31 8abe 1469 9fbe
000001f0: b152 38be 5b34 003d 9975 553d b113 b9bd
00000200: 66e3 aebd f6f7 723e b30f 87be f17d db3c
00000210: db52 433e c919 16bd 6558 94be 2e6a d33c
00000220: 068d 6a3e 2a9d e6bd 0425 023d 93db 8a3e
00000230: 15e1 72bd 1870 65bd dbab ef3c 18fe 88bd
00000240: 1a90 51bc d97d 52bd 45cf 98bd 87bf 81be
00000250: fd71 f2bd 6264 903e 0937 60bd 628a 433e
00000260: 786f 883e e44b db3d f630 e13d 13bb 44bc
00000270: 7bfa 1cbe 2f59 90bd 7aef 183d db25 c8bd
00000280: 8a40 103e feb6 813a 21ba a83d 2d3b 36be
00000290: 8198 c73c 70fa dcbc 0af0 043e 80a7 803d
000002a0: 8a16 28be c6e6 243e 8441 ad3c 31e6 173e
000002b0: b64a 9bbe 8bfc 4fbd 859d e23b 4464 d7bd
000002c0: 9c88 5fbe a26b 103d d5c3 0dbd 242d 8ebd
000002d0: e18b 10bd e35a 3a3c 9f2d 2c3d 1525 eabd
000002e0: a71d 123d eb45 e23d f2db 77be bf6c 393d
000002f0: 1fd3 973e a12d 3a3e 24f9 8cbe 18d3 30be
00000300: c420 0f3e 1d8f 23bd 2c4d 413e af8a 11be
00000310: 8400 8e3c 5214 143d 35e1 dfbd 8564 0c3e
00000320: 665e 4e3d 1bb3 843e cc17 003a 5f40 1d3e
00000330: f480 4d3e 3664 753b 2321 e53c 6b8c 803c
00000340: 664c b1be 3aed 2abd abaf fbbd 4e3c 1d3d
00000350: d6a1 093c 78bd 47bd 4b49 283d e381 883d
00000360: c712 8ebe 9db2 503e 7ffc 1a3d 4a5a 1c3e
00000370: c401 77bc aa06 09be c0b0 213b d33e 06bd
00000380: 0d24 2f3e 0664 003e e5f0 ecbc 0782 133e
00000390: f001 afbd 5c4d a0bd 7725 9d3d 1fd7 4b3d
000003a0: ee73 003e 9c43 b43d f848 533e 614c abbd
000003b0: 2bf6 f9bd 5911 1d3e c089 f0bc 9f04 b6bd
000003c0: 929e 27bd 588b aabd ea43 d03d 4ca0 8bbd
000003d0: 59de 5c3e de2e bbbd 4ece 613e c387 f43c
000003e0: 0da3 563e d164 afbd e0f4 9abd 7811 803d
000003f0: cc68 543d b21d 95be f3cd f6bb 16c6 71be

l3.bias f4 [18]
-0.27639687 0.018888835 -0.8235064 0.10586883 0.24726589 0.21242584 0.081975415 0.2343723
0.2633685 -0.21267699 0.3187106 -0.47618628 -0.28658542 0.07712431 0.46166304 0.31365815
0.39809245 -0.045948725
00000000: e483 8dbe c2bc 9a3c 51d1 52bf c2d1 d83d
00000010: 4533 7d3e 2986 593e bae2 a73d 4bff 6f3e
00000020: 3cd8 863e ffc7 59be 092e a33e b0ce f3be
00000030: 53bb 92be 5af3 9d3d 195f ec3e cd97 a03e
00000040: c6d2 cb3e bb34 3cbd
