LARA/weight/d_20.pt (torch, 94631 bytes, 7 tensors)

D_attr_matrix.weight f4 [36, 5]
000000 73 42 98 bd ad a4 89 3e da 45 02 bf 0e 46 c4 3e
       -0.07434549 0.2688345 -0.50887835 0.38334697
000010 cc 1a ef 3d b0 58 e9 3e 7e 46 f5 3e 47 84 51 3d
       0.11675033 0.45575476 0.47905344 0.05115154
000020 76 af b8 3e da eb b4 3e 14 24 18 3f 9d f8 60 be
       0.36071366 0.3533619 0.5943005 -0.21969838
000030 94 87 4f be a8 60 f0 3d fa c2 e3 3d e7 3b 2c 3e
       -0.20266563 0.11737186 0.11121173 0.16819726
000040 7c 3a 92 be 83 6d a7 bd 34 69 3e 3e c5 ff 67 3e
       -0.28560245 -0.081751846 0.1859482 0.22656162
000050 2c d0 f7 bd ab c3 b8 be 2e 10 10 be 7f 32 2a be
       -0.121002525 -0.36086783 -0.14068672 -0.16620825
000060 e2 de 83 bd 97 c2 12 be ca 3a c4 3d bc e1 a5 bd
       -0.06438996 -0.14332043 0.095815256 -0.08099696
000070 8b c8 ac be e2 f0 72 bd 9d cf e9 3e 01 19 91 bd
       -0.33746752 -0.059311755 0.4566621 -0.07084847
000080 08 36 c5 3d 0d c6 fc 3d 20 d4 5a bd 99 51 34 3e
       0.09629446 0.12342463 -0.053424954 0.17609252
000090 ef b6 44 3e cb 13 d6 3d 4c 63 03 3f 29 00 d3 be
       0.19210409 0.10452994 0.5132339 -0.4121106
0000a0 4b a5 81 be 40 62 c1 3e fb b3 72 bd 2f ec 97 bb
       -0.2532142 0.3777027 -0.059253674 -0.0046363096
0000b0 c4 79 5a be 10 77 a8 bd 28 71 31 3e 54 b3 16 be
       -0.21335512 -0.08225834 0.17328322 -0.14716846
0000c0 50 4d 31 be 6e b8 1e bd d3 06 b8 bb d5 ff 2c bd
       -0.17314649 -0.038750105 -0.005616048 -0.042236168
0000d0 0f 25 82 be db 31 a9 3e e3 fe 03 3d 7a 81 af 3d
       -0.25418898 0.3304585 0.0322255 0.085696176
0000e0 43 06 aa 3b 37 3f ef bc 6f 01 28 3d 8f 14 31 3e
       0.0051887347 -0.029204948 0.041016992 0.17292999
0000f0 80 7f 31 3e 5a 62 82 bb 0b 9f 23 3e fd 54 1a be
       0.17333794 -0.0039790096 0.15978639 -0.15071483
000100 fd 6f 2b be 5f 7f 21 3d 5f e6 2a 3f 85 48 3a 3e
       -0.16741939 0.03942811 0.6675777 0.18191727
000110 a5 f9 46 3e 79 aa 37 bd 97 9c 95 be b1 5c 9a be
       0.1943117 -0.04484031 -0.2922103 -0.30148843
000120 bb f9 1d bd 0f 10 ff 3d 8a c7 4f 3e 9b e4 84 3e
       -0.03856824 0.12454235 0.20290962 0.25955662
000130 16 66 97 bd eb 20 bf bd 02 c0 8e 3e b3 5a 88 3e
       -0.07392518 -0.093324505 0.27880865 0.26631698
000140 ca 9b 95 be a2 3e 9c bd 43 04 ad 3d b6 42 e4 be
       -0.2922042 -0.07629134 0.084480785 -0.44582146
000150 6d a8 27 3e 04 c3 9d bd 5b 18 5b be 80 4c 34 bd
       0.16372843 -0.07703212 -0.2139601 -0.04401827
000160 d6 8a 00 bf f4 01 b3 bd 8a f0 4a 3e 42 ab d2 bd
       -0.50211847 -0.08740607 0.19818321 -0.10286571
000170 23 92 af 3e 36 dc 9d 3e 2f a0 56 be b5 2e ba 3e
       0.3429118 0.3083207 -0.20959543 0.3636376
000180 8a 2d 0d bf cb 2f b8 bd f5 77 c3 3e 14 7d 1d bf
       -0.5514761 -0.08993491 0.38177457 -0.6151898
000190 a5 3f f0 bd ec 25 02 3f 6d be 16 3e 58 af 9e 3e
       -0.11730889 0.50839114 0.14721079 0.30993152
0001a0 b8 d4 4b 3e 4c ae 5f 3e e5 c7 26 3f 6c 42 b7 3e
       0.19905365 0.21843833 0.65148765 0.35792863
0001b0 9a 57 9f be 55 32 cf bd 64 bb 70 bd 8f be 0e be
       -0.31121522 -0.10117022 -0.05877246 -0.1393988
0001c0 b2 b3 92 be a1 e1 8a 3b d8 51 09 3e 7e 12 73 3d
       -0.28652722 0.004238323 0.13410127 0.059343807
0001d0 a6 dd e8 be ab ed 02 bf 33 0c f1 3d 17 56 05 bd
       -0.45481604 -0.511439 0.11769905 -0.032552805
0001e0 ed 62 ef 3d fb 9e 12 3e 57 90 16 3e e6 c4 df be
       0.116887905 0.14318459 0.14703499 -0.4370491
0001f0 a7 45 17 be 2b cf 0e 3d 53 dd 0a 3f 32 8d ea 3d
       -0.14772664 0.03486554 0.54243964 0.11452712
000200 b0 e3 7a be 23 d1 03 3e 09 ab 10 3e 7b 2b 77 be
       -0.24500918 0.12872748 0.14127745 -0.2413768
000210 f6 5d f5 bd e9 47 28 3e 89 21 fe bd 2d 82 95 3e
       -0.11980812 0.16433682 -0.1240874 0.2920088
000220 d2 9a be bd 59 73 db bc 2c c4 ae bd 03 cd 84 3e
       -0.093068734 -0.0267884 -0.085335106 0.25937662
000230 c2 9f d0 be f0 23 cf bd c2 c3 84 3e 31 e1 a9 3e
       -0.40746886 -0.101142764 0.259306 0.3317962
000240 0f 68 3e be 55 72 12 be 83 9b 98 be d7 ac f0 3d
       -0.18594383 -0.14301427 -0.29806146 0.117517166
000250 3f ca f5 3e 06 54 bb be 2c 0c 60 3d b7 8f 77 3e
       0.48005864 -0.36587542 0.054699108 0.24175917
000260 9b 48 ad 3e 80 e8 30 3e fd 83 6a 3e 37 c3 7d be
       0.33844456 0.17276192 0.22901912 -0.247815
000270 20 1f 4d be cd 37 9a 3e 06 5e 57 3e bc a2 c8 bc
       -0.20031404 0.30120698 0.21031961 -0.02449166
000280 98 2f c1 3c 01 19 66 be 4f 29 03 be 19 77 96 3e
       0.023582265 -0.22470476 -0.12808727 0.2938774
000290 40 56 db 3e 45 95 8d 3e f1 ae ad 3e c6 b0 16 bf
       0.4283924 0.27652946 0.33922532 -0.58863485
0002a0 f3 ae d4 bd da 4d 38 be 24 5a 24 be 04 07 c2 3d
       -0.103849314 -0.17998448 -0.16050011 0.094739944
0002b0 20 04 a1 3d a7 8e 0f be 8b 7b 0d 3e c1 ab b1 be
       0.07862115 -0.14019261 0.13816659 -0.3470135
0002c0 f9 89 52 3e e5 ab 94 3d fa 02 f8 3d 61 fb 5a 3e
       0.20560445 0.07259349 0.12109943 0.21384956

l1.weight f4 [100, 108]
000000 c1 3f ca 3c c1 79 26 3b f6 6a 3d 3e 43 9f 0d bd
       0.024688603 0.002540216 0.18497834 -0.034575712
000010 90 1e ab bd 8c 85 d0 3c 90 f4 7d 3e d0 c7 c8 3d
       -0.08355439 0.025454305 0.24800324 0.09803736
000020 a2 7d 32 bd 54 89 d8 3d e2 7f 7c bd c6 5a b4 bd
       -0.043576844 0.10573068 -0.061645396 -0.08806376
000030 ab c7 31 3e b4 db b4 3d a6 ab c9 3d 08 eb c6 bd
       0.17361324 0.088309675 0.098471925 -0.097127974
000040 21 e7 2c 3e 99 6e ee bd 21 46 6a 3a 0e 29 9a 3d
       0.16885044 -0.116421886 0.00089368416 0.07527362
000050 af ee 89 bd 9f 85 08 bd 14 1e f0 bd e6 35 90 bd
       -0.067349784 -0.033330556 -0.11724487 -0.0704153
000060 4e fc 3d bd a0 e5 90 bc 7f e8 5e 3d d1 6d 00 3d
       -0.046383195 -0.017687619 0.054420944 0.03135473
000070 9b 9d 55 be bf ef 1b bd 86 5a 82 3d c6 cf cb bd
       -0.20860903 -0.038070437 0.06364922 -0.09951739
000080 c5 4f 5e 3d 4c 13 f7 3d 5f 86 9c 3c d0 e7 57 3c
       0.054275293 0.120642275 0.019107042 0.013177827
000090 9a c4 36 bd 5c 03 a6 3c 31 7d 36 be d1 69 14 3e
       -0.044621088 0.020265274 -0.17821194 0.14493491
0000a0 b1 21 40 3d 60 66 8a 3d 18 3a 23 be b0 30 8b 3d
       0.04690713 0.06757808 -0.1594013 0.06796396
0000b0 02 6e 44 3d fc 4f c6 bd c5 45 e8 bc 70 6e 2e bd
       0.047956474 -0.096832246 -0.028353581 -0.04258579
0000c0 f5 d4 7e bd 89 a4 a3 3d 16 b5 d9 3d 56 53 16 be
       -0.06221481 0.07990367 0.106302425 -0.14680228
0000d0 3f 78 e7 3c 5e 11 7f bd 53 ed 79 bd 9a 7b b0 3d
       0.02825558 -0.062272422 -0.061017346 0.08617325
0000e0 d1 20 36 bd 73 ff 00 bc 95 a5 a8 3d 65 15 a1 3c
       -0.04446489 -0.007873404 0.08234707 0.019663522
0000f0 db 87 8d bd a8 8d 84 3d 2f b6 a7 3d e5 3d a4 bd
       -0.06910678 0.06472331 0.08189046 -0.08019618
000100 37 1a 46 3c 85 55 08 3c 77 3e f6 bc ba 6a 0f 3d
       0.012091211 0.008321171 -0.030059082 0.03501389
000110 b2 b0 12 be 8d 91 1b 3e ec 54 2b 3e 41 fa 45 3d
       -0.14325216 0.15192242 0.16731614 0.048334364
000120 16 bf fb bb 32 96 8f 3d dc e1 fe 3d 40 b0 22 bd
       -0.0076826913 0.07011069 0.12445423 -0.039718866
000130 49 b8 27 be 96 07 08 be bd 7b bc bc 8c 63 b3 3d
       -0.16378893 -0.13284144 -0.023008222 0.087592214
000140 8c 7d e8 bd 5f 33 ab 3d af 86 5d 3d 27 55 ab 3d
       -0.11352071 0.08359408 0.054083522 0.08365851
000150 fb 70 7c 3d 1b 33 55 bd fb e1 17 3e b5 1b e6 bd
       0.061631184 -0.05205069 0.14832298 -0.112357534
000160 68 55 db bd 9f d2 a6 bc c5 a9 8a be c8 b3 92 bb
       -0.10709649 -0.020364104 -0.2708265 -0.004476998
000170 d9 ef 8a 3e 85 16 cb bd 4e 6f 3c 3d e0 dd c7 bd
       0.27136114 -0.09916405 0.046004586 -0.09759116
000180 e1 2b 86 be 1e 84 9d bd d9 6b b8 bd c0 0d f6 3d
       -0.26205352 -0.07691215 -0.09004945 0.12014341
000190 c9 b5 e4 3d 21 55 2d bc 0b 7d 6b 3e 7f 67 19 be
       0.11167485 -0.010579378 0.22996919 -0.14980887
0001a0 f8 6c 8f 3c 46 42 5d be fd 16 3a 3d 2b 9e 2a bd
       0.017508015 -0.21607313 0.04543208 -0.041654747
0001b0 99 74 13 3e e3 a2 a2 bd a7 dc 32 3d 86 fe 76 bd
       0.14399947 -0.079412244 0.04366746 -0.060301326
0001c0 ce 28 0a 3e b4 1c 5a 3e e0 80 b3 bd 82 18 fb 3d
       0.13492128 0.21300012 -0.08764815 0.12260534
0001d0 d3 de 2c 3c 41 6a 8c 3c ab e8 c3 3d d0 ed 05 be
       0.010551172 0.01714051 0.09565862 -0.13079
0001e0 21 04 65 bd 21 ee 4a bd 0e 51 c3 3c ee b9 4c 3e
       -0.05591214 -0.049543504 0.02384236 0.19992802
0001f0 14 22 08 be 47 b0 39 3d 09 9f 67 bd 5d 0c 46 3c
       -0.1329425 0.045334127 -0.056548152 0.012087909
000200 bd 4e 32 be ab fd 8b 3e 0d e2 29 bd 3f 11 1a be
       -0.17412849 0.2734197 -0.041475344 -0.15045641
000210 d2 95 fe bd a1 3c 67 bc f0 ea d1 bd b9 1c 82 3d
       -0.1243092 -0.014113576 -0.10249889 0.06353135
000220 09 bf 78 3d 00 77 3d 3d 58 63 b1 3d 54 4f c4 3d
       0.06072906 0.046256065 0.086615264 0.09585443
000230 84 c3 18 3e f0 5c ef bd e6 4c 8e 3d d1 af 73 bc
       0.14918333 -0.11687648 0.06948261 -0.014873461
000240 67 63 53 3c e0 d2 89 3d 45 3f 24 3e b8 a0 0f be
       0.012902117 0.06729674 0.1603976 -0.14026153
000250 d6 fa da bd cd 9d c5 bd bb 8b cc 3d 27 56 01 be
       -0.106923744 -0.09649239 0.09987589 -0.12630521
000260 bf 25 d7 3d ce 55 5f 3d 0e 14 c0 bd 10 51 15 bd
       0.10505246 0.05452519 -0.09378825 -0.03645426
000270 02 86 78 3e ec 6c 25 3b 9a cd 74 3d 96 8b 9c 3d
       0.2426987 0.0025241924 0.05976639 0.076438114
000280 81 6b bb 3d e7 53 a7 3c c7 98 f1 bd 79 8a 4c be
       0.09151364 0.02042575 -0.11796718 -0.19974698
000290 f6 d2 fe bd 75 22 a4 bc 89 67 a7 bd ed a5 2f 3d
       -0.12442581 -0.020035962 -0.08174045 0.04288285
0002a0 8c a1 3b 3e d8 a1 d3 bd 8c 44 e4 3d 6c 1a 9a bd
       0.18323344 -0.103336036 0.11145887 -0.07524571
0002b0 69 0f c2 bd 0b 7b c2 bc 5f 01 a5 bd 18 8b db 3d
       -0.094755955 -0.023740312 -0.08056902 0.107198894
0002c0 13 56 45 3d d6 7c 18 3d d0 09 8f bc d1 34 11 bc
       0.04817779 0.037228428 -0.017460734 -0.00886269
0002d0 84 c6 99 3d 97 99 03 3e 59 dc 8b be 4f 78 4f 3e
       0.07508567 0.12851559 -0.2731655 0.20260738
0002e0 79 dd f2 3d 7b 99 bf 3d 43 d3 4b bd 49 86 7f 3d
       0.11858649 0.09355446 -0.04976202 0.062383924
0002f0 d7 4b 33 3d c1 af 53 be 18 c9 96 3d d1 df 27 3e
       0.0437735 -0.20672514 0.07362574 0.16393973
000300 47 7b c3 bd dd 41 a9 bd 0b f2 03 3d a2 d0 1f 3c
       -0.09544998 -0.082645155 0.032213252 0.009754332
000310 f1 ad 6f be 27 82 27 3e 20 9c e0 3d 37 10 f9 3d
       -0.23406197 0.16358243 0.109672785 0.12161296
000320 37 6c d7 3c 2e 78 57 3d d0 de 56 3d bc a7 69 3d
       0.026296718 0.052604847 0.052458584 0.05704473
000330 ec c9 e2 3d 30 34 15 bd 7c cd 22 bd 70 7b 21 3c
       0.1107367 -0.036426723 -0.039746746 0.00985609
000340 6c 1a ca bc cc 6d a9 bb 60 35 fd bc a6 77 9a 3d
       -0.024670802 -0.0051705595 -0.03090924 0.075423524
000350 e9 a5 03 be d1 e9 a6 3d c3 df 35 be 93 e6 2f 3c
       -0.12856258 0.08150066 -0.1776114 0.0107361255
000360 03 f3 a3 bd 80 a0 cf 3d 1a 78 dc 3d d4 f9 22 be
       -0.08005335 0.10138035 0.10765095 -0.15915614
000370 cd 67 18 be 6c 37 0c bc 6c 33 f4 3c aa 33 9e bc
       -0.14883347 -0.0085581355 0.029809676 -0.019311745
000380 92 46 b8 bd f0 a1 3d bd 08 e4 26 be 20 7b 7a 3d
       -0.08997835 -0.046297014 -0.16297925 0.061152577
000390 86 59 66 3d 3a 31 3e 3d 45 48 15 bd ad 23 f8 bd
       0.05623772 0.046433665 -0.036445875 -0.121161796
0003a0 30 72 ac 3d 46 83 de 3d 6d 37 b5 3d d0 54 fb 3c
       0.08420217 0.10864882 0.08848462 0.03068009
0003b0 07 7e 7b 3d cc 17 2a 3e c0 53 8a 3d d9 27 82 bd
       0.061399486 0.1661064 0.06754255 -0.063552566
0003c0 7b 53 bc bc cc 18 a7 3c 0d 50 bb 3d 81 3f 76 3d
       -0.022989025 0.020397566 0.09146128 0.060119156
0003d0 52 de ec 3d 9e dc ca bd 1d df aa bd 0c 32 4e be
       0.11565842 -0.09905361 -0.08343337 -0.20136279
0003e0 4a eb 51 bc a3 b2 d0 bc 69 66 9f bd 75 b0 6d bd
       -0.012812445 -0.025475806 -0.07783205 -0.05802961
0003f0 83 66 ef bc 26 4a 57 3d cc 0f e8 bb ae 74 43 be
       -0.029223686 0.052560948 -0.0070819613 -0.19087479

l1.bias f4 [100]
000000 e8 7c 18 bd 57 ce 43 3e ed ff 23 be 15 1c 3f 3c
       -0.037228495 0.19121681 -0.16015597 0.01166441
000010 99 ee f4 3d 5b 58 1a be b0 5d 44 3d 50 72 b0 3e
       0.119595714 -0.15072767 0.04794091 0.34462214
000020 7c 99 49 be 20 f1 8c 3e 21 62 b4 bd 8a 67 87 be
       -0.19687456 0.27527714 -0.08807779 -0.26446182
000030 2c 2c 20 bc b8 51 b8 bd 88 88 75 3e bf b3 9c bd
       -0.009776156 -0.089999616 0.23977864 -0.07651471
000040 5e 9f 1b 3e a6 68 1f 3d ce 21 b0 3b 73 7c 8b bc
       0.15197513 0.03891816 0.0053751236 -0.017027115
000050 0d 77 80 be e8 d1 20 bd 33 9f 32 bd 8e 9f 1f 3e
       -0.2509083 -0.039262682 -0.043608855 0.15588209
000060 f5 00 aa bd fc 69 12 3e da bb 84 3d ba 7e 93 bd
       -0.08300964 0.14298242 0.06481142 -0.072019055
000070 b6 fa e0 3d 31 58 1f be fc e8 90 3d 00 12 53 3e
       0.10985319 -0.15560986 0.07075688 0.20612335
000080 54 84 a9 3d d1 6f b1 bd 73 89 72 bd cc 27 dc bc
       0.08277193 -0.086639054 -0.059213113 -0.026874445
000090 16 b6 e0 3e ea 8c d4 3d 0c f2 66 be 72 83 de bd
       0.4388892 0.1037844 -0.22553271 -0.10864915
0000a0 ed ee 25 be e5 b2 ba 3c 5f 08 09 3e f6 e2 41 3e
       -0.16204424 0.022790382 0.133821 0.18934235
0000b0 e7 97 f6 3d 69 41 aa 3d 3e cb 0a be c6 2a fb bd
       0.12040692 0.08313257 -0.13554093 -0.12264018
0000c0 50 49 ea bd 1f af 23 be a7 a2 6c 3d 6f da 23 be
       -0.114397645 -0.15984772 0.057772305 -0.16001295
0000d0 ac e1 90 3d e7 88 11 be 7b c9 7e 3e f6 f8 88 bc
       0.070742935 -0.1421238 0.24881546 -0.016720276
0000e0 0a b4 fb bd cb 3b 10 be f8 32 67 3e 1c 45 f8 3d
       -0.12290199 -0.14085309 0.22578037 0.121225566
0000f0 25 f1 c0 bd ae 91 1d 3c 87 98 19 bb 65 a5 db bd
       -0.09420995 0.009617252 -0.002343686 -0.10724906
000100 d0 56 66 3e f6 46 86 3c c2 d7 0e 3e 1d c2 bb bd
       0.22494054 0.016391259 0.13949493 -0.091678835
000110 fc 42 6a 3d 19 f8 03 bd 37 f6 dc bd 4f 46 30 3d
       0.057192788 -0.032219026 -0.10789149 0.0430358
000120 84 13 69 3e 8f 11 d2 bd ef f4 21 3e f4 9e 44 3d
       0.22761351 -0.10257255 0.15816091 0.048003152
000130 a1 de ea 3c 3a cf 90 3d fd ef 08 3c 7e 21 50 bd
       0.02867061 0.07070775 0.008357999 -0.05081319
000140 01 42 ab be 35 07 5b bd de 6e 26 be d7 53 11 be
       -0.33448794 -0.05347367 -0.1625323 -0.14192139
000150 a0 19 65 be a5 e8 05 3e e9 45 36 3d 1d 1e a9 3d
       -0.22373056 0.13077028 0.044500265 0.08257697
000160 78 0d 1c 3d 9c 99 b8 3e e1 a4 38 3d fb a0 1d 3e
       0.038098782 0.36054695 0.045079116 0.1539344
000170 70 e9 a3 be 61 68 be bc 0b 2b d0 bd d5 17 06 be
       -0.32014036 -0.023243131 -0.1016446 -0.13095029
000180 10 d6 3c bc 5f c5 2a 3e 08 ad 34 3c 3d 23 df bc
       -0.011525646 0.16676854 0.011027582 -0.027238483

l2.weight f4 [100, 100]
000000 73 58 78 3c 5d d9 21 be 52 43 3e 3e 2b dc f8 3c
       0.015157807 -0.15805574 0.18580368 0.030378422
000010 cc 4b f3 bd 63 73 c7 3c 86 1a 86 3d 30 5e 56 3d
       -0.118796915 0.024347013 0.06548028 0.052335918
000020 90 92 1a 3e 2f c2 ff 3d 37 ef 81 3e f1 ca 85 3d
       0.15094972 0.124882095 0.2537782 0.065328486
000030 e4 03 f8 bb f4 38 09 3d 04 93 82 be 22 de 8a bd
       -0.007568823 0.03350158 -0.2550279 -0.0678065
000040 ac 0c a0 bd 66 aa fb 3c a4 b5 b0 3d 57 a8 3d 3e
       -0.07814917 0.0307209 0.08628395 0.18521248
000050 e4 f6 a0 bd d7 35 0f be c9 0a e9 bb dd 3a d5 3d
       -0.07859591 -0.13985382 -0.0071118814 0.10411618
000060 76 27 13 3d f9 49 89 3d 61 37 0c be 2b 8e 8e 3d
       0.035926305 0.06703562 -0.13693 0.0696071
000070 41 a1 e3 bd 47 6c 82 be 89 56 b3 bd 48 6b cf bd
       -0.11114741 -0.25473234 -0.0875674 -0.10127884
000080 4f ce c8 bd 89 54 93 bd 59 0c 30 3e da 93 c5 3d
       -0.09804975 -0.07193858 0.1719221 0.09647341
000090 29 d4 dc 3a 31 e8 3b bd 58 b4 6c 3e e6 89 27 bd
       0.0016847897 -0.04587573 0.2311567 -0.040902995
0000a0 4e 97 2e 3d 3c a0 1d be ee 02 06 bd e6 ae 0c bd
       0.042624764 -0.15393156 -0.032717638 -0.034346484
0000b0 4a 61 37 be 0e bf 34 3e 07 59 4c be 32 37 8e 3e
       -0.17908207 0.17651007 -0.19955836 0.27776486
0000c0 d8 74 72 bc 7f 20 6d 3d f3 29 2e bd 01 26 82 bc
       -0.0147983655 0.05789232 -0.042520475 -0.015887262
0000d0 d0 e8 b2 3d e5 7d 79 3b bb c4 56 bd 1e 05 25 bd
       0.08735812 0.0038069424 -0.05243371 -0.040288083
0000e0 e6 e0 3e bd 16 e9 fe 3a bd 7c 5c 3d b9 9a 93 bd
       -0.0466012 0.0019448127 0.053829897 -0.072072454
0000f0 98 7a 69 be 2f 9b c9 bc c8 28 08 be b3 e4 84 3c
       -0.22800672 -0.02461013 -0.13296807 0.016222334
000100 19 9f ab bc 1d f4 05 bd 39 1d 89 bd 55 5c 96 3d
       -0.020949887 -0.032703508 -0.06695027 0.0734183
000110 a5 d3 14 be b1 a5 f1 3d 77 2a 45 3d 8c e1 6d be
       -0.14533861 0.11799181 0.0481362 -0.2323057
000120 e0 82 b3 3d e8 7c be 3d 4c 77 0e be 21 72 11 3d
       0.08765197 0.09301168 -0.13912696 0.035509232
000130 95 ca 26 bd ac 8d df bc 5c c3 32 be 00 92 97 bd
       -0.04072054 -0.027289234 -0.17457336 -0.07400894
000140 11 4f 5d 3e eb c7 39 bd b6 c5 14 bd 92 81 52 3e
       0.21612193 -0.045356672 -0.036321364 0.2055724
000150 bd f5 37 3d c2 90 7d be 0a bd 4f 3c 9d 4d da 3c
       0.04491209 -0.24762252 0.012679348 0.026648337
000160 38 4e 61 3e 9c e5 52 3b f9 22 26 be 93 82 dc bd
       0.22002494 0.0032180315 -0.16224279 -0.107670926
000170 2d 41 b2 bc 7e 19 b1 3d d7 c2 fa 3d a5 19 27 3e
       -0.021759594 0.086474404 0.12244194 0.16318376
000180 c3 0f e2 bd ba 87 0d be dc 12 d7 3b a7 52 9d bc
       -0.110381626 -0.13821307 0.0065635275 -0.01920445
000190 d7 39 44 3e 8a 4a ba 3d 16 bf 0b 3e aa 90 15 be
       0.19162689 0.090962484 0.13647112 -0.14605966
0001a0 e5 97 c2 3d b4 43 69 bb 8f 5c ef bd 19 16 10 3d
       0.09501628 -0.0035593333 -0.11687576 0.035177324
0001b0 44 56 ef bd 0b be 91 bc 21 7c 03 be 5b e2 be bd
       -0.11686376 -0.017790815 -0.1284032 -0.09320518
0001c0 89 ff 17 3d 95 60 93 bd dd ad 63 bd d8 8f cd be
       0.03710893 -0.07196156 -0.05558573 -0.40148807
0001d0 b1 cb 11 3e 15 a2 08 bd 47 29 ad bc 05 d5 05 be
       0.14237858 -0.0333577 -0.021137847 -0.13069542
0001e0 32 f9 8c 3d ea f6 4a be da 57 0e 3e cb 8c 89 be
       0.06883468 -0.19820753 0.139007 -0.2686523
0001f0 e5 6e b8 bb 48 87 69 3d 39 ed d1 3c 7e 5d b6 bc
       -0.005628454 0.05701378 0.025625812 -0.022261377
000200 c1 e5 ae 3c 51 d2 84 be 06 59 15 3e 23 20 48 be
       0.02134979 -0.2594171 0.14584741 -0.19543509
000210 80 92 47 bb d1 63 22 3e f9 61 a8 bd f5 e0 01 3e
       -0.003045231 0.1585839 -0.08221812 0.1268347
000220 d6 87 bb bd e9 d5 af bd 58 cf ba 3e 54 cf 4f 3e
       -0.09156768 -0.08585722 0.36486316 0.20293933
000230 80 bc fb 3b e2 ee 59 be 23 ba ae bc be 9e b9 3d
       0.007682383 -0.21282533 -0.021328991 0.09063481
000240 35 69 70 3e a5 3d c0 bc f5 e3 40 be bc 7a 80 3d
       0.23477633 -0.023466894 -0.18836959 0.0627341
000250 6a 07 89 be 3f 2b e2 3d ae 5d ae 3c e3 be fc ba
       -0.2676347 0.11043405 0.021284904 -0.0019282963
000260 d3 9e 9b bd a2 6b b2 3d 77 0c 2a 3d bc d3 97 3c
       -0.07598653 0.087119356 0.041515794 0.01853358
000270 b9 82 db bd 5c 3a 6d 3d 68 60 48 be 53 3b 58 be
       -0.10718293 0.057916984 -0.19568026 -0.2111638
000280 c3 1a 88 3e ae aa 93 bd 10 d6 85 3d 42 41 c1 3d
       0.26582918 -0.07210289 0.0653497 0.09436275
000290 59 31 4f 3e da 10 f4 3d 3c 22 df bd 80 23 40 be
       0.20233668 0.11917277 -0.108952016 -0.18763542
0002a0 dd 27 3e 3d 19 5d 6e 3e ea 10 ad bd f1 f4 10 3d
       0.046424735 0.23277701 -0.08450492 0.035389844
0002b0 80 bc 0d 3c bd 4a ae 3d d9 fe ff 3d af 68 16 bd
       0.008650899 0.08510349 0.1249978 -0.036720928
0002c0 63 4a 88 bd 5f cc e2 3d 7c fe 04 3e ac a4 8b be
       -0.06654813 0.11074137 0.12987703 -0.27274072
0002d0 b4 eb 32 3d 93 6b 02 be ad 22 0b bd 4b 49 83 bc
       0.043681815 -0.12736349 -0.033968616 -0.01602616
0002e0 05 d3 0d 3e a3 ad cc bd 1e 8e c3 3d 49 7a 52 be
       0.13850029 -0.09994056 0.09548591 -0.2055446
0002f0 0a a2 02 bd a3 fc 2b bd cc 70 64 be f8 60 a6 ba
       -0.031892814 -0.04198898 -0.22308654 -0.0012693694
000300 7d 48 a9 be 40 cf b7 bd 04 62 bd bc df 92 b5 bc
       -0.33063117 -0.08975077 -0.023118027 -0.02216476
000310 39 e3 58 3e f8 1f 50 bc a1 71 03 be 84 66 0a 3e
       0.21180429 -0.012702934 -0.12836315 0.13515669
000320 ba 82 3f bc 0d f7 f6 ba f3 84 bf 3c c5 cc 86 bd
       -0.0116888825 -0.0018841937 0.023378825 -0.065820254
000330 4f 6d 64 3c bc 1f d6 3b 48 0c 21 be a5 a6 73 bb
       0.013942077 0.0065345448 -0.15727341 -0.0037178185
000340 2c 1c 3b 3e b0 ce 54 3c 13 84 14 be ef 07 21 3d
       0.18272465 0.012988731 -0.14503507 0.039314207
000350 4f 99 b6 3c ab 93 43 3e a4 a9 cc bd 06 b6 08 3e
       0.0222899 0.190993 -0.09993294 0.13350686
000360 e2 17 03 bd f3 f0 05 bd cb c0 23 bd 13 85 c1 bd
       -0.0320052 -0.03270049 -0.039978784 -0.0944921
000370 b8 3a b2 bd 29 8f 69 bd aa 6a ff bb 93 cb 7d bd
       -0.08702606 -0.057021294 -0.007794698 -0.06196172
000380 76 93 cf bd 41 14 f4 3d 96 92 fc 3c 10 60 3f bd
       -0.10135548 0.119179256 0.030831616 -0.04672247
000390 1b c2 c5 bd 5f 40 29 be 6c eb e0 bd 50 ba 14 3e
       -0.09656163 -0.16528462 -0.10982403 0.14524198
0003a0 01 24 3c bc 15 0b f4 bd d6 c5 02 bc c3 6f 5c 3c
       -0.011483193 -0.11916176 -0.007981738 0.01345438
0003b0 9a 38 12 be d3 dd 95 3d e3 5d 03 3e 2b 73 09 be
       -0.14279404 0.073177 0.12828784 -0.1342284
0003c0 06 d7 4f 3e 38 ef bd bd 56 ec 0b bd a7 05 42 be
       0.20296869 -0.09274143 -0.034160934 -0.18947469
0003d0 82 1c 0d 3c 34 a3 57 bd 91 d0 51 3d cd 46 f5 3d
       0.008612754 -0.052645877 0.051224295 0.11976395
0003e0 3d db 26 3d f8 5a 28 3d c0 8e 15 be 35 d1 be bd
       0.040736426 0.04110238 -0.14605236 -0.09317247
0003f0 a0 fd 0e bb 23 12 ee bd 3b 97 ca bd b6 f8 0a 3e
       -0.0021818653 -0.11624553 -0.09892126 0.13571438

l2.bias f4 [100]
000000 3d 4b 50 3b d1 c2 af 3d 69 cc 02 bc 88 d6 42 be
       0.0031783127 0.0858208 -0.0079833055 -0.1902715
000010 3c e6 04 3e 62 57 71 bc 3f bd a1 3c e7 82 c3 bd
       0.12978452 -0.014730306 0.01974356 -0.09546452
000020 e0 0f 40 3d 1f d4 c0 bd ed b5 33 be f5 ca dd 3c
       0.04689014 -0.09415459 -0.17549868 0.027074317
000030 61 7c 0e 3e 39 7e a8 3e 15 ec 69 bc b3 75 2b 3e
       0.13914634 0.329088 -0.014277478 0.16744117
000040 db 04 f6 3d a6 2b fe bb 0e 59 81 bd 8c 1f 89 3e
       0.12012645 -0.007756668 -0.06315814 0.2678188
000050 68 da a0 bd 21 c0 94 3e 64 65 0f be 02 ba 28 3d
       -0.07854158 0.29052833 -0.14003521 0.041193016
000060 45 c7 80 3e 60 bc 1e be aa 96 35 bc a1 79 4b 3e
       0.2515203 -0.15501547 -0.011083284 0.19870616
000070 47 9c 4f 3c c6 20 47 be 40 f0 4c 3d 60 0a dd bc
       0.012671537 -0.19446096 0.050033808 -0.026982486
000080 5f 54 ba 3d 3e 5a 06 be 1f 7b 41 be 25 ae 1b 3e
       0.09098124 -0.13120362 -0.18894623 0.1520315
000090 ca d5 0a 3c ae 27 70 3e d8 96 0e 3e 31 40 57 bc
       0.008473823 0.23452637 0.1392473 -0.013137863
0000a0 cc b9 fe bc e1 d1 26 3e 28 b1 28 bd 0f 49 7c bd
       -0.031094454 0.16291 -0.041184574 -0.06159311
0000b0 1b a0 47 be 86 36 5c be 85 49 a3 be 63 44 fc bd
       -0.19494669 -0.21505174 -0.31892028 -0.12317731
0000c0 22 01 99 bd 6f 3d 26 3c e2 1b f6 3c 23 94 56 be
       -0.07470919 0.010146483 0.030042592 -0.20954947
0000d0 88 1b b4 bc 3f 6f d0 3d ef 5a b0 bd bf 66 eb bd
       -0.021985784 0.101774685 -0.08611094 -0.11494207
0000e0 60 ac 1c 3c c6 46 30 3e 40 c4 22 3e 0f 55 15 3e
       0.009562582 0.17214498 0.15895176 0.14583229
0000f0 69 9b 5a bd f9 20 32 3e fd 6d 96 be 24 5f a2 3c
       -0.053370867 0.1739539 -0.2938079 0.019820757
000100 4a 89 f7 3e c0 2b d3 bc 7e 3d 46 3b 58 ad e9 3d
       0.4834693 -0.025777698 0.0030249055 0.11410016
000110 91 e4 62 3d 39 78 81 3c d8 bb 3c bd 02 47 a0 be
       0.05539376 0.015804397 -0.04607758 -0.31304175
000120 23 ec d5 3d f7 bb 02 3e 26 f9 1e be 99 01 70 3d
       0.1044543 0.12767015 -0.1552473 0.058595274
000130 81 8b 9b 3d 11 8a a0 bd 98 8f 5b bd 3e 2e e0 be
       0.07594968 -0.07838834 -0.05360374 -0.4378528
000140 48 fd 30 be 94 3d d6 bd ef d3 1e be b5 ad 8d bd
       -0.17284119 -0.10460964 -0.15510534 -0.069178976
000150 07 f0 9a 3d de 3f 2d bd bc 36 89 3e fb b4 25 3b
       0.07565313 -0.042297237 0.26799572 0.0025284875
000160 00 da 16 3e 1a ad 04 3e e6 ae ae bc 67 de 25 be
       0.14731598 0.12956658 -0.021323632 -0.16198121
000170 4c 44 34 be 36 b6 4f 3e de f1 0c 3d f1 fe 1a bd
       -0.17604178 0.20284352 0.03441035 -0.037840787
000180 ff f8 e7 3c 20 bf 4c 3e 63 7d a1 be 20 d1 54 be
       0.028316973 0.19994783 -0.31540975 -0.207829

l3.weight f4 [18, 100]
000000 71 43 3a 3e 0a cb 25 3e 2c 61 98 bd df ae 0a be
       0.1818979 0.16190735 -0.07440409 -0.1354327
000010 41 96 10 3d 6a d1 5a 3e 7f d8 f2 3d 1f 15 40 3e
       0.035299543 0.21368948 0.118576996 0.18758057
000020 24 a6 bd bd 12 88 95 3d 1d 09 d2 bd cf fe 1d 3e
       -0.092602044 0.07301344 -0.102556445 0.15429233
000030 2b a9 33 be 5d 17 a5 be 48 31 2d 3e d2 40 db 3d
       -0.17545001 -0.32244387 0.1691333 0.10705723
000040 fe 43 d3 3d 4a b4 99 3d e8 b8 ff 3c 17 3a 03 3e
       0.10315703 0.075050905 0.0312161 0.12815128
000050 e8 9d 52 3d 4a 04 3a be 64 fd c4 3b 89 53 74 be
       0.051420122 -0.18165699 0.006011652 -0.23859991
000060 79 b4 b1 be 62 87 1a be 50 d3 64 3e b6 d4 e4 3d
       -0.34708002 -0.15090707 0.22346234 0.11173384
000070 86 11 67 be 78 44 a3 bc 1c f9 a9 be 61 2a 44 3e
       -0.22565278 -0.01993011 -0.33197868 0.19156791
000080 a6 f8 1d 3e 5a 24 37 3e 28 77 51 3e 0a 3e 23 be
       0.15426883 0.17884961 0.20455611 -0.15941635
000090 6a ec 98 3d d9 47 d9 3d 1f 02 9f bd b7 6e 75 3d
       0.074669674 0.10609407 -0.077640764 0.05992004
0000a0 4f 04 08 3c 40 ec 19 3c cf d3 8f 3e bb 6b 09 3d
       0.0083018085 0.009394705 0.28091285 0.033550005
0000b0 db 45 12 3e 15 58 d3 bd 9b 34 0a 3e b4 09 25 3e
       0.1428446 -0.10319535 0.1349663 0.16116983
0000c0 c9 13 e6 bc 65 3f 36 3e ba 6d ab 3d 10 52 06 be
       -0.028085606 0.1779762 0.08370538 -0.13117242
0000d0 e6 9e 8f bd cd 08 a2 bd a2 91 92 3d 38 63 94 bd
       -0.07012729 -0.07911835 0.071566835 -0.07245487
0000e0 6e b3 31 3e c5 1b fa 3b e2 05 e8 bd ac fd 85 3d
       0.17353603 0.007632705 -0.11329247 0.06542525
0000f0 30 27 e2 3d 66 f5 2b 3d cc 63 0e 3e 73 5d 4c be
       0.11042631 0.041982077 0.13905257 -0.19957523
000100 a6 f8 0e be 80 be 64 bc 75 78 a5 bd 75 a6 4c bd
       -0.1396204 -0.013961434 -0.08079616 -0.049963433
000110 10 84 fe bd 6d 23 0c 3e 12 43 cc 3e 5c 68 c4 bd
       -0.12427533 0.13685389 0.3989492 -0.095902175
000120 11 dc 89 bd 1c bd 25 ba d2 4f 4f 3e c7 e3 00 3e
       -0.067314275 -0.000632243 0.20245293 0.1258689
000130 65 45 1e be bc 0a 2a bd 59 08 f0 3d 1e 96 f2 3d
       -0.1545616 -0.041514143 0.11720342 0.11845039
000140 db cf df 3d 37 27 f5 3d 3d b6 c0 3c e3 cb 0c 3b
       0.10928317 0.1197037 0.023524398 0.002148383
000150 1d 7f 13 bd 6a be eb bd 61 0c b7 be 65 bf 11 bd
       -0.036009897 -0.11510928 -0.35751632 -0.03558292
000160 39 a9 cc 3c 39 47 5f 3d d3 78 05 3e 90 b1 15 3c
       0.024983035 0.054511283 0.13034372 0.0091365725
000170 18 76 41 3e 93 bf 4d be 5b 32 22 bd 38 cd b2 bd
       0.18892705 -0.20092611 -0.039598804 -0.087305486
000180 64 9f 94 3d b3 fb 4e bd e5 82 6e 3e c9 01 86 bd
       0.07256964 -0.050533008 0.2329212 -0.06543309
000190 db 72 ae bd 63 82 0e 3e 38 b3 33 3e 5b a8 8b 3d
       -0.08518001 0.13916926 0.17548835 0.06819221
0001a0 ca 3e 83 3e 8f be 6e bb 42 fd b2 3c 36 60 1f 3e
       0.25633842 -0.00364295 0.021849278 0.15564045
0001b0 36 92 a1 be 01 0c 40 3d 17 2d 34 3c 71 d3 6c 3e
       -0.31556863 0.046886448 0.010997078 0.23127533
0001c0 78 3e 3b bd e2 74 47 be 45 6c 31 3e 97 fa 01 be
       -0.04571387 -0.19478181 0.17326458 -0.12693249
0001d0 a8 d3 0d 3e 9e 0e 7f 3b f8 b0 49 be f3 0c 74 3e
       0.13850272 0.0038918625 -0.19696414 0.23833065
0001e0 0d 74 94 3e e4 6e 8e be d2 7e ef bd de c4 84 bd
       0.2899479 -0.27818978 -0.11694111 -0.06482862
0001f0 73 66 5b 3d 92 79 3d 3d f9 5e 24 3e 8f 81 3d be
       0.0535645 0.046258517 0.16051854 -0.18506454
000200 22 b7 4a be 8d ae bb bc b6 19 28 be ac 62 18 be
       -0.19796422 -0.02291038 -0.16416058 -0.1488139
000210 db 11 d2 3b 25 6d a4 3e f8 cc 88 3e f8 04 fb bd
       0.00641082 0.3211452 0.2671888 -0.12256807
000220 9f 0f 2f 3b 53 bd 32 be a0 0b 93 3d 07 1d d1 3d
       0.0026712192 -0.17455034 0.07179952 0.10210615
000230 ca 34 c2 bc 09 53 58 3e 02 b5 4a 3e f4 36 5d be
       -0.023706812 0.21125425 0.19795612 -0.21602994
000240 76 41 51 3d cb 29 6e bd db 7c 2f 3c 62 d9 bc bd
       0.05108782 -0.058145326 0.01071092 -0.0922115
000250 8f 4e f8 bd 7d 29 8b 3e 57 a6 b3 bc 52 29 ce 3c
       -0.12124359 0.2718009 -0.021929903 0.025166187
000260 09 18 47 3e 7c 81 49 bd 83 4c ac 3e 0e 04 9c bd
       0.19442762 -0.04919575 0.33652124 -0.07617961
000270 77 18 8c 3e be 52 18 be 01 df 4f bd f3 fd 00 be
       0.27362415 -0.14875314 -0.050749782 -0.12596874
000280 14 d6 cb bd 59 8e 6e 3e f2 3f e5 3e 37 f1 db 3c
       -0.099529415 0.23296489 0.4477535 0.026848419
000290 09 5a 25 be eb 26 9b 3e 09 69 fb ba a4 04 00 bd
       -0.16147627 0.3030313 -0.0019181083 -0.031254426
0002a0 bd 39 73 3e 5b 46 bd 3d 58 d1 3a be d5 68 9e 3e
       0.23752494 0.09241935 -0.18243921 0.30939355
0002b0 22 0a 0a bd 94 0f 7f 3d a2 98 5f 3d bf 85 8f 3e
       -0.03370107 0.062270716 0.05458892 0.28031728
0002c0 3a b8 eb 3d fb 8a 25 3d 44 f9 ab 3c 4f 2c 7a bc
       0.11509748 0.040415745 0.020992883 -0.015269353
0002d0 c6 f3 76 3d 12 f1 14 3e 8b 73 d5 3d 47 25 84 3e
       0.060291074 0.14545086 0.10422429 0.2580969
0002e0 3c cb 72 be 65 24 92 be e5 e9 ad bc a1 8a d4 bd
       -0.2371034 -0.28543392 -0.021229694 -0.10378004
0002f0 d2 9e 51 bd b6 23 b6 3d 36 59 b1 bd a4 e7 34 bd
       -0.051176853 0.0889353 -0.08659594 -0.044166222
000300 a4 5c cd 3d 06 cc 3b be ed 99 71 be b6 76 39 bd
       0.100274354 -0.18339548 -0.23593874 -0.045279227
000310 d6 c5 ad 3d a6 c5 f8 3d 7c cf 14 3e d1 56 bc 3c
       0.08485 0.121470734 0.14532274 0.022990616
000320 89 d1 e2 ba 81 1d 36 3d 9e b7 76 bd 7e 0b 28 be
       -0.0017304878 0.04446173 -0.060233705 -0.16410634
000330 29 9a a0 3e bf b3 6b 3c e6 fe dc 3d 9d 4c 2b 3e
       0.31367615 0.0143861165 0.107908055 0.16728444
000340 90 2a 42 be 8e 64 29 3e b2 3b 45 ba 7b 3f 2d 3d
       -0.18961549 0.16542265 -0.0007523849 0.042296868
000350 34 c6 0e be 46 e0 2b be 8f db 5e 3e ba 2a 0c 3e
       -0.13942796 -0.16784772 0.21763442 0.13688174
000360 00 4a 24 bd b8 84 32 3d 95 e7 25 be 6c 34 a2 3d
       -0.040109634 0.0435836 -0.16201623 0.07920155
000370 4c 70 46 3e fe 02 33 3d a0 4d 0e be ad ab b9 bd
       0.19378775 0.043704025 -0.13896799 -0.09065948
000380 93 11 90 bc 57 a5 c9 3d d2 25 d3 3c 6a 1d 45 3d
       -0.017586505 0.09845989 0.02577487 0.048123755
000390 55 4a a2 3b 93 ba 47 3d 1d e0 80 bb c5 10 22 3e
       0.0049527087 0.048761915 -0.0039329664 0.1582671
0003a0 b7 f6 09 be 32 7a 18 3e 3e f5 25 3e 54 b0 12 3e
       -0.1347302 0.14890364 0.16206834 0.14325076
0003b0 a7 7b e4 3d a2 e5 74 bd d4 79 c0 bb ce 04 59 3e
       0.11156397 -0.059789307 -0.005873898 0.21193239
0003c0 51 e0 4a 3e 8e 6f 66 be 50 ae f7 3d df 9b 07 3e
       0.19812132 -0.22503492 0.12093794 0.13243054
0003d0 7f c9 0b 3e 91 67 70 3d 55 ab 8c 3d 12 3b 98 3d
       0.13651083 0.05869252 0.068686165 0.07433142
0003e0 e6 cd 72 3e b8 d2 e0 3d 4d b6 10 3e ee c5 ea bb
       0.23711357 0.109776914 0.14132042 -0.0071647083
0003f0 68 7f bc 3c 94 82 87 3e 22 7b aa 3e d9 d4 1c 3e
       0.02300997 0.2646681 0.33297068 0.1531557

l3.bias f4 [18]
000000 7d 5a c6 3e ef 79 d4 be 24 ab 20 bf 38 29 10 bd
       0.38740912 -0.41499278 -0.6276114 -0.03519556
000010 9a 93 ff bc 3e 0b 60 3e fa b0 e1 3e 5f 55 4e be
       -0.031198312 0.21879289 0.44080335 -0.20149754
000020 63 23 6c 3b 59 b8 27 bf a8 ed 98 3e 71 80 02 3f
       0.0036031834 -0.6551567 0.29868817 0.50977236
000030 54 52 07 bf 4a 18 ac be 75 6d 24 be 5a 6b 8e bd
       -0.5286 -0.3361228 -0.1605738 -0.069540694
000040 26 5b bf be 68 ec ac 3c
       -0.37374228 0.021108821
