LARA/weight/d_30.pt (torch, 94631 bytes, 7 tensors)

D_attr_matrix.weight f4 [36, 5]
-0.065006316 0.25767714 -0.4907812 0.35236245 0.08997807 0.4605078 0.4739202 0.039645303
0.3428621 0.32677954 0.56823826 -0.1827518 -0.16922474 0.095303394 0.092810564 0.20290135
-0.24903342 -0.06315817 0.1997858 0.23063318 -0.094773 -0.3303341 -0.12203607 -0.15597528
-0.0423682 -0.08909565 0.082404606 -0.17870341 -0.44456804 -0.02527915 0.4378054 -0.061736993
0.075239055 0.09362123 -0.05192546 0.13827875 0.22251382 0.056147657 0.5133408 -0.42981344
-0.24568221 0.34602487 -0.03840348 0.01652438 -0.18772437 -0.077489 0.1623507 -0.13621335
-0.1560714 -0.027708227 -0.015790688 -0.032413088 -0.23059945 0.26518735 0.027798157 0.07589495
0.010892992 -0.038471892 0.036476564 0.16831297 0.15169746 -0.009973885 0.14830293 -0.14075235
-0.15945724 0.028692389 0.6744053 0.18158785 0.17880225 -0.028262867 -0.28755793 -0.26936442
-0.029770423 0.12198432 0.18248096 0.25218007 -0.08357974 -0.07632745 0.26839584 0.23826733
-0.28076273 -0.043706857 0.05858563 -0.43481946 0.14257243 -0.1047295 -0.21059954 -0.041167486
-0.53092444 -0.12819797 0.17346932 -0.08949424 0.27008384 0.27266997 -0.19510664 0.45084825
-0.7065702 -0.06725659 0.50308025 -0.7068224 -0.10679157 0.4810878 0.13172373 0.30222702
0.18679003 0.20292076 0.63655585 0.3517004 -0.29455864 -0.083466694 -0.038513727 -0.115934364
-0.26189092 0.0033135542 0.10144354 0.022823917 -0.49551862 -0.5089405 0.17402904 0.0016747823
0.104526475 0.12716174 0.13747387 -0.42185903 -0.13535155 0.012164127 0.5009725 0.11240864
-0.21217081 0.1255693 0.12392931 -0.22752422 -0.09903912 0.13085543 -0.094221756 0.2695875
-0.086655915 -0.018620215 -0.09153237 0.25296864 -0.37114665 -0.10267923 0.25190365 0.31785694
-0.17009906 -0.13465963 -0.292904 0.12281829 0.4674915 -0.34288797 0.057926077 0.21277256
0.32823357 0.15438873 0.22151424 -0.2405843 -0.20690495 0.29550746 0.19271265 -0.0346866
0.0193936 -0.22496793 -0.118434444 0.27003288 0.40049055 0.26409584 0.27619696 -0.5427511
-0.090902366 -0.17462234 -0.14986385 0.08313474 0.063873455 -0.11741004 0.11855617 -0.40844092
0.29525676 0.14709651 0.1132261 0.26800916
00000000: 0822 85bd 42ee 833e ac47 fbbe da68 b43e
00000010: 6c46 b83d aec7 eb3e aba5 f23e 1d63 223d
00000020: 9f8b af3e a64f a73e 1078 113f 4a23 3bbe
00000030: 4049 2dbe 6d2e c33d 7713 be3d 5fc5 4f3e
00000040: 9e02 7fbe 1259 81bd a694 4c3e 1b2b 6c3e
00000050: 5918 c2bd 8d21 a9be 0cee f9bd fcb7 1fbe
00000060: 478a 2dbd c877 b6bd bfc3 a83d 07fe 36be
00000070: 6c9e e3be 3816 cfbc 0828 e03e eedf 7cbd
00000080: ef16 9a3d 7dbc bf3d cbaf 54bd f298 0d3e
00000090: aada 633e 16fb 653d 4d6a 033f 8210 dcbe
000000a0: 1e94 7bbe 2c2a b13e f84c 1dbd 235e 873c
000000b0: d13a 40be 8eb2 9ebd 433f 263e 837b 0bbe
000000c0: 2ed1 1fbe 5dfc e2bc 795b 81bc 96c3 04bd
000000d0: 4322 6cbe a3c6 873e f6b8 e33c d06e 9b3d
000000e0: 8578 323c b494 1dbd 7368 153d 3c5a 2c3e
000000f0: 9456 1b3e 8169 23bc b9dc 173e 6221 10be
00000100: c248 23be 4d0c eb3c d3a5 2c3f 2af2 393e
00000110: f017 373e 8787 e7bc cb3a 93be 22ea 89be
00000120: 1ae1 f3bc ead2 f93d 4adc 3a3e bf1d 813e
00000130: db2b abbd 9151 9cbd 2e6b 893e 5afc 733e
00000140: 22c0 8fbe f605 33bd 7cf7 6f3d a8a0 debe
00000150: 82fe 113e 6c7c d6bd 68a7 57be 3d9f 28bd
00000160: aaea 07bf 5446 03be f1a1 313e c248 b7bd
00000170: 6e48 8a3e 669b 8b3e 09ca 47be 95d5 e63e
00000180: c9e1 34bf d3bd 89bd dec9 003f 50f2 34bf
00000190: 8ab5 dabd 2451 f63e 96e2 063e 80bd 9a3e
000001a0: e345 3f3e 76ca 4f3e 53f5 223f 1312 b43e
000001b0: 64d0 96be 96f0 aabd 92c0 1dbd ff6e edbd
000001c0: 9116 86be 3728 593b a1c1 cf3d 39f9 ba3c
000001d0: 9eb4 fdbe ed49 02bf ab34 323e 5e84 db3a
000001e0: fa11 d63d b036 023e f3c5 0c3e e8fd d7be
000001f0: 9999 0abe 0c4c 473c bc3f 003f 8036 e63d
00000200: 4e43 59be 3d95 003e a6ce fd3d 1cfc 68be
00000210: 06d5 cabd f7fe 053e 56f7 c0bd 5f07 8a3e
00000220: a878 b1bd 6c89 98bc 5375 bbbd 1b85 813e
00000230: ef06 bebe 7d49 d2bd 84f9 803e 25be a23e
00000240: 732e 2ebe 37e4 09be 83f7 95be 2888 fb3d
00000250: 0c5b ef3e 038f afbe e543 6d3d 0de1 593e
00000260: 3b0e a83e 1418 1e3e a1d4 623e bb5b 76be
00000270: e4de 53be c14c 973e 7756 453e 8913 0ebd
00000280: 54df 9e3c fe5d 66be c28d f2bd c041 8a3e
00000290: 190d cd3e 9237 873e b069 8d3e bcf1 0abf
000002a0: 052b babd 33d0 32be e975 19be 8c42 aa3d
000002b0: 16d0 823d ad74 f0bd 94cd f23d 2b1f d1be
000002c0: e52b 973e 78a0 163e 16e3 e73d 7f38 893e

l1.weight f4 [100, 108]
0.011209594 0.013409142 0.16486928 -0.020987602 -0.07414822 0.038301233 0.2334924 0.083999
-0.02848003 0.12029123 -0.07570898 -0.10550656 0.15923509 0.08011553 0.088185675 -0.08367272
0.15638122 -0.102035455 0.015285565 0.061100103 -0.08523281 -0.016137054 -0.1281445 -0.07310776
-0.0653189 -0.0073102745 0.041106176 0.018143648 -0.19464818 -0.024649713 0.07687521 -0.0691331
0.06705922 0.10777472 0.0060511567 0.026496705 -0.051983565 0.0026408853 -0.15948145 0.16000998
0.032049693 0.052591566 -0.14254607 0.05428919 0.061039813 -0.084470086 -0.032276407 -0.027254838
-0.049490903 0.06957258 0.079179056 -0.13421026 0.036034513 -0.04072842 -0.04174484 0.06715685
-0.050965928 -0.019188259 0.046797253 0.036137734 -0.05500806 0.07951547 0.09446651 -0.09389976
-0.0005315872 0.02168115 -0.044333458 0.020961883 -0.12781167 0.13749586 0.1547445 0.033337526
0.0046388423 0.08463107 0.1091441 -0.030703425 -0.14847136 -0.11904114 -0.009090716 0.10184214
-0.08208172 0.07739328 0.03262807 0.09317404 0.07179227 -0.063490316 0.15950333 -0.09909056
-0.12309206 -0.0055713602 -0.22481911 0.04182699 0.13838862 -0.036977664 -0.05218279 -0.119104706
-0.21649367 -0.15917729 -0.25417823 0.19607092 0.24707402 0.052097768 0.08851214 -0.20018944
-0.061787523 -0.33849546 0.0575361 -0.17599402 0.15501899 -0.07368423 0.03965905 -0.055012017
0.14254397 0.21709716 -0.0940279 0.1176836 0.017945278 0.024692915 0.0891943 -0.1399915
-0.06186702 -0.050337072 0.01789268 0.20414214 -0.13068809 0.052861992 -0.046678096 0.00042798577
-0.17833312 0.27795243 -0.049441792 -0.16129868 -0.12816556 -0.016661534 -0.10977379 0.057309885
0.06745375 0.04918576 0.092878774 0.08333609 0.15417819 -0.1230392 0.06376595 -0.023310948
0.0069287107 0.06247753 0.16543767 -0.13477245 -0.11229544 -0.10523824 0.10612446 -0.13188416
0.1081478 0.05703496 -0.08586846 -0.027397804 0.2466602 0.0033098436 0.054551426 0.08185951
0.097332545 0.024977623 -0.11302185 -0.21020123 -0.12322379 -0.023223624 -0.10081035 0.052598782
0.1908709 -0.10148043 0.11739328 -0.08153972 -0.10362293 -0.016286097 -0.08505685 0.10276258
0.05266366 0.041945618 -0.022436317 -0.014453813 0.080386296 0.13425355 -0.27953145 0.1904015
0.12325558 0.09910147 -0.04392696 0.06731892 0.05175197 -0.21131712 0.06745749 0.16925392
-0.08996451 -0.085911445 0.03537192 0.0147417355 -0.24294345 0.16828758 0.105916515 0.11422063
0.017981831 0.057817254 0.03770813 0.058833733 0.102626525 -0.031508245 -0.05073849 0.00044434392
0.001919102 0.002197709 -0.046050377 0.076899186 -0.13730769 0.07218751 -0.16304642 0.0036616775
-0.08328298 0.09988663 0.10950339 -0.16074558 -0.14970979 -0.0070281927 0.032607757 -0.020595744
-0.09380749 -0.051840197 -0.16123514 0.05722997 0.05687172 0.053654455 -0.036755357 -0.12396356
0.09087341 0.10869276 0.089891136 0.027298106 0.06561328 0.16215171 0.064365074 -0.07002662
-0.0178962 0.044492222 0.09149855 0.06321686 0.11248324 -0.09379567 -0.08402117 -0.21565707
-0.014285405 -0.024421386 -0.07614797 -0.05203228 -0.026703168 0.0505527 -0.0075334944 -0.19189896
00000000: 72a8 373c 05b2 5b3c 7ed3 283e 31ee abbc
00000010: 06db 97bd c1e1 1c3d a218 6f3e ab07 ac3d
00000020: f44e e9bc 405b f63d 4f0d 9bbd d313 d8bd
00000030: 860e 233e 9c13 a43d b19a b43d 9a5c abbd
00000040: 6622 203e f7f7 d0bd 4e70 7a3c 1a44 7a3d
00000050: 8a8e aebd db31 84bc 5038 03be 85b9 95bd
00000060: eac5 85bd 078b efbb f35e 283d fda1 943c
00000070: da51 47be 32ee c9bc c070 9d3d a895 8dbd
00000080: 5856 893d feb8 dc3d c848 c63b 9e0f d93c
00000090: b8ec 54bd b412 2d3b 1b4f 23be a8d9 233e
000000a0: 8a46 033d 416a 573d 99f7 11be 575e 5e3d
000000b0: e204 7a3d a7fe acbd 4434 04bd 8a45 dfbc
000000c0: f9b6 4abd 127c 8e3d a128 a23d 6a6e 09be
000000d0: ed98 133d d8d2 26bd a3fc 2abd 8889 893d
000000e0: a6c1 50bd b230 9dbc 7aae 3f3d 2905 143d
000000f0: 2250 61bd 02d9 a23d a877 c13d 844e c0bd
00000100: 375a 0bba ab9c b13c 0097 35bd 41b8 ab3c
00000110: 10e1 02be b7cb 0c3e 5875 1e3e ee8c 083d
00000120: 6e01 983b 0e53 ad3d f186 df3d c085 fbbc
00000130: e008 18be d7cb f3bd 3af1 14bc 9d92 d03d
00000140: 761a a8bd 5e80 9e3d 03a5 053d 08d2 be3d
00000150: d307 933d 3607 82bd d754 233e feef cabd
00000160: b117 fcbd f58f b6bb fb36 66be c752 2b3d
00000170: bfb5 0d3e e475 17bd 9fbd 55bd 2bed f3bd
00000180: 84b0 5dbe 5fff 22be a623 82be d1c6 483e
00000190: f900 7d3e 7864 553d da45 b53d 76fe 4cbe
000001a0: ea14 7dbd 474f adbe f9aa 6b3d c737 34be
000001b0: 4cbd 1e3e c2e7 96bd 8771 223d 4854 61bd
000001c0: 0cf7 113e b84e 5e3e b391 c0bd 1904 f13d
000001d0: fa01 933c cc48 ca3c 80ab b63d ef59 0fbe
000001e0: 4668 7dbd 3f2e 4ebd ab93 923c a30a 513e
000001f0: 19d3 05be d185 583d 8831 3fbd 4763 e039
00000200: f59c 36be c84f 8e3e 7a83 4abd 7b2b 25be
00000210: d53d 03be c57d 88bc 15d1 e0bd c5bd 6a3d
00000220: 3125 8a3d 0277 493d 3a37 be3d 1dac aa3d
00000230: e3e0 1d3e fafb fbbd b997 823d 9af6 bebc
00000240: 3d0a e33b 70e8 7f3d 7e68 293e ca01 0abe
00000250: 27fb e5bd 2587 d7bd c857 d93d a40c 07be
00000260: 987c dd3d 7d9d 693d cedb afbd 5c71 e0bc
00000270: 7e94 7c3e f6e9 583b 5171 5f3d f5a5 a73d
00000280: 4956 c73d df9d cc3c 0078 e7bd fe3e 57be
00000290: c15c fcbd 783f bebc a875 cebd d271 573d
000002a0: a973 433e f9d4 cfbd e36b f03d 4cfe a6bd
000002b0: 4238 d4bd 6c6a 85bc 4932 aebd 3075 d23d
000002c0: dab5 573d 2bcf 2b3d 5ecc b7bc b0cf 6cbc
000002d0: 92a1 a43d c379 093e bf1e 8fbe 9cf8 423e
000002e0: 6c6d fc3d b6f5 ca3d c2ec 33bd 80de 893d
000002f0: e0f9 533d 8463 58be 2727 8a3d e650 2d3e
00000300: 503f b8bd 57f2 afbd 25e2 103d 5287 713c
00000310: 2bc6 78be 9453 2c3e c2ea d83d 81ec e93d
00000320: a24e 933c c9d1 6c3d d773 1a3d a4fb 703d
00000330: db2d d23d ca0e 01bd 2ad3 4fbd d5f6 e839
00000340: 618a fb3a 7007 103b 529f 3cbd 527d 9d3d
00000350: 639a 0cbe 0cd7 933d a4f5 26be c1f8 6f3b
00000360: 4490 aabd 5d91 cc3d 5043 e03d 7d9a 24be
00000370: 864d 19be c14c e6bb b68f 053d 68b8 a8bc
00000380: 241e c0bd 6356 54bd d31a 25be f969 6a3d
00000390: 52f2 683d c6c4 5b3d c98c 16bd 9be0 fdbd
000003a0: d71b ba3d 4f9a de3d d818 b83d 47a0 df3c
000003b0: 4160 863d 190b 263e d6d1 833d 1e6a 8fbd
000003c0: 0d9b 92bc 7a3d 363d 9763 bb3d d777 813d
000003d0: 9d5d e63d f217 c0bd 4b13 acbd 35d5 5cbe
000003e0: 550d 6abc 5c0f c8bc 78f3 9bbd cd1f 55bd
000003f0: 9ac0 dabc 5910 4f3d 88db f6bb 2981 44be

l1.bias f4 [100]
-0.023749644 0.19623563 -0.16222867 0.040289592 0.14372617 -0.14056611 0.05842405 0.34831122
-0.18121202 0.26884508 -0.06634878 -0.23323134 0.0061721615 -0.086203374 0.24372469 -0.067045145
0.16407059 0.039367933 0.0230474 -0.0037565476 -0.24739257 -0.10680146 -0.07156875 0.15597431
-0.074674144 0.12054153 0.05102719 -0.0894258 0.09725252 -0.16299552 0.07604983 0.20368387
0.08862913 -0.072218925 -0.063389115 -0.027113384 0.45187908 0.110578544 -0.21768133 -0.10192176
-0.15990056 0.015774729 0.14045085 0.18523245 0.118820935 0.05949155 -0.13346513 -0.09837441
-0.12157345 -0.1494606 0.05590973 -0.14681925 0.073759206 -0.12317609 0.25064334 -0.016534796
-0.11237673 -0.21400446 0.22602947 0.12770472 -0.095453374 0.0015608274 0.016408022 -0.121266805
0.21961734 0.047482487 0.14242071 -0.08726479 0.06472694 -0.018515538 -0.11780878 0.020996377
0.23960698 -0.08619101 0.1449091 0.06115637 0.02413373 0.08217431 -0.0059024706 -0.04467499
-0.32446274 -0.047536705 -0.16083933 -0.13741188 -0.2266706 0.12841983 0.04697164 0.087403595
0.032862365 0.35322672 0.04160193 0.14473256 -0.31516716 -0.024291612 -0.100302055 -0.11889253
-0.017859196 0.17645009 -0.027084414 -0.025995307
00000000: 9d8e c2bc fef1 483e 461f 26be b306 253d
00000010: f42c 133e 90f0 0fbe 0f4e 6f3d d955 b23e
00000020: a58f 39be 10a6 893e dfe1 87bd 32d4 6ebe
00000030: d83f ca3b 658b b0bd f792 793e f74e 89bd
00000040: 1f02 283e 4540 213d e7cd bc3c 6930 76bb
00000050: 7a54 7dbe b9ba dabd a392 92bd bbb7 1f3e
00000060: c2ee 98bd 7ade f63d e301 513d e024 b7bd
00000070: 542c c73d 4ce8 26be 03c0 9b3d 8192 503e
00000080: 3083 b53d 84e7 93bd 27d2 81bd e31c debc
00000090: b25c e73e 0177 e23d dbe7 5ebe 5bbc d0bd
000000a0: f9bc 23be 013a 813c 59d2 0f3e 93ad 3d3e
000000b0: 6458 f33d 69ad 733d 15ab 08be 8678 c9bd
000000c0: 80fb f8bd 330c 19be 9a01 653d c957 16be
000000d0: 110f 973d bf43 fcbd 5354 803e fb73 87bc
000000e0: c525 e6bd fc23 5bbe 4574 673e 07c5 023e
000000f0: 0f7d c3bd ad94 cc3a 1e6a 863c bb5a f8bd
00000100: 5ee3 603e ff7c 423d bcd6 113e e2b7 b2bd
00000110: 8f8f 843d e6ad 97bc bb45 f1bd 9800 ac3c
00000120: 885b 753e ea84 b0bd 0d63 143e 1a7f 7a3d
00000130: 1ab4 c53c 014b a83d 8369 c1bb 1ffd 36bd
00000140: fb1f a6be d9b5 42bd 11b3 24be b3b5 0cbe
00000150: 561c 68be 7d80 033e 5665 403d a800 b33d
00000160: b09a 063d 22da b43e c966 2a3d c634 143e
00000170: 975d a1be 34ff c6bc 2a6b cdbd ed7d f3bd
00000180: 734d 92bc 55af 343e 22e0 ddbc 1cf4 d4bc

l2.weight f4 [100, 100]
0.02266197 -0.17263518 0.1965534 0.030832754 -0.13046598 0.030911399 0.06944993 0.036479056
0.15830973 0.11354578 0.25674486 0.07089783 0.0027626224 0.022638028 -0.2719747 -0.05533055
-0.075898185 0.0353679 0.09316551 0.19313093 -0.0627661 -0.14154512 0.011250714 0.114297755
0.04718277 0.080371715 -0.11861585 0.08061545 -0.11724383 -0.25501773 -0.09189354 -0.11897021
-0.112897426 -0.08964809 0.18268467 0.09753498 -0.013797418 -0.057776984 0.24165264 -0.050257597
0.059247464 -0.14626198 -0.045996502 -0.043135803 -0.19508013 0.19601965 -0.19778982 0.26261643
-0.0077576297 0.065836355 -0.060363468 -0.027552485 0.088089354 -0.0028246788 -0.07064598 -0.04802573
-0.043070927 -0.0020745683 0.061734077 -0.08984091 -0.21753024 -0.03176541 -0.12336449 0.029146219
-0.026141921 -0.026746769 -0.08381841 0.07972696 -0.13973705 0.10204092 0.05737695 -0.24211451
0.09121506 0.097644016 -0.14622049 0.045535047 -0.055163816 -0.026548479 -0.18253182 -0.060308635
0.22925557 -0.03189318 -0.03322682 0.22337066 0.039202984 -0.26146346 0.019371409 0.032011338
0.21140806 -0.0020074733 -0.17900035 -0.11115221 -0.01609697 0.093307965 0.12424807 0.16629837
-0.119890526 -0.15521254 -0.00108092 -0.025504775 0.21755885 0.101897396 0.13525027 -0.24351987
0.09168911 0.032361608 -0.09063746 0.040986467 -0.09423243 0.027733158 -0.062679544 -0.16683903
0.039764766 -0.07170112 -0.04864042 -0.3533011 0.21371493 -0.017665317 0.08225549 -0.12246404
0.06350878 -0.22429787 0.14748776 -0.31608367 -0.034876082 0.075494744 0.0139827 -0.02380558
0.023826912 -0.34800473 0.19658813 -0.19012202 0.0015104276 0.17038262 -0.06531985 0.12075949
-0.084916346 -0.10319506 0.3815204 0.19300729 0.0026205159 -0.23319902 -0.004943603 0.11092991
0.23045123 -0.0099653015 -0.07389702 -0.081493996 -0.29190654 0.1598773 0.024220223 -0.0032718878
-0.16038708 -0.026317634 0.052531954 0.04275548 -0.0739471 0.0062414105 -0.23721194 -0.2041832
0.2698989 -0.07505923 0.08434298 0.10305868 0.26530448 0.16145527 -0.103644356 -0.2408252
0.14394183 0.21943446 -0.09818885 0.08584689 0.021494666 0.10638126 0.11859308 -0.020959685
-0.07611518 0.2104279 0.15956552 -0.26715726 0.02730078 -0.12882785 -0.087056614 -0.020026369
0.1821146 -0.092216864 0.04557467 -0.26740655 -0.005953305 -0.10374539 -0.2169862 -0.042063896
-0.3953152 -0.15277858 -0.06809172 0.036677677 0.18337768 -0.0057832664 -0.06891777 0.17781633
-0.0045696674 -0.01029887 0.03182045 -0.056742515 0.009596986 0.0041474625 -0.1523388 -0.012074662
0.1878892 0.00032057404 -0.15196505 0.041440856 0.027224256 0.19324642 -0.10987035 0.14144574
-0.046972875 -0.02651311 -0.048233017 -0.09373666 -0.07787469 -0.05721991 -0.0025184976 -0.05330822
-0.09407723 0.11952889 0.03546362 -0.040305503 -0.09390769 -0.14686835 -0.11299851 0.1377454
-0.021266876 -0.12614578 -0.0035466661 0.02416229 -0.15107776 0.0641097 0.128829 -0.1355848
0.21167743 -0.08866451 -0.035373613 -0.19424443 -0.0017536721 -0.04016456 0.03636182 0.118577555
0.045049336 0.038288567 -0.1561112 -0.09886183 0.006896306 -0.10754503 -0.10684652 0.13382852
00000000: 99a5 b93c 47c7 30be 4b45 493e f994 fc3c
00000010: e098 05be e739 fd3c c43b 8e3d 106b 153d
00000020: f21b 223e b18a e83d 1074 833e e232 913d
00000030: 1d0d 353b 6373 b93c 4540 8bbe 49a2 62bd
00000040: 8270 9bbd eedd 103d 8fcd be3d 1dc4 453e
00000050: 838b 80bd 34f1 10be ea54 383c f114 ea3d
00000060: b842 413d ed99 a43d deec f2bd b719 a53d
00000070: 881d f0bd af91 82be ae32 bcbd a7a6 f3bd
00000080: c436 e7bd 6b99 b7bd b111 3b3e 6bc0 c73d
00000090: 910e 62bc 8fa7 6cbd ca73 773e e9da 4dbd
000000a0: 78ad 723d b3c5 15be d466 3cbd 2baf 30bd
000000b0: 16c3 47be 60b9 483e 6a89 4abe a975 863e
000000c0: b733 febb 36d5 863d af3f 77bd c0b5 e1bc
000000d0: 3168 b43d 3f1e 39bb d7ae 90bd a1b6 44bd
000000e0: 246b 30bd 7bf5 07bb dfdc 7c3d 83fe b7bd
000000f0: 3fc0 5ebe 721c 02bd 86a6 fcbd 0dc4 ee3c
00000100: 9527 d6bc 0a1c dbbc fda8 abbd e347 a33d
00000110: 3b17 0fbe d4fa d03d 1804 6b3d deec 77be
00000120: f6ce ba3d 96f9 c73d d3ba 15be f582 3a3d
00000130: 74f3 61bd 327c d9bc 9fe9 3abe 3006 77bd
00000140: f9c1 6a3e 6ca2 02bd d918 08bd 47bb 643e
00000150: 4f93 203d 8ade 85be cab0 9e3c 521e 033d
00000160: 5b7b 583e d08f 03bb de4b 37be c5a3 e3bd
00000170: cbdd 83bc 3f18 bf3d c675 fe3d 1f4a 2a3e
00000180: 2a89 f5bd 09f0 1ebe a8ad 8dba 64ef d0bc
00000190: bfc7 5e3e 95af d03d 0c7f 0a3e 465d 79be
000001a0: 80c7 bb3d 9b8d 043d 22a0 b9bd 6de1 273d
000001b0: effc c0bd a630 e33c 225e 80bd dad7 2abe
000001c0: 61e0 223d 09d8 92bd 2d3b 47bd e2e3 b4be
000001d0: 16d8 5a3e dbb6 90bc 9175 a83d 6dce fabd
000001e0: e410 823d 57ae 65be 0807 173e b8d5 a1be
000001f0: 39da 0ebd fd9c 9a3d b217 653c eb03 c3bc
00000200: a830 c33c ad2d b2be 664e 493e 59af 42be
00000210: 8af9 c53a c878 2e3e 6ac6 85bd c050 f73d
00000220: 9fe8 adbd ee57 d3bd a456 c33e b4a3 453e
00000230: f6bc 2b3b b9cb 6ebe f3fd a1bb 382f e33d
00000240: 68fb 6b3e 8145 23bc 5257 97bd 53e6 a6bd
00000250: c674 95be e0b6 233e 7d69 c63c 2b6d 56bb
00000260: 833c 24be 1498 d7bc bf2b 573d 5f20 2f3d
00000270: 9471 97bd bf84 cc3b b0e7 72be 6715 51be
00000280: 3030 8a3e a7b8 99bd 03bc ac3d 6e10 d33d
00000290: fdd5 873e 8854 253e 7e43 d4bd e29a 76be
000002a0: 7d65 133e 6db3 603e 3c17 c9bd 7fd0 af3d
000002b0: 9515 b03c 6bde d93d eee0 f23d a5b3 abbc
000002c0: 47e2 9bbd 697a 573e 2565 233e d6c8 88be
000002d0: e3a5 df3c 73eb 03be bd4a b2bd 570e a4bc
000002e0: 407c 3a3e 32dc bcbd 81ac 3a3d 83e9 88be
000002f0: f113 c3bb 7778 d4bd a131 5ebe 314b 2cbd
00000300: c166 cabe fd71 1cbe ac73 8bbd 553b 163d
00000310: 5cc7 3b3e 8e81 bdbb c324 8dbd 7c15 363e
00000320: 26bd 95bb 97bc 28bc 2956 023d d76a 68bd
00000330: ad3c 1d3c 70e7 873b b4fe 1bbe ced4 45bc
00000340: 0766 403e b812 a839 ba9c 1bbe e3bd 293d
00000350: 6705 df3c 64e2 453e b503 e1bd 27d7 103e
00000360: a166 40bd 0632 d9bc fc8f 45bd 02f9 bfbd
00000370: c47c 9fbd 6d5f 6abd 610d 25bb b859 5abd
00000380: 90ab c0bd 90cb f43d 4d42 113d 6217 25bd
00000390: ad52 c0bd a864 16be c36b e7bd 210d 0d3e
000003a0: df37 aebc 5c2c 01be 2f6f 68bb ffef c53c
000003b0: 21b4 1abe f24b 833d c0eb 033e bed6 0abe
000003c0: f8c1 583e bd95 b5bd ece3 10bd 03e8 46be
000003d0: 79db e5ba 9883 24bd 22f0 143d cad8 f23d
000003e0: a785 383d 79d4 1c3d 9ddb 1fbe 1278 cabd
000003f0: 68fa e13b 9240 dcbd 59d2 dabd 580a 093e

l2.bias f4 [100]
-0.01028514 0.091837704 -0.016871225 -0.1752421 0.13619693 -0.003407742 0.026032466 -0.1047728
0.044098098 -0.09369068 -0.16428502 0.024712425 0.15255731 0.34379214 -0.021259569 0.1593311
0.11061939 -0.016833164 -0.06392993 0.25692537 -0.08834894 0.2815444 -0.14152694 0.055899054
0.26336512 -0.16966069 -0.023932355 0.19967087 0.022304816 -0.19756234 0.06592474 -0.03661293
0.09270144 -0.14316194 -0.19297631 0.13769719 0.014044372 0.22022165 0.14517431 -0.02081795
-0.041316375 0.16335274 -0.035318807 -0.06404123 -0.2082806 -0.22857662 -0.31161237 -0.13086385
-0.08271136 0.01087903 0.009620491 -0.20999818 -0.037134238 0.098892525 -0.079527676 -0.11398928
0.008026894 0.18492071 0.1581603 0.15217152 -0.03874901 0.17935646 -0.2950965 0.024430325
0.4949688 -0.01991095 0.00024371679 0.12538746 0.07060664 0.009571695 -0.055093944 -0.3207521
0.08884918 0.11507634 -0.16990173 0.049202673 0.07031103 -0.072110415 -0.06273536 -0.4454222
-0.16786122 -0.11864955 -0.16614968 -0.07767719 0.0802078 -0.033571653 0.27914506 0.0036213356
0.15411997 0.119012825 -0.020197362 -0.14454293 -0.18862873 0.21122286 0.029952396 -0.04503434
0.026961133 0.20200829 -0.32371894 -0.19159576
00000000: 0183 28bc 6815 bc3d 8635 8abc aa72 33be
00000010: 3577 0b3e 6c54 5fbb 0a42 d53c 1f93 d6bd
00000020: 35a0 343d e6e0 bfbd 553a 28be b671 ca3c
00000030: fc37 1c3e 8605 b03e 8c28 aebc b127 233e
00000040: 6b8c e23d b4e5 89bc b2ed 82bd b98b 833e
00000050: 4af0 b4bd 9626 903e 70ec 10be 68f6 643d
00000060: cbd7 863e 88bb 2dbe c90d c4bc 8576 4c3e
00000070: 97b8 b63c c84d 4abe 8d03 873d 71f7 15bd
00000080: 41da bd3d 0b99 12be 959b 45be 7e00 0d3e
00000090: 5e1a 663c c981 613e 93a8 143e 688a aabc
000000a0: 5c3b 29bd f145 273e 74aa 10bd 0c28 83bd
000000b0: 8247 55be fd0f 6abe a88b 9fbe 2c01 06be
000000c0: 9364 a9bd f63d 323c 449f 1d3c c309 57be
000000d0: 121a 18bd 2a88 ca3d 68df a2bd 3673 e9bd
000000e0: 3c83 033c db5b 3d3e c6f4 213e dad2 1b3e
000000f0: 48b7 1ebd 38a9 373e e316 97be 1b22 c83c
00000100: 8d6c fd3e 4a1c a3bc 3a8e 7f39 9265 003e
00000110: 379a 903d 99d2 1c3c 30aa 61bd 9f39 a4be
00000120: 8ff6 b53d 25ad eb3d b8fa 2dbe be88 493d
00000130: 3bff 8f3d a0ae 93bd 657b 80bd 610e e4be
00000140: d0e3 2bbe 89fe f2bd 2423 2abe 3815 9fbd
00000150: fd43 a43d 6e82 09bd 1aec 8e3e ee53 6d3b
00000160: a0d1 1d3e ffbc f33d f074 a5bc 1003 14be
00000170: e427 41be ce4a 583e ba5e f53c ee75 38bd
00000180: 98dd dc3c 43db 4e3e 7dbe a5be ae31 44be

l3.weight f4 [18, 100]
0.19165786 0.19015472 -0.077772096 -0.11885237 0.07256504 0.26794922 0.10837726 0.22645198
-0.13409354 0.09761457 -0.0829235 0.18728596 -0.17266755 -0.33201358 0.21369798 0.116944514
0.113026805 0.046249222 -0.0007367122 0.13797425 0.061261494 -0.20664768 -0.03652786 -0.22193691
-0.35648236 -0.15386578 0.23296092 0.09568678 -0.2307753 -0.029646467 -0.3127622 0.17094404
0.16106176 0.1885276 0.21447706 -0.16553023 0.10442474 0.11479431 -0.064047344 0.06975873
0.0062219417 0.0072081024 0.32276034 0.08429611 0.1524199 -0.093646236 0.19444947 0.17107219
-0.018147573 0.22471172 0.09324244 -0.17055646 -0.06042359 -0.025861708 0.12852676 -0.10324084
0.20085919 -0.0021883845 -0.17252783 0.05551653 0.12762664 0.09837893 0.20143692 -0.2338062
-0.14947608 0.032479804 -0.11811607 -0.05984286 -0.105465084 0.14672682 0.408787 -0.08597365
-0.06544069 -0.017301511 0.2122284 0.1356508 -0.17012742 -0.064941876 0.12701252 0.12847747
0.14088573 0.10867352 0.033401366 0.058820155 -0.045921598 -0.12497866 -0.36738807 -0.030796366
-0.0095642805 0.043435305 0.1690693 -0.00040661625 0.16988401 -0.21077386 -0.08785985 -0.07744896
0.11701119 -0.03843273 0.24279201 -0.07334068 -0.073356435 0.15435028 0.18016735 0.07210071
0.2766918 0.028310208 0.009635158 0.18225121 -0.33865923 0.06484448 0.012317153 0.25256988
-0.05129699 -0.20672482 0.20626654 -0.1150489 0.15036887 -0.007860995 -0.21672434 0.25017127
0.30180845 -0.29888427 -0.13893399 -0.062379852 0.041859932 0.05329488 0.17238879 -0.19956358
-0.20531319 -0.029453209 -0.1604453 -0.15766239 0.01135191 0.3330231 0.27909368 -0.12375595
0.021525364 -0.16329075 0.082503326 0.11397179 -0.016023152 0.21435322 0.22263172 -0.18001561
0.062752925 -0.046513077 0.04606549 -0.080304205 -0.10931873 0.3037797 -0.010347278 0.0034673046
0.20628962 -0.011872889 0.37210542 -0.0929324 0.29005823 -0.16035953 -0.09157254 -0.13788581
-0.08044278 0.26592457 0.49422804 0.00062486477 -0.17335206 0.33156937 -0.027212393 -0.043121688
0.24347144 0.10430773 -0.17058538 0.32133475 -0.034717165 0.056694847 0.06640135 0.29218033
0.10709141 0.02154969 0.03284578 -0.0032533237 0.07838308 0.14680237 0.116081186 0.29744717
-0.2490211 -0.29730815 -0.033124894 -0.10136437 -0.07707844 0.08577711 -0.05883148 -0.05583871
0.09826265 -0.19528714 -0.2646178 -0.03342605 0.10984151 0.13006423 0.1572003 0.012157689
0.006767214 0.074239224 -0.06167291 -0.15066272 0.35137904 0.069050975 0.09906506 0.2018672
-0.23165658 0.18535359 0.014637833 0.07104861 -0.14000015 -0.17619957 0.2566996 0.14550659
-0.031483468 0.016154984 -0.18931364 0.08777726 0.2023532 0.022039913 -0.18133396 -0.07769249
-0.025763221 0.09613883 0.034130618 0.034265894 -0.004003025 0.04102794 0.012418477 0.14037316
-0.13091554 0.15738869 0.17074329 0.13684602 0.1443056 -0.052359186 0.005035121 0.22051519
0.2005198 -0.22753742 0.1639086 0.17747802 0.14490075 0.06695553 0.12799814 0.08298979
0.24579078 0.15125915 0.14950298 -0.047250554 0.031490695 0.31227428 0.39070818 0.1212196
00000000: f541 443e ebb7 423e fa46 9fbd df68 f3bd
00000010: fb9c 943d a430 893e e6f4 dd3d 07e3 673e
00000020: d14f 09be 26ea c73d ccd3 a9bd e4c7 3f3e
00000030: c3cf 30be affd a9be a5d3 5a3e 9b80 ef3d
00000040: 997a e73d d36f 3d3d eb1f 41ba 1f49 0d3e
00000050: 55ed 7a3d 739b 53be 3d9e 15bd 6e43 63be
00000060: db84 b6be fe8e 1dbe 4f8d 6e3e 6ef7 c33d
00000070: 5c50 6cbe 26dd f2bc 5e22 a0be f40b 2f3e
00000080: 60ed 243e 610d 413e e09f 5b3e c280 29be
00000090: a3dc d53d 4719 eb3d 412b 83bd aadd 8e3d
000000a0: 6ee1 cb3b f231 ec3b d840 a53e 70a3 ac3d
000000b0: f613 1c3e 99c9 bfbd c31d 473e 8c2d 2f3e
000000c0: 38aa 94bc d41a 663e e4f5 be3d 5aa6 2ebe
000000d0: ba7e 77bd efdb d3bc 859c 033e ef6f d3bd
000000e0: 08ae 4d3e 006b 0fbb 23ab 30be 4d65 633d
000000f0: 8fb0 023e e47a c93d 7b45 4e3e e46a 6fbe
00000100: 4210 19be 8b09 053d d7e6 f1bd c91d 75bd
00000110: 14fe d7bd 8e3f 163e 884c d13e f412 b0bd
00000120: c505 86bd e6bb 8dbc 6752 593e 0be8 0a3e
00000130: e235 2ebe 3f00 85bd 920f 023e 998f 033e
00000140: 5944 103e 3990 de3d dfcf 083d 67ed 703d
00000150: 4918 3cbd d0f4 ffbd 4a1a bcbe a948 fcbc
00000160: 80b3 1cbc 38e9 313d 8120 2d3e 1c2f d5b9
00000170: 13f6 2d3e 1ad5 57be ddef b3bd 8f9d 9ebd
00000180: 90a3 ef3d a36b 1dbd 789e 783e a333 96bd
00000190: e63b 96bd 000e 1e3e ca7d 383e 89a9 933d
000001a0: 8caa 8d3e cfea e73c c8dc 1d3c 10a0 3a3e
000001b0: be64 adbe 2fcd 843d e2cd 493c d750 813e
000001c0: cb1c 52bd acaf 53be 8937 533e c29e ebbd
000001d0: 4cfa 193e 67cb 00bc fcec 5dbe 7316 803e
000001e0: a386 9a3e 5c07 99be b644 0ebe 0482 7fbd
000001f0: 5275 2b3d bb4b 5a3d b086 303e 655a 4cbe
00000200: 9f3d 52be db47 f1bc c64b 24be 4072 21be
00000210: 5dfd 393c 0182 aa3e 5ee5 8e3e c273 fdbd
00000220: f655 b03c b135 27be 81f7 a83d 0b6a e93d
00000230: fc42 83bc 697f 5b3e 92f9 633e 0356 38be
00000240: 9b84 803d 7f84 3ebd 2baf 3c3d 8876 a4bd
00000250: 80e2 dfbd 0389 9b3e a187 29bc b83b 633b
00000260: 963d 533e 8186 42bc 9a84 be3e 5853 bebd
00000270: 8382 943e 4a35 24be 628a bbbd f031 0dbe
00000280: 2fbf a4bd 4427 883e 750b fd3e f7cd 233a
00000290: 3483 31be 76c3 a93e 86ec debc 5ea0 30bd
000002a0: 9450 793e 4b9f d53d efad 2ebe fd85 a43e
000002b0: 9633 0ebd db38 683d 6efd 873d a998 953e
000002c0: be52 db3d fa88 b03c 4c89 063d b735 55bb
000002d0: 4f87 a03d 5c53 163e f9bb ed3d ff4a 983e
000002e0: 63ff 7ebe c638 98be f8ad 07bd 1f98 cfbd
000002f0: 4ddb 9dbd e9ab af3d 47f9 70bd 22b7 64bd
00000300: ee3d c93d 5af9 47be fc7b 87be c1e9 08bd
00000310: 96f4 e03d 8f2f 053e 1ef9 203e 0b31 473c
00000320: 81bf dd3b bc0a 983d bc9c 7cbd 5447 1abe
00000330: f4e7 b33e 996a 8d3d 9fe2 ca3d 46b6 4e3e
00000340: 6237 6dbe 55cd 3d3e 86d3 6f3c ef81 913d
00000350: 335c 0fbe a96d 34be 216e 833e aeff 143e
00000360: cff4 00bd 7557 843c 6fdb 41be 90c4 b33d
00000370: ad35 4f3e 0c8d b43c 9caf 39be 3d1d 9fbd
00000380: 640d d3bc 6fe4 c43d 8ccc 0b3d 655a 0c3d
00000390: cf2b 83bb ea0c 283d de76 4b3c fbbd 0f3e
000003a0: b90e 06be 802a 213e 54d7 2e3e 5d21 0c3e
000003b0: d9c4 133e 9676 56bd a8fd a43b bcce 613e
000003c0: 1055 4d3e 92ff 68be a8d7 273e ccbc 353e
000003d0: dd60 143e fb1f 893d f211 033e 8df6 a93d
000003e0: 94b0 7b3e aee3 1a3e 4f17 193e cc89 41bd
000003f0: 63fc 003d 6ae2 9f3e e70a c83e fb41 f83d

l3.bias f4 [18]
0.37753317 -0.42689192 -0.6362787 -0.05271329 -0.03961079 0.20981455 0.4275842 -0.2124585
-0.00939958 -0.666372 0.28479674 0.49858627 -0.54410344 -0.3504438 -0.17263247 -0.08406164
-0.384217 0.0052002496
00000000: 074c c13e 9491 dabe 29e3 22bf e4e9 57bd
00000010: ec3e 22bd a0d9 563e 51ec da3e b98e 59be
00000020: b200 1abc 5b97 2abf e1d0 913e b346 ff3e
00000030: 5d4a 0bbf 5f6d b3be 91c6 30be 8228 acbd
00000040: 17b8 c4be db66 aa3b
