LARA/weight/d_40.pt (torch, 94631 bytes, 7 tensors)

D_attr_matrix.weight f4 [36, 5]
000000 03 ed 8f bd 20 88 7e 3e 90 31 f4 be 1c e3 b0 3e
       -0.07027628 0.24856615 -0.47694063 0.3454827
000010 8e 6a ad 3d 21 5f ec 3e ab 9e ef 3e 7e 1c 1f 3d
       0.08467589 0.46166328 0.46800742 0.03884553
000020 24 34 ac 3e 7f 59 a0 3e 54 ad 0e 3f 88 eb 1f be
       0.3363353 0.3131828 0.5573323 -0.15617192
000030 37 eb 08 be 29 af a8 3d 4d 58 a5 3d f4 38 71 3e
       -0.13370977 0.08236534 0.08073483 0.23556882
000040 23 20 64 be 03 46 6a bd 0d 13 4e 3e d8 21 72 3e
       -0.22277884 -0.057195675 0.20124455 0.23645723
000050 da 68 91 bd 3d 8d 9a be 88 9e da bd 94 2b 13 be
       -0.07100077 -0.3018588 -0.10674769 -0.14372092
000060 a9 45 fa bc 9e 4f bd bc fd 7a 82 3d 29 15 5a be
       -0.030550795 -0.023109253 0.063711144 -0.21297134
000070 3b 69 00 bf bd 7e f9 3c 80 65 db 3e e2 b2 5c bd
       -0.5016057 0.030455941 0.42850876 -0.053881533
000080 12 23 77 3d 5e 19 94 3d 19 4b 33 bd c1 85 01 3e
       0.06033618 0.07231401 -0.04377279 0.1264868
000090 92 2a 70 3e f1 e2 48 3c f0 ff ff 3e 74 d6 db be
       0.2345374 0.012261138 0.49999952 -0.42937052
0000a0 89 49 63 be bf 04 ab 3e 3b 09 f5 bc c7 96 4f 3d
       -0.2219602 0.33402058 -0.029911628 0.0506809
0000b0 44 72 30 be c6 eb 80 bd ae 29 21 3e 90 d2 d4 bd
       -0.17231089 -0.0629497 0.15738556 -0.10391724
0000c0 e9 a3 0e be 85 55 d6 3a 3f f0 28 bc 5d 84 ef bc
       -0.13929714 0.0016352391 -0.010311185 -0.02923792
0000d0 40 53 63 be de a9 40 3e 25 8a 83 3c cc d3 b5 3d
       -0.22199726 0.18814799 0.016057083 0.08878288
0000e0 60 f3 df 3c ed 05 8b bc e3 9c 82 bc d4 03 2e 3e
       0.02733773 -0.0169706 -0.01594395 0.16993648
0000f0 06 09 10 3e 9a ee 41 bc 6d f9 14 3e 88 7a 02 be
       0.14065942 -0.011836672 0.14548273 -0.12742054
000100 58 6a 1a be 12 b4 9b 3c 7f f7 2d 3f a5 2a 3a 3e
       -0.1507963 0.019006763 0.67955774 0.1818033
000110 f7 ad 45 3e 8e 3f a0 bb 5a 80 91 be e9 88 73 be
       0.19304644 -0.004890389 -0.28418237 -0.23782696
000120 f6 3b af bc b5 33 ec 3d 06 01 30 3e 89 18 86 3e
       -0.021390896 0.115333 0.1718789 0.26190594
000130 8f fb 8f bd 53 c0 8f bd 9d 47 8a 3e 9b 85 6e 3e
       -0.07030403 -0.07019105 0.27007762 0.23293154
000140 e6 13 87 be c4 90 9b bc 4e 38 fb 3c 3f a9 d8 be
       -0.2638237 -0.018989928 0.030666497 -0.42316625
000150 2f be ea 3d 61 d9 ab bd 17 3a 49 be 4e 2f 2d bd
       0.11462056 -0.08391071 -0.19651066 -0.04228144
000160 32 89 0a bf b5 2a 0e be e8 33 1c 3e 2d 99 b2 bd
       -0.54115593 -0.13883479 0.15254176 -0.08720622
000170 90 de 61 3e 30 7f 85 3e 3a c2 3a be f4 73 ee 3e
       0.22057557 0.260736 -0.18238154 0.4657284
000180 bd b6 3f bf f8 34 fe bd 2d eb 10 3f 9a 85 45 bf
       -0.7488821 -0.12412447 0.5660885 -0.77156985
000190 ad 26 c8 bd 3a 71 f2 3e 09 5e ec 3d 3b fa 94 3e
       -0.09773002 0.4735201 0.11541373 0.2909716
0001a0 46 30 37 3e 02 b9 56 3e e3 d1 1f 3f 68 6e a6 3e
       0.17889509 0.20969012 0.62429637 0.32506108
0001b0 bc 5d 98 be 84 06 b2 bd e9 2a ca bc 11 70 e1 bd
       -0.29759014 -0.08692649 -0.024678664 -0.11007703
0001c0 c1 32 80 be ac 32 c8 ba 1e 59 a0 3d 7e 1a 70 3c
       -0.25038722 -0.001527389 0.07829498 0.014654754
0001d0 60 f7 00 bf b6 c5 fb be b5 10 3b 3e 64 df 1b ba
       -0.50377464 -0.4917428 0.18268092 -0.00059460686
0001e0 57 65 c2 3d d7 84 f1 3d 12 20 0a 3e b6 e9 d2 be
       0.09491985 0.11792915 0.13488796 -0.41193932
0001f0 a7 fc 07 be e3 5d 26 3a 4e ec ef 3e 71 92 c7 3d
       -0.13279973 0.00063463877 0.46859974 0.09744728
000200 40 df 4a be e1 64 ee 3d ac b6 de 3d 2c e8 5b be
       -0.19811726 0.11640335 0.10874686 -0.21475285
000210 10 64 9f bd 57 90 d9 3d cc e0 84 bd 21 7c 7f 3e
       -0.07782757 0.10623234 -0.06488189 0.24949695
000220 1d 54 a7 bd 81 61 43 bc bc d8 c0 bd 1b 2e 82 3e
       -0.0817034 -0.011925102 -0.09416339 0.254258
000230 c4 42 b3 be 67 96 c7 bd 1d 20 71 3e c5 61 9e 3e
       -0.35011876 -0.09745484 0.23547406 0.30933967
000240 41 8d 1b be b2 2e 0c be a8 1f 9a be 83 b5 cb 3d
       -0.15190603 -0.13689688 -0.30102277 0.0994673
000250 2e 6f e4 3e 55 5b a1 be ff 3c 7b 3d 76 7d 48 3e
       0.44616073 -0.31514993 0.061337467 0.1957911
000260 0c b3 a0 3e 7c 85 10 3e d6 8f 5b 3e 4b 15 78 be
       0.31386602 0.1411342 0.21441588 -0.24226873
000270 2f f0 4f be 31 c3 92 3e 96 26 3c 3e 9d 63 29 bd
       -0.20306467 0.28664544 0.18374094 -0.041354764
000280 35 6e d2 3b 70 86 5c be ee 4c e4 bd f9 6e 82 3e
       0.006421829 -0.21535659 -0.11147486 0.2547529
000290 3e 58 bb 3e c6 10 84 3e bb 2b 8a 3e d5 e7 07 bf
       0.3659076 0.25794047 0.2698649 -0.5308812
0002a0 d8 aa b4 bd 5b a3 2e be 31 06 11 be fb c7 96 3d
       -0.08821648 -0.17054503 -0.14162518 0.07362362
0002b0 42 bc 36 3d 70 08 e6 bd e2 c3 ba 3d 8b 99 d5 be
       0.04461313 -0.11232078 0.09119393 -0.41718706
0002c0 c0 6f a6 3e d9 2c 1e 3e 08 75 03 3e 65 a2 95 3e
       0.32507133 0.15446796 0.12837613 0.2922546

l1.weight f4 [100, 108]
000000 eb c6 44 3b ff af a1 3c 61 54 1d 3e a8 a3 56 bc
       0.003002579 0.019737242 0.15364219 -0.013100542
000010 e5 b7 8e bd 70 31 30 3d e6 1e 65 3e 8b b9 a1 3d
       -0.06968669 0.043015897 0.22375068 0.07896718
000020 47 0e 77 bc 56 2d 09 3e 64 a2 a8 bd f4 4d ef bd
       -0.015079088 0.133962 -0.082340986 -0.1168479
000030 5e df 1c 3e ef aa 9f 3d b4 d3 a8 3d d9 38 9d bd
       0.15319583 0.07796275 0.08243504 -0.076768585
000040 81 83 1f 3e 9a 00 c5 bd e6 94 da 3c f8 66 4a 3d
       0.15577509 -0.09619255 0.026682328 0.049414605
000050 50 bb b4 bd dc e8 3d bc c3 13 14 be 22 e4 cd bd
       -0.088247895 -0.0115911625 -0.14460663 -0.100532785
000060 60 f9 88 bd 5a f0 e9 bc e9 4d 03 3d 2a 87 12 3c
       -0.066881895 -0.028556991 0.032056723 0.008943358
000070 d4 6e 3d be e5 a9 bd bc 22 d9 ac 3d 85 0c 96 bd
       -0.18499309 -0.023152301 0.08439852 -0.07326607
000080 6f c4 97 3d 5c d6 cd 3d 5c de 74 ba ff 13 ae 3c
       0.074105136 0.100506514 -0.00093409955 0.02124977
000090 1f 55 71 bd f4 c2 97 bb 73 5f 1a be 39 da 2b 3e
       -0.05891907 -0.0046313945 -0.15075473 0.16782464
0000a0 3e fc cf 3c 36 ff 0a 3d a7 03 11 be 5b 11 3c 3d
       0.025388833 0.033934794 -0.1416155 0.04591499
0000b0 4f 99 82 3d 45 7d a4 bd fa 63 d3 bc a8 1a 90 bc
       0.063768975 -0.08031706 -0.025804508 -0.017590836
0000c0 38 08 34 bd 1c 33 8a 3d 72 8a 78 3d 24 50 02 be
       -0.04395315 0.067480296 0.060678907 -0.12725884
0000d0 54 55 20 3d ac e9 da bc a2 dd f2 bc 28 8c 56 3d
       0.039143875 -0.026722752 -0.029646698 0.052379757
0000e0 b5 32 69 bd f1 34 d5 bc 6c 4b 46 3d 05 69 39 3d
       -0.056933124 -0.026026221 0.04841177 0.04526617
0000f0 87 b5 3a bd 11 9d b1 3d 70 11 d0 3d 3c fe d0 bd
       -0.045583274 0.08672536 0.10159576 -0.10204741
000100 80 7c 14 bc b2 05 fd 3c a7 c3 53 bd 58 89 6d 3c
       -0.009062886 0.030886505 -0.05170026 0.014498077
000110 ce ce fa bd 1a 44 0a 3e d2 57 14 3e 28 51 f7 3c
       -0.12246476 0.13502541 0.14486626 0.030190066
000120 4c 19 60 3c 44 d8 ba 3d 95 3a d4 3d 77 65 bc bc
       0.013677906 0.09123281 0.10362736 -0.022997601
000130 7b c6 0c be 11 b9 e3 bd 32 00 b9 ba e5 ca e1 3d
       -0.1374759 -0.11119283 -0.0014114438 0.11025027
000140 75 15 89 bd 62 98 94 3d af ee b2 3c ec 63 ca 3d
       -0.06693546 0.07255627 0.021842329 0.0988234
000150 6d 45 a0 3d 30 78 8b bd 1d db 26 3e bd 31 c1 bd
       0.07825742 -0.06810033 0.16294523 -0.09433315
000160 b2 f4 07 be f6 55 7e 39 24 df 2b be 80 0f 17 be
       -0.13276938 0.0002425535 -0.1678434 -0.14752007
000170 61 7b 84 3e 28 9c 5b be 06 6e 2e be dd 85 e2 3a
       0.2587538 -0.21446288 -0.17034158 0.0017282326
000180 23 e2 46 be fb dc dc bd 2b 8a dc be b3 d1 7f 3e
       -0.19422202 -0.10784336 -0.43074164 0.24982338
000190 bb 52 ff 3d fa 5b 95 3b 82 6c cc bc 72 84 74 be
       0.124669515 0.0045580836 -0.024954084 -0.23878649
0001a0 e5 81 c3 3d 12 d7 90 be f4 87 cb bd 26 8b 42 be
       0.0954626 -0.28289086 -0.099380404 -0.18998393
0001b0 41 09 2c 3e f2 30 8c bd 34 e0 15 3d 77 fd 4e bd
       0.16800405 -0.06845273 0.03659077 -0.05053469
0001c0 2b a8 18 3e ae a3 60 3e 25 fd cc bd 1a e7 ea 3d
       0.14907901 0.21937439 -0.10009221 0.114698604
0001d0 45 2a d9 3c b9 4c 0a 3d 9f bc ac 3d 1d ba 16 be
       0.026509413 0.033764575 0.08434414 -0.14719434
0001e0 2d be 85 bd 3c a5 4e bd 42 38 4a 3c 36 a2 54 3e
       -0.06530414 -0.05045055 0.0123425145 0.20765004
0001f0 87 29 03 be ba 3b 6a 3d 1c fe 1d bd cf 97 07 bc
       -0.1280881 0.057185866 -0.038572416 -0.00827594
000200 a4 bb 38 be 4a b1 8f 3e 7c 8b 6f bd 9c 28 34 be
       -0.18040329 0.28064948 -0.058482632 -0.17593616
000210 ae 6b 04 be 76 4e 14 bd 21 e5 f0 bd 4b 9e 51 3d
       -0.12931702 -0.03620764 -0.11762453 0.05117635
000220 96 ff 96 3d 31 0b 3f 3d 99 5a c8 3d 6b 24 7e 3d
       0.07372968 0.046641532 0.09782905 0.06204645
000230 df 22 22 3e e3 22 03 be 45 e0 72 3d 11 46 34 bd
       0.15833615 -0.12806277 0.05929591 -0.044012133
000240 c8 b1 cb 37 25 2f 78 3d c8 8b 2b 3e 33 30 06 be
       2.4282272e-05 0.060591836 0.16752541 -0.13104324
000250 d9 40 ed bd 28 a3 f3 bd 0e b3 db 3d 8b 13 0c be
       -0.11584634 -0.11896354 0.10727511 -0.1367933
000260 4b ed dd 3d fb 63 6f 3d f5 58 a0 bd 6b 41 a9 bc
       0.10836276 0.05844496 -0.07829467 -0.020661077
000270 bd 4a 7f 3e 2c e6 82 3b 32 98 54 3d a7 40 b1 3d
       0.24930854 0.003994724 0.051902957 0.086549096
000280 3b 1e d2 3d df bf e4 3c 89 5a e0 bd f8 3a 61 be
       0.10259672 0.027923523 -0.10954768 -0.21995151
000290 aa 42 fe bd 90 11 d9 bc 10 e9 ec bd ba f7 72 3d
       -0.12415059 -0.026497632 -0.11567891 0.05931828
0002a0 21 58 4a 3e 93 9b cc bd ed bb f9 3d 67 af b1 bd
       0.19760181 -0.09990611 0.12194047 -0.086760335
0002b0 71 6d e3 bd d9 1d 1f bc 35 a2 b5 bd 24 9b cb 3d
       -0.11104859 -0.009711706 -0.08868829 0.099417
0002c0 95 45 5d 3d 91 5b 56 3d 6b 64 e1 bc 40 95 8d bc
       0.054021437 0.05233342 -0.027513703 -0.017283082
0002d0 b3 a2 ae 3d 7a c7 0d 3e 06 3a 91 be 5c 71 31 3e
       0.08527126 0.13845626 -0.2836458 0.173284
0002e0 c5 6a 01 3e 05 21 d4 3d cd ac 1f bd 2d 2c 91 3d
       0.12638386 0.103578605 -0.038983155 0.07088504
0002f0 68 b8 4e 3d 9c 09 5f be 66 5b 86 3d 4c 02 33 3e
       0.050468832 -0.2178101 0.065604016 0.17481345
000300 1a 6d ab bd 56 ee b4 bd 76 0b 19 3d 6e 0f 93 3c
       -0.08370419 -0.088345215 0.037364446 0.017951693
000310 d2 3d 7f be cf a5 2f 3e 15 a5 e8 3d 81 98 81 3d
       -0.24925926 0.17153095 0.11359612 0.06327916
000320 5d 9a 06 3d 65 cd 9e 3b 8c 3e 6e 3c 4b 79 a0 3d
       0.032862056 0.0048462623 0.0145412795 0.07835635
000330 b2 27 b8 3d e3 04 9c bb 60 0e c1 bd ff 59 71 3c
       0.08991946 -0.0047613247 -0.0942657 0.014730929
000340 81 57 c9 bb 46 6e e4 bc 01 99 83 bd ae 9b 73 3d
       -0.0061444645 -0.027884614 -0.064256676 0.05947464
000350 9a ac c5 bd df 07 87 3d 0e a7 4a be 8f cc bd 3b
       -0.09652062 0.06593298 -0.19790289 0.0057922076
000360 24 74 af bd a2 92 c3 3d bf 77 eb 3d a0 34 29 be
       -0.08567074 0.09549452 0.11497449 -0.16523981
000370 4f 71 1c be 25 e3 3a bc 81 33 16 3d 85 ec 8d bc
       -0.15277599 -0.011406695 0.03667021 -0.017324695
000380 08 0d c8 bd f3 7a 65 bd b4 38 22 be 06 05 73 3d
       -0.097681105 -0.056025457 -0.15841943 0.059330963
000390 af 2d 7e 3d 02 c6 7f 3d 07 ce 12 bd 5f 1a 04 be
       0.062055286 0.062444694 -0.035841014 -0.12900685
0003a0 c6 54 c4 3d 71 95 d8 3d b3 5f b1 3d 50 39 fb 3c
       0.09586482 0.10575379 0.08660831 0.030666977
0003b0 b5 7d 8f 3d 35 43 21 3e cd 96 8a 3d 2f 85 88 bd
       0.070063986 0.15748294 0.06767044 -0.06666028
0003c0 ba e6 5d bc 95 8f 7d 3d c8 8a bd 3d a4 0a 8b 3d
       -0.013543779 0.06190451 0.09254986 0.06789139
0003d0 43 73 dd 3d f5 0b c4 bd 9b 27 b3 bd 7e ca 6a be
       0.10813 -0.09572593 -0.087477885 -0.22928807
0003e0 96 8a 98 bc d5 73 ae bc db ad 93 bd 34 1f 66 bd
       -0.01862077 -0.021295467 -0.07210895 -0.0561821
0003f0 93 64 c2 bc 8c 83 5f 3d 29 f9 64 bc 0c 71 49 be
       -0.023729598 0.054568812 -0.01397542 -0.1967203

l1.bias f4 [100]
000000 52 9c 83 bc 51 4e 4d 3e 1a 31 2b be da 5e 15 3d
       -0.01606575 0.20049407 -0.1671795 0.03646741
000010 35 0b 17 3e 28 c9 0d be ab 1f 85 3d 82 99 b8 3e
       0.14750369 -0.13846266 0.06500181 0.36054617
000020 52 2e 3a be 08 f3 8d 3e 11 21 81 bd e1 02 6d be
       -0.18181732 0.2772448 -0.06305135 -0.2314563
000030 5d 30 a5 3c 90 28 bc bd 6e ae 7d 3e 4d 8d 6b bd
       0.020164663 -0.09187424 0.24773571 -0.0575078
000040 fe 7e 2d 3e cc 9b 23 3d 59 5d d8 3c 1d 5c d0 3a
       0.16942975 0.0399435 0.0264117 0.0015896593
000050 f4 70 82 be e2 a0 f4 bd 97 76 18 bd c5 43 22 3e
       -0.254768 -0.119447485 -0.03722247 0.15846165
000060 08 c4 86 bd 86 2e f9 3d a6 5c 83 3d 3b 92 9f bd
       -0.06580359 0.12167077 0.06414156 -0.07791563
000070 c1 f3 b2 3d 0d c6 29 be 7e 17 b1 3d 3b 09 51 3e
       0.087378986 -0.16579457 0.08647059 0.20413677
000080 fe c4 20 3d 4f d1 8d bd 0c b2 87 bd 67 ea 04 bd
       0.039250366 -0.06924688 -0.066257566 -0.032450106
000090 63 37 eb 3e 16 69 e6 3d 72 69 59 be 4b d0 d4 bd
       0.45940694 0.11250512 -0.2123163 -0.10391291
0000a0 45 a3 2a be 21 7e 89 3c e8 20 0f 3e de d9 3b 3e
       -0.16663845 0.016783776 0.13977396 0.18344828
0000b0 68 d8 c0 3d ac f2 36 3d 31 c1 05 be 53 f5 c0 bd
       0.09416276 0.044665024 -0.13061978 -0.09421792
0000c0 7d 78 de bd 17 df 0e be ea 4d 84 3d 42 d1 21 be
       -0.10862825 -0.1395229 0.064601734 -0.15802482
0000d0 af 01 95 3d e6 41 01 be 68 19 83 3e 26 73 1b bc
       0.07275712 -0.12622795 0.2560532 -0.009487903
0000e0 0c fb eb bd 39 3e 5d be 9e f4 68 3e 7e 24 05 3e
       -0.11522493 -0.21605767 0.22749564 0.13002202
0000f0 ff 1a b2 bd 9e 77 1a ba db 40 06 3d 30 5e f7 bd
       -0.08696555 -0.0005892458 0.032776695 -0.12078512
000100 7f 13 61 3e 67 35 52 3d 9c 27 18 3e 08 c2 a2 bd
       0.21980093 0.05132046 0.1485886 -0.07947165
000110 98 0c 91 3d aa 21 c3 bc 97 63 e9 bd ab 82 8e 3c
       0.0708248 -0.023819763 -0.113959484 0.017396292
000120 92 10 6d 3e bc 18 a7 bd 89 d7 1d 3e 63 a3 9b 3d
       0.23150852 -0.081590146 0.15414251 0.07599523
000130 28 ce f2 3c 99 ef ab 3d 3f b9 be bb 97 e8 03 bd
       0.029639319 0.08395309 -0.005820423 -0.032204237
000140 9f 1e aa be 19 b6 e4 bc 78 78 25 be db 06 0a be
       -0.33226487 -0.027918862 -0.16159236 -0.13479178
000150 47 15 68 be e7 2f 14 3e 8f c2 41 3d e5 cd a8 3d
       -0.22664367 0.14471398 0.047304686 0.08242396
000160 9c 93 ee 3c 69 17 b1 3e 79 49 af 3c 10 8a 18 3e
       0.02912312 0.34588173 0.02139734 0.14896417
000170 47 d5 a1 be 6c 05 9c bc 8e 61 cd bd 41 bd f8 bd
       -0.3160803 -0.019045554 -0.10028373 -0.12145472
000180 72 b6 a3 bc 80 54 3c 3e f7 3c f0 bc 7d 89 d3 bc
       -0.019984458 0.18391609 -0.029325945 -0.025822395

l2.weight f4 [100, 100]
000000 a1 c0 dc 3c d6 26 3a be fe 4e 55 3e 39 cf f1 3c
       0.026947321 -0.18178877 0.20830914 0.029517757
000010 6c 80 12 be aa 55 0f 3d fe 33 9c 3d 81 c7 cb 3c
       -0.14306802 0.034993805 0.07627104 0.024875404
000020 a7 a1 29 3e a8 8d d2 3d 6c be 87 3e 74 47 89 3d
       0.16565572 0.10280925 0.26512468 0.06703082
000030 47 72 4f 3c 33 b5 55 3c e6 04 91 be dd 72 24 bd
       0.012661523 0.01304369 -0.2832405 -0.040148605
000040 f4 26 9c bd b3 fe 26 3d 59 7a d9 3d de 30 4e 3e
       -0.07624617 0.040770244 0.10619039 0.20135829
000050 ce 4c 54 bd e3 82 1b be e0 4c 72 3c c8 22 f2 3d
       -0.05183106 -0.15186648 0.014788836 0.1182304
000060 34 59 38 3d f3 54 bd 3d ed bd de bd 67 3a b5 3d
       0.045006946 0.092447184 -0.10876069 0.0884903
000070 ae 5e 02 be 8b e4 87 be ca 5d d5 bd 5b aa 04 be
       -0.1273143 -0.26541552 -0.104182795 -0.1295561
000080 4a 67 eb bd 17 01 d0 bd c0 6f 44 3e 67 d3 c8 3d
       -0.1149431 -0.10156458 0.19183254 0.09805947
000090 70 a7 c8 bc 07 e2 87 bd 0c 90 80 3e 01 76 6a bd
       -0.024493903 -0.06634908 0.251099 -0.057241444
0000a0 74 ef 8e 3d 77 e9 0a be d0 6f 66 bd d7 65 58 bd
       0.06979266 -0.13565622 -0.056258976 -0.052831497
0000b0 3b ba 52 be 0a b2 55 3e 2f 1d 45 be c1 f0 7f 3e
       -0.20578854 0.20868698 -0.19249414 0.24994184
0000c0 80 04 73 bb a3 95 a1 3d 4a a1 8e bd 33 fe 0a bd
       -0.003708154 0.07889869 -0.06964357 -0.03393383
0000d0 3b 05 ac 3d eb 49 55 bc ec af a8 bd a2 ac 59 bd
       0.08399435 -0.013018112 -0.082366794 -0.05314315
0000e0 59 1b 31 bd f6 11 4f bc 1c a0 91 3d f4 f7 cf bd
       -0.04323897 -0.01263856 0.071106166 -0.10154715
0000f0 08 2d 5d be 18 ac 1e bd 3d 53 ec bd 7d cd 21 3d
       -0.2159921 -0.03873834 -0.11539314 0.03950261
000100 b0 77 06 bd 66 e9 87 bc 2f 43 c2 bd f4 84 a5 3d
       -0.032828987 -0.016590785 -0.094854705 0.080819994
000110 b4 b2 01 be 14 59 c0 3d a2 15 8e 3d 17 89 77 be
       -0.12665826 0.0939199 0.0693772 -0.2417339
000120 42 c6 bc 3d e5 e6 d9 3d 4d 64 1c be 45 5f 5a 3d
       0.09217502 0.10639743 -0.15272637 0.053313512
000130 02 46 84 bd 3f 49 ee bc 28 d6 3b be c9 26 48 bd
       -0.064586654 -0.02908766 -0.18343413 -0.048865113
000140 ff 35 76 3e 66 db a7 bc 36 8c 16 bd 69 98 70 3e
       0.24044035 -0.02049036 -0.03675481 0.2349564
000150 f7 2e f6 3c 42 4d 8c be ab 20 ee 3c 98 3b 19 3d
       0.030051691 -0.27402693 0.029068312 0.03741035
000160 c7 92 51 3e 3e 74 55 bc 64 cf 31 be 88 09 f0 bd
       0.20466147 -0.013028203 -0.1736427 -0.11720568
000170 91 64 62 bc 90 f2 c4 3d 7d 93 f7 3d 83 93 2d 3e
       -0.013817922 0.096165776 0.12088678 0.16950803
000180 dc cd 01 be ba 6f 2a be e2 7e 7c bb a3 6a f3 bc
       -0.12676185 -0.16644183 -0.0038527776 -0.029713934
000190 77 ee 7a 3e ab 41 dd 3d b2 5b 14 3e 03 97 8a be
       0.2450503 0.10803541 0.14488104 -0.27068338
0001a0 e5 fb b2 3d b0 da 0f 3d 07 3d 83 bd 52 9d 31 3d
       0.08739451 0.035120666 -0.064081244 0.043362923
0001b0 fa 43 c3 bd da 4d ae 3c f1 9b 0c 3b 58 a5 75 be
       -0.0953445 0.021277357 0.0021455253 -0.23988855
0001c0 8d 30 70 3d 9e 2c c7 bd b9 d2 34 bd cb 14 92 be
       0.05864005 -0.09725307 -0.044146273 -0.2853149
0001d0 54 51 80 3e f4 3b 44 3b 94 b1 25 3e 2b 70 e6 bd
       0.25062048 0.0029942961 0.16181022 -0.11251863
0001e0 3f ae 78 3d ef b6 86 be ec 85 dc 3d a4 dd b2 be
       0.06071305 -0.26311442 0.10767731 -0.34934723
0001f0 52 c9 be bd fe ad 8f 3d a2 43 11 3b d8 7b 35 bd
       -0.093157426 0.07015608 0.0022165556 -0.04430756
000200 00 cf 19 bc cf 60 dd be 0f e9 31 3e 3d 27 3b be
       -0.009387732 -0.43237922 0.17374061 -0.18276687
000210 4f d9 1c 3d 11 da 31 3e 13 c8 8f bd 34 c7 16 3e
       0.03829318 0.17368342 -0.07020583 0.14724427
000220 4e 8c a7 bd 26 8f e1 bd 6d 6e c4 3e 80 23 59 3e
       -0.08181058 -0.110136315 0.38365498 0.21204948
000230 e9 d5 24 39 4c 77 6e be 97 42 34 bb bf c3 cb 3d
       0.00015719947 -0.23287696 -0.002750551 0.09949445
000240 ec 92 4e 3e ca eb f7 bb d8 69 3b bd d2 62 10 be
       0.20173234 -0.00756595 -0.045755237 -0.14100197
000250 0c 80 a5 be 14 9d 62 3e f0 51 fc 3c d4 f8 c1 3c
       -0.32324255 0.22130233 0.03080079 0.02367822
000260 31 fa 5a be 55 8d dd bd bc d4 68 3d 3d 50 85 3d
       -0.21384503 -0.108179726 0.056843504 0.06509445
000270 2c e7 b9 bd 1c 57 84 bd df d0 72 be 02 ad 4e be
       -0.09077296 -0.06461927 -0.2371249 -0.20183185
000280 ad f1 69 3e a7 c4 97 bd 2e 96 00 3e 4b cc d5 3d
       0.22846098 -0.07410555 0.12557289 0.104393564
000290 84 de 92 3e 50 1e 4f 3e c1 92 cb bd 4c 11 93 be
       0.2868539 0.20226407 -0.099401005 -0.28724134
0002a0 77 70 6d 3e bd fb 73 3e 6a b0 bf bd 03 34 0b 3e
       0.23187433 0.238265 -0.0935982 0.1359406
0002b0 8c 77 6d bc fb 3e e4 3d 8e 2e 09 3e 96 df 20 bc
       -0.014493834 0.11144825 0.13396665 -0.009818932
0002c0 6a 70 85 bd 85 75 7e 3e 14 9e 3e 3e 52 14 85 be
       -0.06515582 0.24849518 0.1861499 -0.25992066
0002d0 ef 1c 0e 3d 36 69 ab bd 02 01 3b be d6 5a b2 bc
       0.034695562 -0.08369677 -0.18262103 -0.02177183
0002e0 38 97 33 3e c7 a4 e7 bd 70 f1 5c 3d 53 33 83 be
       0.17538154 -0.11310726 0.05394119 -0.25625095
0002f0 04 77 c6 ba 85 ad 25 be a9 a5 1e be cb 16 00 bd
       -0.0015141671 -0.16179474 -0.15492882 -0.031271737
000300 88 a0 e1 be 51 d5 38 be 96 db e8 bd 3d b2 d4 3c
       -0.44067788 -0.18050124 -0.11370008 0.025963897
000310 85 e5 36 3e a6 6b 5c bb 9f 4c 62 bd 76 1d 68 3e
       0.17860992 -0.00336335 -0.055248853 0.22667488
000320 3e 3e 7f 3b e4 b4 ae bc c0 83 18 3d 9f 0a 36 bd
       0.0038947011 -0.02132649 0.03723502 -0.044443723
000330 09 9a 5b ba 66 81 88 3c 16 b6 1d be 87 32 c7 bc
       -0.000837714 0.016663264 -0.15401492 -0.024316086
000340 c9 84 4a 3e 99 cf 4e bc b4 e9 0d be aa c6 0e 3d
       0.19777216 -0.012622737 -0.13858682 0.03485743
000350 68 1c 0a 3d 0e 70 43 3e cb c9 fa bd 5d 43 12 3e
       0.033718497 0.19085714 -0.1224552 0.1428351
000360 98 e4 80 bd cc 00 c4 bc 8b 47 3f bd f6 bf ae bd
       -0.06293601 -0.023926161 -0.046699088 -0.085327074
000370 4d c2 87 bd c7 5a 86 bd b3 1b 0a 3c bd e5 48 bd
       -0.06628857 -0.06560283 0.008429456 -0.04904722
000380 45 8c b9 bd 5e 30 06 3e e5 ee 3c 3d 41 25 f3 bc
       -0.090599574 0.13104388 0.046126265 -0.02968085
000390 fd 35 c3 bd b8 95 0e be 30 dc f7 bd 22 3f 02 3e
       -0.09531782 -0.139243 -0.12102544 0.12719396
0003a0 9f c7 ee bc bd ad 0d be bb 17 20 3c 67 28 c7 3c
       -0.029147921 -0.13835807 0.009771283 0.024311258
0003b0 ce 70 26 be cd 4b 6d 3d 9f 92 0f 3e 30 a1 0f be
       -0.16253969 0.057933617 0.14020775 -0.14026332
0003c0 5e 37 63 3e 5b 55 a7 bd 10 f4 42 bd 83 f1 50 be
       0.2218909 -0.08170577 -0.047596037 -0.2040463
0003d0 49 33 1c bc 85 a3 e8 bc fa 22 e4 3c c8 ce 01 3e
       -0.009533712 -0.028398285 0.02784871 0.12676537
0003e0 1c 4f 4f 3d bb b6 30 3d 0e 0e 2c be e5 cc db bd
       0.050612554 0.043143015 -0.16802236 -0.1073244
0003f0 7e e5 3d 3c 66 67 d7 bd cc de f1 bd 9e 2f 02 3e
       0.01159036 -0.105177686 -0.11810073 0.12713477

l2.bias f4 [100]
000000 0c 37 a8 bc 6a 31 c2 3d d4 fd e9 bc 38 e0 2a be
       -0.02053406 0.09482081 -0.028563417 -0.16687095
000010 da fe 18 3e 36 4b 9e 3a 85 ed 22 3d 9f fa da bd
       0.14940968 0.0012076858 0.039777298 -0.106923334
000020 79 d3 38 3d eb 11 ba bd ab 57 1e be e8 bf d2 3c
       0.04512355 -0.09085449 -0.1546313 0.025726274
000030 25 4b 1e 3e 1a 8b b6 3e 36 14 d7 bc c4 2d 15 3e
       0.15458353 0.35653 -0.026254755 0.1456824
000040 6d 6d cd 3d 51 b5 ea bc fa eb 79 bd c2 96 76 3e
       0.10030637 -0.028650912 -0.06101606 0.24080947
000050 4f b8 cb bd fe ec 8e 3e d8 3b 11 be 75 70 8e 3d
       -0.099472634 0.27915186 -0.14182985 0.06955043
000060 5b 2c 8d 3e 62 46 3a be 46 33 1a bd f1 49 46 3e
       0.27572903 -0.18190911 -0.037646554 0.19364144
000070 b9 69 b1 3c b2 ce 50 be 0f 6b a1 3d 9e a5 30 bd
       0.021656858 -0.20391348 0.07881748 -0.043126695
000080 8f e7 c8 3d 6b f8 21 be 6f f2 50 be c8 0f 00 3e
       0.09809791 -0.1581742 -0.20404981 0.1250602
000090 14 1f 92 3c 2c 40 53 3e 44 2f 22 3e e2 ae 06 bd
       0.017837085 0.20629948 0.15838343 -0.032881625
0000a0 77 d1 35 bd 21 20 29 3e 6d 6e 01 bd cd 69 83 bd
       -0.044389214 0.16516162 -0.03159945 -0.06416664
0000b0 89 59 62 be 79 c1 76 be 40 58 9b be 5b a0 19 be
       -0.22104467 -0.24097241 -0.30340767 -0.15002577
0000c0 9f 64 c6 bd d6 e4 66 3c f4 19 06 b9 9b 44 56 be
       -0.09687161 0.014092645 -0.00012788904 -0.20924608
0000d0 96 14 5f bd af a5 c9 3d 9b 8f a3 bd 3b 47 f7 bd
       -0.05446299 0.09846055 -0.07986375 -0.12074133
0000e0 52 54 1b 3c 99 25 47 3e b4 81 20 3e bf 77 29 3e
       0.009480553 0.19447936 0.15674478 0.16549586
0000f0 31 d6 2e bd bf d4 39 3e 25 f5 96 be e0 e8 c5 3c
       -0.042684738 0.18147562 -0.29483905 0.024158895
000100 cf 28 01 3f 72 4f 4e bc be c0 f0 ba 86 8a 0f 3e
       0.50452894 -0.012592183 -0.0018367989 0.14017686
000110 08 15 a6 3d 21 17 78 ba c5 04 88 bd 45 03 ab be
       0.0810948 -0.00094638957 -0.06641535 -0.33400932
000120 bd b1 b2 3d 58 bc d6 3d 43 99 39 be ee 89 10 3d
       0.08725307 0.104851425 -0.18124871 0.03528779
000130 06 5c 8a 3d 80 31 89 bd 77 31 95 bd ac d4 e9 be
       0.06755833 -0.066988945 -0.07284825 -0.45670068
000140 d2 94 2b be 49 d2 04 be bb df 34 be 9c b5 a9 bd
       -0.16755989 -0.12970842 -0.17663471 -0.08286592
000150 41 61 c0 3d b4 67 ac bc 64 31 94 3e 45 c4 fc 3b
       0.0939355 -0.021045543 0.28943932 0.007713827
000160 ae 2b 1f 3e 1c 23 df 3d 17 27 9a bc 0d 28 04 be
       0.15544006 0.108953685 -0.018817468 -0.12905903
000170 02 47 4b be 28 6c 65 3e de 55 f3 3c 66 1d 5e bd
       -0.19851306 0.2240454 0.02970403 -0.054227255
000180 ab cb d4 3c ab c6 4c 3e cf 80 a8 be 2b bf 36 be
       0.025976023 0.19997661 -0.32910773 -0.17846362

l3.weight f4 [18, 100]
000000 fe b8 4d 3e 91 fe 4b 3e 7f 5f 95 bd 29 bc bd bd
       0.200901 0.19921328 -0.07293605 -0.09264404
000010 1b b0 cb 3d 06 92 9e 3e 25 55 cb 3d 94 2d 82 3e
       0.09945699 0.30970782 0.099283494 0.25425398
000020 c3 bb 1d be 4c 3a f8 3d 13 08 9c bd 8c 34 51 3e
       -0.15403657 0.12120494 -0.076187275 0.20430201
000030 93 df 22 be a8 a8 ae be 18 69 6c 3e 99 3b 01 3e
       -0.159056 -0.3411305 0.23086965 0.12620391
000040 26 79 fa 3d fe 08 78 3c f2 c6 b5 bc ef bb 16 3e
       0.122301385 0.015138863 -0.022189591 0.14720128
000050 9b 5f 90 3d 8f 73 72 be d2 d1 8c bd 52 7e 62 be
       0.07049485 -0.23676895 -0.068759575 -0.221185
000060 95 13 bb be bc 1d 1b be cc d4 77 3e 7a 70 8b 3d
       -0.36538377 -0.15148062 0.2420227 0.068085626
000070 e5 86 65 be 33 97 25 bd d0 49 9a be 8b 84 21 3e
       -0.2241474 -0.040427398 -0.3013444 0.15773217
000080 01 db 36 3e 7f 63 4a 3e d0 1a 65 3e f8 06 23 be
       0.17856981 0.19764517 0.2237351 -0.15920627
000090 39 2e f2 3d 91 7a fc 3d d8 2f 28 bd 11 c3 a1 3d
       0.118252225 0.12328065 -0.041061252 0.07898534
0000a0 ae 3e 48 bc 79 e2 13 3c ee 10 b4 3e 3e e5 f3 3d
       -0.012221975 0.009026163 0.35169166 0.11908959
0000b0 75 78 25 3e 24 24 ad bd 4c 7c 6c 3e e9 8d 38 3e
       0.16159232 -0.08454159 0.2309429 0.18022884
0000c0 ee 61 11 bc 8d c7 82 3e 6f df d1 3d b9 85 42 be
       -0.008873446 0.2554287 0.10247695 -0.18996324
0000d0 e4 38 52 bd b3 70 8e 3a 64 e4 25 3e a0 9f 05 be
       -0.051323786 0.0010867327 0.16200405 -0.13049173
0000e0 dc 19 5f 3e 0a 33 3b bc 1e 4d 57 be d8 94 3d 3d
       0.21787208 -0.011425743 -0.21025512 0.046284527
0000f0 33 1f 0d 3e e3 5d 08 3e 5b e2 71 3e 99 d2 7d be
       0.13781433 0.13317065 0.23621504 -0.24787368
000100 58 90 22 be 66 d2 99 3d ce 3d 16 be fb 8a 8d bd
       -0.15875375 0.075108334 -0.14672014 -0.06911274
000110 49 06 9d bd 23 b9 1f 3e 9b 08 d6 3e 68 23 9d bd
       -0.076672144 0.15597968 0.4180344 -0.07672769
000120 e2 e6 73 bd 25 eb 30 bd e1 ce 62 3e 1c 4b 14 3e
       -0.05954636 -0.043193 0.2214923 0.14481777
000130 0f 26 27 be 74 a5 87 bd 1a 88 0b 3e c6 03 0d 3e
       -0.16323112 -0.066233546 0.13626137 0.1377097
000140 e6 bf 12 3e 7a 02 cc 3d cb c3 2e 3d d5 5b bd 3d
       0.14331016 0.0996141 0.04266719 0.09246031
000150 c6 ed 61 bd 40 6c 09 be 99 d9 c0 be 93 05 d0 bc
       -0.0551584 -0.134202 -0.37666014 -0.025393283
000160 00 bd ea bc a3 90 87 3c af c3 49 3e e4 00 1d bc
       -0.028654575 0.01654846 0.19703554 -0.009582732
000170 9e 9f 19 3e fa 45 61 be c5 9b ec bd 62 a9 8b bd
       0.15002295 -0.2199935 -0.11553148 -0.068194166
000180 45 67 1b 3e 49 52 1b bd de 10 81 3e e4 a2 a7 bd
       0.15176113 -0.03792027 0.2520818 -0.08185366
000190 b4 13 7f bd 7a 34 22 3e aa 8f 42 3e f9 26 9d 3d
       -0.06227465 0.1584033 0.19000116 0.07673449
0001a0 5a 67 96 3e 59 32 69 3d 75 79 b0 ba 77 b0 4b 3e
       0.29375726 0.05693278 -0.0013463931 0.19891535
0001b0 5b 47 b3 be d4 52 a3 3d ee 56 b5 3b da 36 85 3e
       -0.35015377 0.079747826 0.0055340445 0.2601841
0001c0 ca 98 60 bd 7a 10 5f be 50 9d 5c 3e f6 ef d4 bd
       -0.05483321 -0.21783629 0.21544385 -0.103973314
0001d0 19 56 25 3e 48 a8 1f bc 09 f6 68 be e4 be 85 3e
       0.16146125 -0.009744711 -0.22750105 0.261222
0001e0 77 30 a0 3e 1d 75 a4 be 35 af 21 be be 65 94 bd
       0.31286976 -0.321206 -0.15789492 -0.07245968
0001f0 c5 c8 fd 3c 1c 4c 7e 3d 64 e2 3b 3e c1 d9 61 be
       0.030979523 0.062084302 0.1834808 -0.22055723
000200 d2 c0 53 be 97 37 17 bd df b1 2e be 4a ef 1d be
       -0.20679024 -0.03691825 -0.1706004 -0.15423313
000210 26 3c 94 3c 63 2e b0 3e 40 92 94 3e a9 45 e9 bd
       0.018095087 0.3441039 0.2901783 -0.1139024
000220 1a f3 00 3d 6a 82 1c be 89 15 c3 3d 4e 0a 00 3e
       0.03148184 -0.15284124 0.09525592 0.12503931
000230 c4 ed 52 bc 1c 88 64 3e a5 90 77 3e 4d 41 21 be
       -0.012874071 0.22317547 0.24176271 -0.15747567
000240 93 35 97 3d f5 4a 11 bd 11 a7 8c 3d 2a ea 8d bd
       0.07383265 -0.035471875 0.06867803 -0.06929429
000250 3a 2d c9 bd 16 2d a5 3e 58 77 26 3a 60 17 fe bb
       -0.098230794 0.3226096 0.0006350181 -0.0077542514
000260 a8 8d 5e 3e d4 24 3d 3b 29 c1 c9 3e 9e ba e2 bd
       0.21733725 0.0028861063 0.39405182 -0.11070751
000270 f4 80 98 3e e3 72 2f be ca e1 ea bd 42 89 18 be
       0.29785883 -0.1713367 -0.11468847 -0.1489611
000280 26 d8 96 bd 52 0b 93 3e c3 25 04 3f 6b 2c 11 bc
       -0.07365446 0.28719574 0.5162012 -0.008860688
000290 09 e1 3c be 3d c5 b9 3e 25 45 39 bd 5d 08 5e bd
       -0.18445219 0.36283293 -0.045231957 -0.054207195
0002a0 7a c5 79 3e fd 58 ec 3d 44 56 23 be 4d 33 aa 3e
       0.24391738 0.11540411 -0.15950876 0.33242264
0002b0 ea 25 07 bd c7 2d 5d 3d 06 b1 9e 3d e5 3f 9b 3e
       -0.032995142 0.053998735 0.07748608 0.30322185
0002c0 08 9d e2 3d 36 09 ab 3c 40 f8 33 3d be 39 00 3c
       0.110651076 0.020878416 0.04393792 0.007826267
0002d0 c3 83 a2 3d 2d af 1b 3e ed 38 02 3e ce 25 a2 3e
       0.07935288 0.15203543 0.12717028 0.31669468
0002e0 db 29 85 be 32 e2 9d be 29 2e 35 bd 48 fe c5 bd
       -0.26008496 -0.30836636 -0.044233475 -0.09667641
0002f0 87 5a b6 bd 9f 6f aa 3d aa f7 26 bd 18 01 89 bd
       -0.089039855 0.08322071 -0.040763535 -0.06689662
000300 4f cf d1 3d 7b 4f 53 be 7a 8d 90 be 83 fe b6 bc
       0.10244619 -0.20635788 -0.28232938 -0.022338158
000310 b8 48 07 3e 7d 17 f6 3d 77 58 2c 3e ec 89 bd 3a
       0.13211334 0.12016199 0.16830622 0.001446066
000320 a9 2a 75 3c 5d 4e ad 3d 3b a2 6b bd 2c 07 01 be
       0.014963784 0.08462212 -0.057527762 -0.12600392
000330 4b 2b c2 3e 97 ad e5 3d 87 67 ba 3d 87 2f 6b 3e
       0.37923655 0.1121475 0.091017775 0.22967349
000340 ba 55 81 be 0d 0f 56 3e 24 f3 ad 3c fb 30 b4 3d
       -0.25260717 0.20904179 0.021234103 0.08798405
000350 5e d5 03 be 66 b3 3c be 04 40 8c 3e f3 68 1d 3e
       -0.12874362 -0.1842781 0.2739259 0.15372066
000360 e9 79 be bc 67 5a 53 bc 20 c1 57 be 7e 86 c4 3d
       -0.02325149 -0.012899972 -0.21069765 0.09595965
000370 4b 97 57 3e aa 39 09 bc e9 6c 5b be 04 5b 9d bd
       0.21053807 -0.008375565 -0.21428265 -0.076833755
000380 a0 b8 09 bd 30 c0 c8 3d da b2 2c 3d 72 77 cd 3b
       -0.033623338 0.09802282 0.042162754 0.0062703425
000390 c0 8a 6a ba 0a a9 02 3d 1c ca b9 3c 4d a8 03 3e
       -0.0008947067 0.03189949 0.022679381 0.1285717
0003a0 58 3f ec bd 63 74 29 3e 8e 41 37 3e 7d 7b 11 3e
       -0.11535519 0.16548304 0.17896101 0.14207263
0003b0 39 b0 23 3e 42 19 38 bd 3d 5e d8 3c 26 30 6a 3e
       0.15985192 -0.044945963 0.026412124 0.2286993
0003c0 f4 b3 3e 3e 84 14 66 be a1 da 46 3e 52 62 59 3e
       0.18623334 -0.22468764 0.19419338 0.21228912
0003d0 db b6 1c 3e bf a8 99 3d 21 57 29 3e e6 96 ba 3d
       0.15304129 0.07502889 0.16537143 0.09110813
0003e0 37 0f 82 3e 5f 46 3a 3e 7c 74 21 3e 20 4f 8b bd
       0.25402233 0.18190907 0.15767092 -0.06802201
0003f0 d8 09 22 3d fb 9a ad 3e 54 c6 d9 3e d8 fd bd 3d
       0.03956017 0.33907303 0.42534125 0.092769325

l3.bias f4 [18]
000000 d5 8a bc 3e a6 41 e0 be b5 ff 24 bf cd 64 82 bd
       0.3682467 -0.43800086 -0.6445268 -0.063668825
000010 ca 6a 3c bd b7 11 4d 3e 14 9e d5 3e a9 bd 61 be
       -0.04600028 0.20026289 0.41722167 -0.22045006
000020 42 31 95 bc 44 13 2d bf 4c 7c 8b 3e ce c7 f9 3e
       -0.018211965 -0.6760752 0.27243268 0.4878525
000030 77 87 0e bf 99 46 b9 be f6 39 3a be a1 7e c2 bd
       -0.5567545 -0.36186674 -0.18186173 -0.09496809
000040 ee 0d c9 be bb 63 b9 bb
       -0.3926844 -0.0056576408
