LARA/weight/g_0.pt (torch, 87399 bytes, 7 tensors)

G_attr_matrix.weight f4 [36, 5]
0.013638051 0.12963153 0.2636652 0.2580144 -0.21383183 -0.124415606 -0.03169042 -0.09510616
0.19223969 -0.16896611 -0.22165403 -0.21397896 0.17614883 -0.5274928 -0.029977176 0.0405983
0.4505807 0.24593961 -0.33847642 0.11732482 0.3059169 -0.34303364 0.18779236 -0.22123955
-0.24663699 0.040922835 0.010511072 0.4217657 0.026390228 0.30337408 0.2997686 -0.637298
0.16528286 -0.0997544 0.2460361 -0.18777916 -0.1268143 0.053137533 0.18867472 0.14054523
-0.3559132 0.20815173 -0.32055476 -0.15595128 0.50387573 0.22964159 0.2244929 -0.32172987
-0.33055553 0.04744991 -0.035539154 -0.06908492 0.27745754 -0.011213421 -0.24239317 -0.10404022
0.20395635 -0.18981278 0.114618905 -0.14886358 0.6535016 -0.2592878 0.18266886 0.35521644
0.03292936 0.15449956 -0.17924832 0.01704701 -0.08634155 0.06978882 -0.3268161 -0.07813072
-0.24783924 -0.48284653 0.2842683 -0.17041357 -0.021691924 -0.10139883 0.033556383 -0.105793744
0.17581367 -0.4607367 -0.25673625 -0.21578698 -0.38282612 -0.022652704 -0.4390347 -0.013308973
-0.28125766 0.14812839 0.11686824 -0.41319084 -0.24204487 0.19684482 0.13098894 -0.0018989597
-0.10397596 0.25480583 -0.41258392 -0.16549137 0.14422475 0.032585926 0.26028967 0.1588194
0.19946276 -0.018730411 0.26837924 0.08839736 0.11527618 0.18603303 -0.3800484 0.34246618
-0.12863287 0.13781765 -0.089717805 0.13535355 0.32287017 0.15401849 0.026101265 -0.27613363
0.15827733 -0.21282656 0.15693784 0.12217855 -0.075323634 0.492696 -0.19607215 0.29866442
0.20783006 0.09154075 -0.035383467 0.028537922 0.062001 -0.28731045 -0.04846521 0.18425778
-0.2706747 0.08724882 -0.059688322 -0.032379765 0.2504802 -0.15336654 -0.04647043 0.07715438
0.25776374 -0.05148283 0.00871806 0.11482347 0.03168245 0.05075162 0.17243034 0.17120995
-0.061801434 -0.57940346 0.2958648 -0.07754527 0.25854966 0.07588851 0.1104887 -0.12183115
0.11909685 0.12654752 -0.24317521 -0.044419907 -0.20316252 -0.10003239 0.21034974 0.16736698
-0.048457842 0.05437138 0.10225046 -0.14214234 -0.019684814 -0.06410152 0.107540905 0.2069348
-0.25771365 0.010823127 -0.092853345 0.13738234
00000000: 2272 5f3c 21be 043e 20ff 863e 771a 843e
00000010: bbf6 5abe 9ccd febd d0cd 01bd 05c7 c2bd
00000020: 7bda 443e 7405 2dbe 46f9 62be 4d1d 5bbe
00000030: 5c60 343e c509 07bf b292 f5bc 674a 263d
00000040: 83b2 e63e 98d7 7b3e c84c adbe ff47 f03d
00000050: 24a1 9c3e 1ba2 afbe a44c 403e 9f8c 62be
00000060: 688e 7cbe b49e 273d a236 2c3c adf1 d73e
00000070: 5230 d83c d953 9b3e 457b 993e f625 23bf
00000080: e93f 293e 094c ccbd e3f0 7b3e 2e49 40be
00000090: 9cdb 01be bea6 593d f233 413e 17eb 0f3e
000000a0: 413a b6be ba25 553e c11f a4be b1b1 1fbe
000000b0: 00fe 003f 2a27 6b3e 77e1 653e c7b9 a4be
000000c0: 933e a9be d65a 423d 8191 11bd 657c 8dbd
000000d0: ea0e 8e3e 7fb8 37bc ea35 78be 0a13 d5bd
000000e0: efd9 503e 485e 42be 51bd ea3d b26f 18be
000000f0: e14b 273f 5fc1 84be 8c0d 3b3e eede b53e
00000100: f0e0 063d 2235 1e3e df8c 37be 2ca6 8b3c
00000110: d7d3 b0bd 71ed 8e3d 7154 a7be 0003 a0bd
00000120: 92c9 7dbe a937 f7be 9d8b 913e e580 2ebe
00000130: 43b3 b1bc 31aa cfbd 6b72 093d 64aa d8bd
00000140: 8008 343e aee5 ebbe ef72 83be 43f7 5cbe
00000150: c901 c4be 2a92 b9bc 28c9 e0be e10d 5abc
00000160: 0101 90be f8ae 173e 9e58 ef3d c08d d3be
00000170: 9cda 77be b091 493e f721 063e 84e6 f8ba
00000180: 59f1 d4bd e975 823e 333e d3be 9276 29be
00000190: a7af 133e d278 053d b044 853e 8ea1 223e
000001a0: f73f 4c3e 8570 99bc 0169 893e ad09 b53d
000001b0: eb15 ec3d 717f 3e3e b495 c2be ba57 af3e
000001c0: 56b8 03be 1220 0d3e f8bd b7bd 1f9a 0a3e
000001d0: 3d4f a53e 06b7 1d3e 52d2 d53c 6361 8dbe
000001e0: 7413 223e 35ef 59be 50b4 203e bf38 fa3d
000001f0: 4743 9abd a642 fc3e 23c7 48be 8bea 983e
00000200: 67d1 543e b779 bb3d 41ee 10bd 5cc8 e93c
00000210: c3f4 7d3d 5b1a 93be 7583 46bd 12ae 3c3e
00000220: e095 8abe 82af b23d be7b 74bd a5a0 04bd
00000230: f13e 803e 1e0c 1dbe c757 3ebd 1e03 9e3d
00000240: 9cf9 833e a9df 52bd 32d6 0e3c 9128 eb3d
00000250: 75c5 013d eee0 4f3d 9491 303e a951 2f3e
00000260: 8023 7dbd c953 14bf 977b 973e 0ed0 9ebd
00000270: 9f60 843e 6f6b 9b3d e647 e23d 9c82 f9bd
00000280: 0de9 f33d ac95 013e ec02 79be a6f1 35bd
00000290: d609 50be c8dd ccbd ec65 573e 4062 2b3e
000002a0: bb7b 46bd 86b4 5e3d b068 d13d c38d 11be
000002b0: 0c42 a1bc a847 83bd 683e dc3d b7e6 533e
000002c0: 0bf3 83be 7c53 313c e529 bebd f5ad 0c3e

l1.weight f4 [100, 90]
-0.040094048 -0.18170787 0.20493288 -0.025016438 -0.10582398 -0.035819564 0.044011075 0.14186753
-0.091057435 -0.0011425064 0.1486542 0.11094217 -0.120096415 -0.032375805 0.054656707 -0.15230967
-0.101691425 0.0016539645 -0.07896364 -0.16225798 0.085284285 -0.02992884 0.035460714 -0.15419222
-0.16114923 -0.01863571 -0.24633424 0.16481495 0.0050834916 0.17240417 0.07156598 -0.0015546832
0.047218714 0.112925 0.0848285 0.159298 0.027891789 0.20003343 0.054215655 -0.0030420774
-0.094615676 0.13678926 0.086756505 -0.012805269 -0.23864567 -0.043550286 0.03930688 0.05577209
-0.043097354 0.056848954 -0.2271214 -0.13718815 0.13985202 -0.11092827 0.05184571 -0.07479945
0.054760505 0.031186193 0.20412774 -0.17361669 0.021678003 0.09543523 -0.059556678 0.083207265
-0.052440803 -0.031130444 0.007461496 -0.08050761 0.08288195 -0.10399939 -0.087002836 -0.0018421906
-0.059286512 0.040068176 0.08292763 -0.11458255 -0.012548828 -0.110534474 -0.037395693 0.09291229
-0.1894174 0.106196746 -0.051212788 0.03830753 -6.0058457e-05 -0.0721601 0.066112146 -0.11377346
0.0023406553 0.047259156 -0.11604758 -0.030472554 -0.13164096 0.13919652 -0.07668905 0.043910086
-0.0465228 0.123270325 -0.0067884806 -0.15843803 0.11148325 -0.004352311 -0.0156433 0.015575081
0.013403257 -0.16500051 -0.08237349 0.12662327 0.16542228 0.07087265 -0.085234314 -0.02708476
0.14416043 -0.10981684 0.07485575 -0.04966276 0.018369213 -0.02808527 0.18373786 -0.1485805
-0.088820994 0.06750283 -0.013494983 -0.002862378 -0.024948217 0.14069408 -0.10544643 0.017593753
0.09252763 -0.10979417 0.08207116 0.03734131 -0.020872802 0.1410199 -0.08949613 0.042092238
0.047271445 0.055607654 -0.117213726 -0.13352044 0.08049008 0.0871311 -0.07631853 -0.07274785
-0.13688669 0.055589054 -0.07270681 0.12881002 -0.030691745 0.025337288 0.22229014 0.17720753
-0.08367417 -0.095146246 -0.021201514 -0.19422036 -0.14189039 0.0073430133 -0.05011724 -0.17430367
0.14309743 0.13785937 0.0019917008 -0.07055072 0.060732298 -0.16152328 -0.09111399 -0.038213614
0.092390224 -0.09762056 -0.15354371 -0.13339378 0.22779076 0.08706083 0.04842806 0.12031578
0.071399964 -0.0858761 -0.0272992 -0.05017459 -0.05599463 -0.064031295 -0.060171507 -0.13718288
-0.053326733 0.05331468 0.114959486 0.015107567 0.081587285 -0.02414116 0.024273032 0.21463735
0.07623949 -0.035270162 -0.11655393 -0.008179608 0.08994094 0.12333563 -0.10635459 -0.08930456
-0.09556169 0.037691906 -0.05568584 0.014981766 0.006174776 0.113632105 0.07924218 0.17428605
0.050255783 0.16464294 0.14646642 -0.1644668 0.01302474 -0.07709627 0.08702154 0.072468884
0.027191183 0.085042626 0.13080016 -0.09867567 0.08140882 -0.010172547 -0.06052957 0.08259515
0.028063754 0.0061541703 -0.16844016 -0.20033948 0.116206996 -0.03678516 0.0042277584 -0.07039321
-0.0999454 -0.011508584 0.27890375 -0.064452104 0.21733841 -0.13332799 -0.0052410816 0.052784666
0.1309785 -0.07296339 0.03126588 -0.060580894 0.104668826 -0.06752909 0.056990683 -0.045096014
-0.009428918 -0.09876532 0.035751335 -0.092850335 -0.0071637984 -0.0546798 0.1204806 -0.052826002
00000000: a839 24bd a111 3abe edd9 513e 46ef ccbc
00000010: 3eba d8bd 89b7 12bd f544 343d b945 113e
00000020: 527c babd 27c0 95ba ce38 183e a635 e33d
00000030: 1cf5 f5bd 7e9c 04bd b6df 5f3d 11f7 1bbe
00000040: 9843 d0bd d7c9 d83a b0b7 a1bd f526 26be
00000050: 87a9 ae3d 542d f5bc 413f 113d 91e4 1dbe
00000060: 4e04 25be eba9 98bc 0b3f 7cbe 40c5 283e
00000070: 6b93 a63b b88a 303e 2f91 923d 83c6 cbba
00000080: 6968 413d 3945 e73d 91ba ad3d 041f 233e
00000090: 527d e43c 90d5 4c3e 3c11 5e3d 975d 47bb
000000a0: ddc5 c1bd 7c12 0c3e 65ad b13d 31cd 51bc
000000b0: 885f 74be c961 32bd 4000 213d 4671 643d
000000c0: da86 30bd 73da 683d 8392 68be 0d7b 0cbe
000000d0: 5e35 0f3e 5c2e e3bd 2b5c 543d 7430 99bd
000000e0: 8d4c 603d 307a ff3c dd06 513e 93c8 31be
000000f0: 1196 b13c 8c73 c33d b4f1 73bd 9268 aa3d
00000100: 2bcc 56bd 4605 ffbc 917f f43b 2de1 a4bd
00000110: 03be a93d a2fd d4bd 8b2e b2bd a975 f1ba
00000120: 6ad6 72bd 871e 243d f6d5 a93d 42aa eabd
00000130: 9999 4dbc e65f e2bd 3a2c 19bd cc48 be3d
00000140: a3f6 41be ae7d d93d 80c4 51bd 5be8 1c3d
00000150: 47e7 7bb8 adc8 93bd ce65 873d 0f02 e9bd
00000160: ae65 193b d192 413d 5baa edbd 94a1 f9bc
00000170: e3cc 06be 8889 0e3e 260f 9dbd 10db 333d
00000180: b18e 3ebd 2775 fc3d e771 debb 943d 22be
00000190: 5551 e43d d59d 8ebb 6126 80bc a02e 7f3c
000001a0: 5699 5b3c e5f5 28be 6fb3 a8bd 88a9 013e
000001b0: 7564 293e ae25 913d 548f aebd dce0 ddbc
000001c0: cb9e 133e a7e7 e0bd f94d 993d 2e6b 4bbd
000001d0: 087b 963c 1513 e6bc c725 3c3e 7d25 18be
000001e0: c8e7 b5bd ec3e 8a3d 101a 5dbc bc96 3bbb
000001f0: 3460 ccbc 1c12 103e 4cf4 d7bd c620 903c
00000200: 207f bd3d c4db e0bd ed14 a83d 34f3 183d
00000210: 70fd aabc 8567 103e bf49 b7bd e968 2c3d
00000220: b49f 413d dac4 633d c00d f0bd 95b9 08be
00000230: fcd7 a43d ca71 b23d e44c 9cbd d3fc 94bd
00000240: 062c 0cbe 59b1 633d 4fe7 94bd c6e6 033e
00000250: 416d fbbc 2590 cf3c 07a0 633e e475 353e
00000260: 5d5d abbd 09dc c2bd ccae adbc b4e1 46be
00000270: b74b 11be a99d f03b bc47 4dbd a97c 32be
00000280: 2288 123e 022b 0d3e 3287 023b e57c 90bd
00000290: 6ec2 783d 5c66 25be f999 babd e185 1cbd
000002a0: 1637 bd3d 4aed c7bd 903a 1dbe 6198 08be
000002b0: fb41 693e f34c b23d 805c 463d 1f68 f63d
000002c0: 253a 923d cfdf afbd 92a2 dfbc df83 4dbd
000002d0: a05a 65bd d722 83bd 6676 76bd ab79 0cbe
000002e0: 226d 5abd 7e60 5a3d e16f eb3d bb85 773c
000002f0: 3c17 a73d afc3 c5bc 3dd8 c63c e5c9 5b3e
00000300: 7323 9c3d 7277 10bd d4b3 eebd c303 06bc
00000310: f532 b83d 6497 fc3d 6fd0 d9bd 4fe5 b6bd
00000320: d9b5 c3bd d462 1a3d d616 64bd 1576 753c
00000330: c655 ca3b f3b7 e83d b949 a23d 0b78 323e
00000340: 02d9 4d3d 2998 283e 4bfb 153e fc69 28be
00000350: b865 553c a6e4 9dbd 5938 b23d 916a 943d
00000360: 0bc0 de3c d42a ae3d 7af0 053e 7816 cabd
00000370: abb9 a63d c1aa 26bc dbed 77bd a527 a93d
00000380: f5e5 e53c eca8 c93b 947b 2cbe cb25 4dbe
00000390: effd ed3d 09ac 16bd 0289 8a3b 512a 90bd
000003a0: 2db0 ccbd 808e 3cbc 79cc 8e3e 77ff 83bd
000003b0: f68d 5e3e 2287 08be 61bd abbb bc34 583d
000003c0: 3a1f 063e d46d 95bd a710 003d ac23 78bd
000003d0: 9c5c d63d b14c 8abd 106f 693d 99b6 38bd
000003e0: c07b 1abc 7945 cabd fe6f 123d 5128 bebd
000003f0: 4cbe eabb edf7 5fbd 88be f63d 1460 58bd

l1.bias f4 [100]
0.0032948495 0.016984358 0.24130698 0.15761088 -0.033401933 -0.18110585 -0.14271367 0.051117606
-0.1551755 -0.018327668 -0.08731809 0.27217844 -0.12273461 0.07717149 0.024998143 0.0696562
-0.10642786 -0.07667971 0.18206054 0.05026089 0.05472612 0.1055028 -0.026131265 -0.23949744
-0.16121459 0.18375067 0.1853146 -0.010301885 -0.062156744 -0.055112004 0.046837643 0.03604526
0.012499177 0.46777916 0.17668928 0.0362723 -0.20885327 0.15520859 0.059787523 0.03989042
0.14548232 0.10251047 -0.11120399 0.012063921 -0.018645555 0.24036053 -0.21445353 -0.31510365
0.30445492 0.17602052 0.10570063 -0.21230128 -0.07393856 -0.05642269 0.007836927 0.0024939233
-0.23742822 0.048885997 0.2949638 0.027266031 0.17145151 -0.010546953 0.089030445 -0.09762629
-0.12169968 -0.099892095 0.050398976 -0.0804135 -0.10753468 0.20181179 0.1977459 0.078045025
-0.13909118 -0.10261366 0.10369101 0.13471778 -0.25007585 -0.006072525 0.056671005 0.007935076
-0.052814897 -0.006358308 -0.20160657 0.012348384 0.2884609 -0.07136392 -0.08589579 0.08324417
-0.09733071 -0.028980443 -0.05859269 0.032276377 0.0034308392 -0.1245662 -0.2603491 -0.0020436556
0.06898228 -0.365186 -0.0874707 -0.11547525
00000000: 67ee 573b c822 8b3c 2d19 773e bf64 213e
00000010: 77d0 08bd d073 39be 8823 12be b260 513d
00000020: 54e6 1ebe e823 96bc d4d3 b2bd f95a 8b3e
00000030: 495c fbbd 160c 9e3d e8c8 cc3c e9a7 8e3d
00000040: daf6 d9bd 400a 9dbd 146e 3a3e 5dde 4d3d
00000050: 7f28 603d da11 d83d 3c11 d6bc d13e 75be
00000060: 7015 25be 2329 3c3e 1cc3 3d3e 3dc9 28bc
00000070: 1298 7ebd 20bd 61bd d4d8 3f3d 32a4 133d
00000080: 59c9 4c3c c080 ef3e 09ee 343e 4392 143d
00000090: a2dd 55be 00ef 1e3e c3e3 743d 2364 233d
000000a0: 51f9 143e 02f1 d13d ebbe e3bd c1a7 453c
000000b0: 90be 98bc 1221 763e b599 5bbe 4455 a1be
000000c0: 84e1 9b3e b93e 343e 9279 d83d 8265 59be
000000d0: 1a6d 97bd 7b1b 67bd 7466 003c 1771 233b
000000e0: 6220 73be af3c 483d 7f05 973e 035d df3c
000000f0: fc90 2f3e 21cd 2cbc 9855 b63d 4bf0 c7bd
00000100: af3d f9bd 3a94 ccbd 286f 4e3d d5af a4bd
00000110: 243b dcbd c0a7 4e3e e77d 4a3e 12d6 9f3d
00000120: eb6d 0ebe 1c27 d2bd f45b d43d 75f3 093e
00000130: f109 80be 08fc c6bb db1f 683d 1f02 023c
00000140: 6f54 58bd 5a59 d0bb f471 4ebe e050 4a3c
00000150: 26b1 933e 3f27 92bd 22ea afbd eb7b aa3d
00000160: 5355 c7bd 6568 edbc e3fe 6fbd 3c34 043d
00000170: eed7 603b 901c ffbd 7a4c 85be daee 05bb
00000180: 9546 8d3d a9f9 babe d723 b3bd 4a7e ecbd

l2.weight f4 [100, 100]
-0.172187 0.234115 0.004812613 0.043773722 0.023408212 0.13151374 -0.031750318 0.079858154
-0.017980486 0.061722293 -0.06919986 -0.020448346 -0.028903862 -0.011465138 -0.010347544 0.1480588
0.07175942 -0.0034138465 -0.14023274 0.0003544868 -0.0841965 -0.038837977 -0.14273554 0.037190374
0.013054174 0.028243542 -0.07907849 -0.02868547 -0.11685005 -0.10726515 -0.17472024 -0.01587816
0.15709245 0.022397265 0.08605353 0.12991664 -0.07057104 -0.08551884 0.13140504 0.056876488
-0.17393824 0.08492832 0.02394729 0.14161022 0.0021585578 0.04624062 -0.0659354 -0.021957573
0.032740895 0.12655966 0.1591976 0.046769466 -0.079671785 -0.06749453 0.0043937457 -0.2250663
-0.02793027 0.03432292 -0.08548055 -0.06961138 -0.0798395 -0.0019721382 -0.19343975 -0.06254825
0.09238771 0.15770228 0.0529755 0.21491867 0.05194846 0.060249083 -0.19302757 0.050188545
0.059689183 0.16150837 0.02021797 0.18943524 0.051383246 0.12352085 -0.04042283 -0.13647142
0.024731323 -0.012206835 0.014882094 -0.11568174 0.13949026 0.0965642 0.14981283 0.1936911
0.11639054 -0.0027908983 -0.112025544 0.10067559 0.021853248 -0.061424132 -0.23267339 -0.010544799
0.050137002 -0.17626403 0.02651039 -0.09251299 -0.08025074 -0.1263856 -0.12552673 0.25238937
0.07379832 0.22286406 0.08220912 0.023026407 0.049484413 0.01288732 0.26496565 0.023528649
-0.019671714 -0.080261424 0.1923731 0.13609937 0.021797242 0.09499829 -0.09467796 -0.019539211
-0.14805607 0.018819073 -0.05130746 -0.14130883 -0.0075188195 0.13979387 -0.20057282 0.14333396
-0.004201615 -0.037618794 -0.04965632 0.09109569 -0.19515455 0.027050897 -0.08305268 -0.049567003
-0.15851517 -0.009732789 0.028900618 0.03910376 -0.13047653 -0.11223602 0.114756964 -0.055059724
-0.14106397 0.022673346 -0.024361597 0.071892016 -0.13529298 -0.060430296 -0.10160645 -0.056060497
0.070499726 0.088205166 -0.021010436 0.26031598 0.07095753 0.078944586 -0.026605332 -0.007405861
-0.07393878 0.0634052 0.0021755602 -0.003020671 0.0049892096 -0.15679733 -0.044031285 0.12182828
0.14174047 -0.06573445 0.045211636 0.0060710027 0.07549387 -0.2107839 0.004127448 0.03721863
0.032235075 -0.18500386 -0.08415627 -0.056799226 -0.02236843 -0.16195107 0.2160613 0.09860742
0.05630892 0.09214805 -0.1552616 0.07377078 0.13053474 -0.11336482 0.18877617 -0.015785374
-0.048018645 -0.12249184 0.08815697 -0.2066073 -0.081358425 0.016512027 0.109687455 -0.08861532
0.058869556 -0.06433034 0.10124949 -0.11701019 0.11605912 -0.037567616 0.004195354 0.025178926
-0.10081512 0.07340998 0.026362253 -0.061947457 0.051063195 -0.043326963 0.01620076 -0.0817631
0.071935564 -0.018867483 -0.027629608 0.03203731 -0.0349613 0.10192763 0.036496617 -0.2209617
0.20105466 -0.11866246 0.20138882 0.013213987 0.02577401 0.18728852 0.1880099 -0.18816197
-0.12763357 0.0496086 0.024575813 0.09814352 0.008149631 0.08197879 0.063941404 0.028068017
-0.11658208 -0.105697304 0.08134703 0.11766317 -0.069368035 0.0387396 -0.053571977 0.17419711
0.06879229 -0.1188112 -0.062129274 -0.14823411 0.0025187684 0.20276198 -0.0639304 0.06682018
00000000: ca51 30be d8bb 6f3e 20b3 9d3b 134c 333d
00000010: 94c2 bf3c 8aab 063e 9f0c 02bd ac8c a33d
00000020: d04b 93bc 84d0 7c3d a8b8 8dbd 4a83 a7bc
00000030: cbc7 ecbc 46d8 3bbc bf88 29bc ba9c 173e
00000040: 9af6 923d d7ba 5fbb 2c99 0fbe 6ada b939
00000050: 376f acbd 9214 1fbd 4429 12be ef54 183d
00000060: 2de1 553c 005f e73c e7f3 a1bd cafd eabc
00000070: 144f efbd d5ad dbbd dde9 32be ea12 82bc
00000080: d8dc 203e 787a b73c d53c b03d de08 053e
00000090: 8d87 90bd 8024 afbd 0b8f 063e 52f7 683d
000000a0: de1c 32be e6ee ad3d 1b2d c43c 4502 113e
000000b0: 9776 0d3b ce66 3d3d 2409 87bd 5ee0 b3bc
000000c0: 511b 063d db98 013e b204 233e 5791 3f3d
000000d0: f62a a3bd 923a 8abd 69f9 8f3b c877 66be
000000e0: 06ce e4bc 3196 0c3d 6d10 afbd 6990 8ebd
000000f0: e482 a3bd fd3e 01bb 1215 46be 4c19 80bd
00000100: c535 bd3d b57c 213e d6fc 583d a413 5c3e
00000110: e9c7 543d bec7 763d 05a9 45be 8192 4d3d
00000120: a57c 743d 7362 253e 28a0 a53c 50fb 413e
00000130: 3d77 523d 80f8 fc3d 6992 25bd 2abf 0bbe
00000140: 5899 ca3c 2dff 47bc 07d4 733c 8cea ecbd
00000150: 89d6 0e3e 74c3 c53d 8968 193e f656 463e
00000160: 2a5e ee3d 81e7 36bb a66d e5bd 012f ce3d
00000170: 9505 b33c df97 7bbd ef41 6ebe 18c4 2cbc
00000180: 755c 4d3d 8f7e 34be 512c d93c 7377 bdbd
00000190: 805a a4bd 3a6b 01be 148a 00be 2e39 813e
000001a0: 9323 973d 7a36 643e 415d a83d e0a1 bc3c
000001b0: 2bb0 4a3d 5625 533c 94a9 873e 27bf c03c
000001c0: 9326 a1bc 1a60 a4bd 74fd 443e a25d 0b3e
000001d0: 2190 b23c 778e c23d 85e6 c1bd b210 a0bc
000001e0: 039c 17be 752a 9a3c c527 52bd 43b3 10be
000001f0: 6e60 f6bb 2026 0f3e f662 4dbe 23c6 123e
00000200: b4ad 89bb 2a16 1abd 6d64 4bbd 6190 ba3d
00000210: 98d6 47be d899 dd3c 8617 aabd c506 4bbd
00000220: cd51 22be 4776 1fbc fdc0 ec3c 442b 203d
00000230: a49b 05be 00dc e5bd b305 eb3d 4e86 61bd
00000240: 1373 10be 74bd b93c f991 c7bc 1f3c 933d
00000250: 3e8a 0abe c285 77bd 0b17 d0bd b19f 65bd
00000260: 2962 903d e9a4 b43d 141e acbc 2348 853e
00000270: 2e52 913d b3ad a13d 6df3 d9bc ddac f2bb
00000280: 376d 97bd 96da 813d d893 0e3b 73f6 45bb
00000290: 867c a33b 7b8f 20be 265a 34bd 1b81 f93d
000002a0: 6a24 113e c99f 86bd d62f 393d 43ef c63b
000002b0: 889c 9a3d bcd7 57be 8b3f 873b 9072 183d
000002c0: ed08 043d a771 3dbe 1f5a acbd 4ea6 68bd
000002d0: ff3d b7bc 80d6 25be 2c3f 5d3e b0f2 c93d
000002e0: 2fa4 663d 1eb8 bc3d e6fc 1ebe 2215 973d
000002f0: e6aa 053e d12b e8bd 8a4e 413e 5450 81bc
00000300: 33af 44bd 00dd fabd a48b b43d dd90 53be
00000310: 3f9f a6bd 3b44 873c d1a3 e03d f37b b5bd
00000320: 3421 713d a0bf 83bd e55b cf3d 0aa3 efbd
00000330: 67b0 ed3d 80e0 19bd 2e79 893b 0944 ce3c
00000340: 2878 cebd f957 963d a7f5 d73c 9ebc 7dbd
00000350: a427 513d 9d77 31bd 75b7 843c 6a73 a7bd
00000360: f452 933d fb8f 9abc 7d57 e2bc 8e39 033d
00000370: 9533 0fbd 6fbf d03d 7a7d 153d c943 62be
00000380: 46e1 4d3e 4e05 f3bd df38 4e3e 7b7f 583c
00000390: 0424 d33c 90c8 3f3e ab85 403e 88ad 40be
000003a0: 60b2 02be 6332 4b3d 3753 c93c 78ff c83d
000003b0: 0886 053c 7fe4 a73d b6f3 823d e6ee e53c
000003c0: 96c2 eebd d477 d8bd 4699 a63d 63f9 f03d
000003d0: d410 8ebd 6aad 1e3d 4a6e 5bbd ba60 323e
000003e0: f9e2 8c3d 4953 f3bd 447b 7ebd afca 17be
000003f0: ec11 253b d6a0 4f3e f1ed 82bd 05d9 883d

l2.bias f4 [100]
0.050511055 -0.013692974 0.034176745 0.11638447 0.12253154 0.069770105 0.27128738 0.20131907
0.08545264 0.1742226 -0.005014161 0.16421531 0.05533227 -0.14705159 0.067968234 0.2050216
0.0019990576 0.1107144 0.03259712 0.14503618 0.29789206 -0.10347111 0.091910675 0.10589735
0.027162606 -0.22740461 0.29460478 0.002221335 -0.33895501 0.017405907 -0.009711462 0.042440593
-0.08442833 -0.0027655207 -0.02877411 -0.042987812 -0.10388943 -0.036665212 -0.092885636 -0.015668249
-0.10879566 -0.027231677 -0.107350774 -0.19509302 0.16048458 0.14052325 -0.08663969 0.28251627
-0.131228 0.15542091 -0.20830654 0.06826892 0.17140745 -0.14433233 0.07888284 -0.003859873
-0.073078595 -0.04860849 -0.033137087 0.04675172 0.063742206 0.17314386 -0.031032825 -0.12307001
0.15532134 -0.05437864 -0.027137049 -0.14984427 0.057656664 -0.045740582 0.20347907 0.06546589
-0.072020054 -0.14050588 -0.066739574 -0.1534216 -0.016032128 0.27764875 0.008180718 0.08922495
0.3136223 0.021614002 -0.112438664 0.05052761 -0.022633674 -0.08367558 0.13441595 -0.08234779
-0.16278344 0.019590402 -0.03857467 0.03287716 0.07131866 -0.0077167396 -0.001880113 -0.08221284
0.25841865 0.026393272 0.09442086 -0.027459873
00000000: aee4 4e3d 7f58 60bc eafc 0b3d fb5a ee3d
00000010: d1f1 fa3d a1e3 8e3d 2ee6 8a3e 9626 4e3e
00000020: cb01 af3d 6967 323e d54d a4bb 0f28 283e
00000030: 17a4 623d b194 16be ee32 8b3d 2ff1 513e
00000040: 9f02 033b 3bbe e23d 8f84 053d 5d84 143e
00000050: 4f85 983e a9e8 d3bd aa3b bc3d b6e0 d83d
00000060: 1d84 de3c c1dc 68be 70d6 963e d193 113b
00000070: 838b adbe d596 8e3c d31c 1fbc 30d6 2d3d
00000080: c3e8 acbd bd3d 35bb afb7 ebbc fd13 30bd
00000090: fbc3 d4bd 432e 16bd d33a bebd b35a 80bc
000000a0: 42d0 debd f714 dfbc b9da dbbd 77c6 47be
000000b0: 1256 243e 54e5 0f3e 2670 b1bd f9a5 903e
000000c0: a260 06be a926 1f3e 4f4e 55be 93d0 8b3d
000000d0: 6f85 2f3e dbcb 13be 548d a13d ecf5 7cbb
000000e0: 3baa 95bd b219 47bd c1ba 07bd bb7e 3f3d
000000f0: 468b 823d a04c 313e 8d38 febc 210c fcbd
00000100: 8f0c 1f3e 23bc 5ebd 844e debc c770 19be
00000110: 6529 6c3d 7a5a 3bbd d15c 503e fb12 863d
00000120: 407f 93bd c6e0 0fbe c2ae 88bd 8d1a 1dbe
00000130: cf55 83bc fa27 8e3e 6b08 063c 92bb b63d
00000140: 1a93 a03e d90f b13c 3e46 e6bd 0af6 4e3d
00000150: 416a b9bc 1a5e abbd 56a4 093e f5a5 a8bd
00000160: b4b0 26be 0d7c a03c 7900 1ebd 33aa 063d
00000170: 850f 923d b4dc fcbb 206e f6ba 355f a8bd
00000180: 734f 843e b436 d83c b95f c13d 87f3 e0bc

l3.weight f4 [18, 100]
0.031449005 0.113353014 0.056143146 -0.02898467 0.00073768094 0.06681124 0.08149935 -0.087053515
-0.18776675 0.32429004 0.08758153 0.048766855 0.15973592 0.01164289 0.012951104 0.07592973
0.0015729655 0.032884613 0.041958515 -0.04386912 0.060108274 0.2493332 0.22874011 0.11932367
-0.08720691 0.15485768 -0.19354519 0.070709266 0.09220636 0.11332422 -0.18773127 0.028191566
0.16376863 -0.051762197 -0.27653885 -0.1270868 0.17390844 0.13776395 -0.080572456 0.19547035
-0.005978874 -0.14936125 0.09004575 -0.3362734 -0.09321524 -0.10269455 -0.19131516 -0.13553296
-0.034720905 0.0887142 0.032433856 0.04626312 0.24566115 -0.1893549 0.08676625 0.07383821
-0.30494004 0.21250868 -0.18765269 0.04223274 -0.050159235 -0.013007033 0.20262901 -0.12205363
-0.16814621 0.05841366 0.08760764 -0.018690906 -0.04954495 0.24656677 0.010992728 -0.11657106
-0.059103113 -0.08159109 -0.08203768 -0.16867957 0.07800034 -0.21070722 -0.02280894 -0.017164484
0.10951176 0.14768754 -0.015531688 0.041582458 -0.07284221 0.10242831 0.022768129 0.10879927
0.15418106 0.013102079 0.042256832 -0.0011567494 0.039887574 0.120265715 -0.039404973 0.2213172
-0.048809182 -0.039265208 0.117711544 0.100875914 0.13928021 -0.05685941 0.23214053 0.12477366
0.17883088 -0.17498618 -0.1965454 -0.003998612 -0.17708921 0.19648439 0.02265479 -0.13900407
0.22915994 -0.06562956 0.051132947 -0.081814334 -0.040411975 0.15780008 0.39827213 -0.19280672
-0.32383773 -0.08393899 -0.00909576 0.2387178 0.17811173 0.042832397 -0.07684742 0.37200695
-0.07852238 0.25138596 -0.17194928 0.011247973 -0.071742214 -0.121818595 0.19004673 0.2512449
-0.018869938 -0.013679614 0.0035111853 0.14185065 -0.16687049 -0.0108787455 0.051990096 -0.021881146
0.19858809 -0.10468214 0.096876994 -0.17533636 -0.031015698 -0.11277396 0.01350128 -0.07431661
0.022688633 0.027604287 0.0942781 0.0052398853 -0.22678536 0.060806215 -0.043880112 0.23340663
-0.20089975 0.11237406 -0.039284643 -0.0071325577 0.06281257 -0.014822654 -0.12851577 -0.022229984
-0.021003112 0.17034878 0.14346077 0.06501786 0.05201265 0.13262336 -0.027550338 0.17342281
-0.086091995 -0.12895764 -0.23398843 0.20305446 0.24639168 0.1027923 0.35019487 -0.020035395
-0.030718317 0.031024354 -0.19714585 -0.0039897854 0.21173416 0.024010677 0.13751148 -0.03688466
0.08941958 0.18133439 -0.17538369 0.18579987 -0.34227318 0.07910273 -0.25204524 0.1331429
-0.14047188 -0.07599571 -0.12903018 0.024522921 -0.15870911 -0.1310977 -0.08523221 0.15139991
-0.018585186 0.34855533 0.01399749 -0.1679284 -0.15036662 0.07193719 0.13374737 0.23740375
0.023101542 0.18258116 0.04436316 -0.07518428 0.039058447 0.19316332 -0.1314016 -0.23540452
0.098505475 -0.11554873 -0.09410078 -0.12788908 -0.074341044 -0.088760175 0.04281962 0.09501078
-0.1117001 -0.055233978 0.22187985 -0.09609309 -0.2021865 0.031273715 0.049088575 0.0031833085
-0.013830212 -0.11894129 -0.09562637 -0.112954326 0.05828785 -0.068591595 0.047181476 -0.04930283
-0.07880931 0.12708366 0.026007418 0.17609203 0.28982726 -0.18036179 -0.053077936 0.021086138
00000000: acd0 003d a025 e83d 5bf6 653d 4271 edbc
00000010: ee60 413a 55d4 883d 22e9 a63d 1d49 b2bd
00000020: ed45 40be 5809 a63e f25d b33d c1bf 473d
00000030: d091 233e d2c1 3e3c de30 543c 0c81 9b3d
00000040: f72b ce3a 04b2 063d b1dc 2b3d 1bb0 33bd
00000050: 1834 763d 3451 7f3e d93a 6a3e f85f f43d
00000060: 8999 b2bd 0393 1e3e b630 46be 05d0 903d
00000070: b0d6 bc3d 8716 e83d a03c 40be 00f2 e63c
00000080: f7b2 273e 9904 54bd 8096 8dbe 0b23 02be
00000090: 0e15 323e fe11 0d3e 2c03 a5bd 6129 483e
000000a0: 6eea c3bb 28f2 18be e869 b83d 072c acbe
000000b0: a2e7 bebd 8551 d2bd 1fe8 43be 27c9 0abe
000000c0: 8237 0ebd caaf b53d 5dd9 043d 667e 3d3d
000000d0: 998e 7b3e 40e6 41be 81b2 b13d 7d38 973d
000000e0: 1a21 9cbe e09b 593e 0728 40be 3dfc 2c3d
000000f0: c573 4dbd 731b 55bc fb7d 4f3e 41f7 f9bd
00000100: 852e 2cbe 2943 6f3d a26b b33d ac1d 99bc
00000110: a5ef 4abd 007c 7c3e d81a 343c cfbc eebd
00000120: 1b16 72bd 3b19 a7bd 5f03 a8bd 56ba 2cbe
00000130: a4be 9f3d a2c3 57be d0d9 babc 889c 8cbc
00000140: b447 e03d 673b 173e 9f78 7ebc 5e52 2a3d
00000150: 4c2e 95bd efc5 d13d 3a84 ba3c 27d2 de3d
00000160: a4e1 1d3e 1aaa 563c 8015 2d3d 129e 97ba
00000170: 2761 233d df4d f63d 1c67 21bd faa0 623e
00000180: 23ec 47bd 8ed4 20bd c012 f13d 0898 ce3d
00000190: 799f 0e3e 6ae5 68bd 3fb6 6d3e 5589 ff3d
000001a0: 711f 373e 942f 33be 3343 49be ca06 83bb
000001b0: e056 35be 3433 493e 8a96 b93c 1557 0ebe
000001c0: e7a8 6a3e ca68 86bd c870 513d 468e a7bd
000001d0: 0787 25bd 5896 213e 53ea cb3e 206f 45be
000001e0: 0fce a5be 35e8 abbd 6206 15bc 7072 743e
000001f0: ec62 363e 0671 2f3d 2e62 9dbd b277 be3e
00000200: 57d0 a0bd a9b5 803e 7913 30be 6b49 383c
00000210: 95ed 92bd 077c f9bd 9c9b 423e 2ca3 803e
00000220: 2195 9abc 7620 60bc ea1b 663b 4c41 113e
00000230: 19e0 2abe c43c 32bc 91f3 543d 1740 b3bc
00000240: ad5a 4b3e 9763 d6bd 7267 c63d 608b 33be
00000250: a214 febc 09f6 e6bd 7934 5d3c 4f33 98bd
00000260: 83dd b93c 6322 e23c e014 c13d 58b3 ab3b
00000270: 6c3a 68be f00f 793d a2bb 33bd 2602 6f3e
00000280: aab8 4dbe 5f24 e63d efe8 20bd 3bb8 e9bb
00000290: e0a3 803d b8da 72bc a399 03be a81b b6bc
000002a0: b80e acbc e96f 2e3e 61e7 123e 1528 853d
000002b0: 370b 553d 6bce 073e 3fb1 e1bc c095 313e
000002c0: 0051 b0bd 790d 04be aa9a 6fbe 82ed 4f3e
000002d0: 1a4e 7c3e c584 d23d be4c b33e 4521 a4bc
000002e0: fba4 fbbc c926 fe3c 9ae0 49be bfbc 82bb
000002f0: d7d0 583e 0ab2 c43c cfcf 0c3e 5f14 17bd
00000300: 9d21 b73d b9af 393e c897 33be 5242 3e3e
00000310: 6e3e afbe 9d00 a23d 130c 81be 9d56 083e
00000320: dcd7 0fbe a4a3 9bbd 7d20 04be 4be4 c83c
00000330: a484 22be 7a3e 06be 3a8e aebd 9408 1b3e
00000340: f63f 98bc d875 b23e ba55 653c 6cf5 2bbe
00000350: b5f9 19be ce53 933d 12f5 083e f819 733e
00000360: 723f bd3c 8ef6 3a3e 25b6 353d 37fa 99bd
00000370: c0fb 1f3d 9bcc 453e 248e 06be e20d 71be
00000380: 3dbd c93d d0a4 ecbd e9b7 c0bd 5bf5 02be
00000390: 1e40 98bd e5c7 b5bd a063 2f3d 0395 c23d
000003a0: 06c3 e4bd 063d 62bd 7934 633e 74cc c4bd
000003b0: fa09 4fbe de18 003d 1a11 493d 0e9f 503b
000003c0: 1d98 62bc 7e97 f3bd c2d7 c3bd 9954 e7bd
000003d0: 3ebf 6e3d c079 8cbd 5d41 413d c4f1 49bd
000003e0: c766 a1bd 3822 023e 820d d53c 7851 343e
000003f0: 3d64 943e c3b0 38be 4068 59bd d6bc ac3c

l3.bias f4 [18]
0.15900905 -0.12691255 -0.45399785 -0.08275427 -0.3961172 -0.22886759 0.08442763 0.033216756
0.1188531 0.1750795 0.06862355 0.25609356 -0.48028502 -0.052906327 0.31270635 -0.40202162
-0.04242758 -0.22368331
00000000: 45d3 223e 5df5 01be 6872 e8be 127b a9bd
00000010: e0cf cabe 445c 6abe 65e8 ac3d 4b0e 083d
00000020: 4169 f33d 0a48 333e 818a 8c3d b21e 833e
00000030: ebe7 f5be 4eb4 58bd 0c1b a03e c7d5 cdbe
00000040: 8bc8 2dbd 3d0d 65be
