LARA/weight/g_1.pt (torch, 87399 bytes, 7 tensors)

G_attr_matrix.weight f4 [36, 5]
00000000: ca28 6c3e 2e19 0f3f 3ff3 f53d ef86 09be
00000010: 9e70 01bf d020 793e 37e0 6dbe 0294 64be
00000020: 1652 853d f883 9abe 0e66 7b3e e5a5 38be
00000030: 6959 a9be 0439 9dbc 674e 403e 8799 7fbe
00000040: 33b6 863d 6125 67bd 5b8f e1bd 920a 1dbe
00000050: 4671 313e bada f3bc 5ed8 0ebe e677 643e
00000060: 9cdc 583d 3d96 ab3d 7338 733e 77b7 b4bd
00000070: 6aae 923e 1090 19bd 1347 97be 3ed3 b53d
00000080: 72f5 46be fc40 5fbe 244f 56be 1bce 97bd
00000090: 953d bc3e 7828 d23b 8e23 fe3d f59a 9ebd
000000a0: a7a3 60be 6283 2ebe 51dc bcbe b9ad 143e
000000b0: 4284 18be 7413 88be 2436 2cbf ad74 2cbe
000000c0: bcba 5e3d 2772 c2be 77cf 933e 0d3b a2be
000000d0: aed0 913e 37ca 803e 664a 623e 071d 41bc
000000e0: 5076 c23e 3adf f9bb 84dd 963e 4ae1 333e
000000f0: 3f37 77bd bd56 8abe f9a7 a93e 26a4 cdbd
00000100: 2586 d4bd f111 153a 047b 0ebe f25a 503e
00000110: 8380 90be 15b2 82bd 5760 103f 8043 3e3e
00000120: 91d2 fa3d fbbe 603e e52e 04bd ac80 7d3e
00000130: f795 76be ac99 00be 5da8 853c ff17 45bd
00000140: 9756 a7bd 3381 033e ccaf 07bd ab02 f53e
00000150: aa7b 69bd ec65 803e f063 60be 9f9d 96bc
00000160: ac85 32be cbbf 5e3e 954a 793e 3f09 e43d
00000170: 06d1 663e b37a b53d f2ef 6a3e 72b4 50bd
00000180: 3567 183e e8a2 2e3c d05b d33d 21bc 133c
00000190: 4efc fbbe 5389 663e 36a0 19bc d2fd 213e
000001a0: 7552 4ebe 76b6 69be 0bf4 423d d59e 12bd
000001b0: 2114 67be e3b2 1abc 3742 723e 7dce 093d
000001c0: 9873 06bf 41ab 423e 3af4 aabe 4f13 4c3e
000001d0: f9a6 8a3e e91a 47be 52f1 303d 121a a9bd
000001e0: e80b 213e 05e4 e33c f51e 823e 87ea 7a3d
000001f0: 0131 aabc eeb9 4fbe fa26 81be c2dc a0bd
00000200: ef3a a3bd 6c53 933d cc19 a6bc e7f9 31be
00000210: c756 613e 3840 90be 86cd 65bd 1b08 80be
00000220: ffe9 c63c e556 51bd 61cd a73d 3f57 393e
00000230: c19e 53be 4756 5bbe 58b8 92bd fd15 773d
00000240: eac0 e9bc bcf6 83be c0e1 1fbe 6570 da3a
00000250: 5b9e eebb 196b cd3e 381b 993e b792 14be
00000260: 1869 aa3e fe8b 85bd cf33 f4bd 72ab 703e
00000270: 2657 873e 4446 36bc fda5 2bbe f9a9 523d
00000280: b122 0c3e 3e05 11be 2ce3 c9be 9243 f83d
00000290: 8cad 523e bf67 36be 1e0e c33e bcea 73be
000002a0: 1c76 003e bfd7 7e3c 6357 36be 692a 5b3c
000002b0: 6c33 673d 323d f43b 081c 51be 26b6 94be
000002c0: ddd2 c63d c8d8 c9be 4529 c73e 565f 593e
0.23062435 0.55897796 0.12009286 -0.1343038 -0.50562465 0.24328923 -0.23230062 -0.22322085
0.06509797 -0.3017881 0.2455065 -0.18032034 -0.33076027 -0.019192226 0.18779908 -0.2496091
0.065777205 -0.05643213 -0.11013671 -0.15336064 0.17328367 -0.029767383 -0.13949725 0.22311363
0.052944764 0.08378265 0.23752002 -0.08824056 0.28648692 -0.037490904 -0.29546413 0.08878182
-0.19429567 -0.21802133 -0.20928627 -0.074123584 0.36765733 0.0064135157 0.12409125 -0.077443995
-0.21937428 -0.17042306 -0.36886838 0.14519395 -0.14894202 -0.26577342 -0.6727011 -0.16841383
0.054377303 -0.37977716 0.2886922 -0.31685677 0.28479522 0.25154278 0.22098693 -0.011786706
0.3798089 -0.0076254876 0.29465878 0.1756641 -0.06035542 -0.270193 0.33135965 -0.100410745
-0.103771485 0.00056865724 -0.13914114 0.20347193 -0.28223047 -0.06381623 0.56397 0.18580437
0.122471936 0.21947853 -0.032271285 0.24756116 -0.24080645 -0.12558621 0.016315633 -0.048118588
-0.081708126 0.12842254 -0.033126637 0.47853598 -0.0570027 0.2507776 -0.21913123 -0.018385706
-0.17433804 0.2175285 0.24344857 0.11134576 0.22540674 0.08861294 0.22943094 -0.050953336
0.1488312 0.010658957 0.10320246 0.009017021 -0.4921593 0.22513323 -0.009376576 0.15819481
-0.20148642 -0.2282351 0.04759602 -0.035796005 -0.22566272 -0.009442064 0.23658071 0.03364419
-0.5252013 0.1901064 -0.33389455 0.1992924 0.27080515 -0.19443859 0.04319889 -0.08256926
0.15727198 0.02781869 0.25414243 0.06125882 -0.02077532 -0.2028577 -0.2522505 -0.07854606
-0.07970225 0.07193646 -0.020275973 -0.17380486 0.22005759 -0.28173995 -0.056104206 -0.25006184
0.0242815 -0.05110826 0.0819347 0.18099688 -0.20666029 -0.21419631 -0.07164067 0.060323704
-0.028534371 -0.2577418 -0.1561346 0.0016665576 -0.007282061 0.40120772 0.2990358 -0.14509092
0.33283305 -0.06520842 -0.11923944 0.23502901 0.26433676 -0.011125151 -0.16762538 0.05143163
0.13685109 -0.14162156 -0.3943113 0.12122263 0.20574015 -0.17813013 0.38096708 -0.23820013
0.12545055 0.015554368 -0.17806773 0.013376811 0.056445524 0.007453584 -0.2042085 -0.29045218
0.09708188 -0.39423203 0.38898674 0.21227774

l1.weight f4 [100, 90]
00000000: 2188 263e 8e14 82bc 9215 443d bd93 e7bc
00000010: 2549 923d 9caf f6bd 4d54 763d bf11 7d3e
00000020: a70d 6dbd 0cd5 6d3d dff9 c53c 9f67 e93d
00000030: 5784 e1bd 56f1 94bd 295e bc3c 1fa8 25be
00000040: 2720 7f3d fb56 0d3e cffa 9d3c d37c 123d
00000050: 209d f5bd a0e1 d0bc 89b5 3d3e 9e04 1f3d
00000060: bec3 2cbe e710 06bc f165 03bd 8886 7b3d
00000070: 4164 e33c d6ea 5ebd 8341 4f3e d659 0e3e
00000080: a2f0 2c3b 71a5 f33d ef75 513d 5f75 523c
00000090: 6d9a 4d3e 163c c1bd 72a1 a03d 1df8 6f3d
000000a0: ab23 3c3d c272 243c efe3 4abe cde2 a33c
000000b0: 4f4c 543e cafe aa3d bf5e b4bd 89fc 203d
000000c0: f62b ba3c bafc 9d3d 6ca0 1ebd 00a6 f33d
000000d0: 3a5b 803a e097 293d 8672 803d e404 d03c
000000e0: af7f 863c 8b6d 1e3e 7727 83bd bc52 2c3d
000000f0: 4847 10be 17cc 3d3d f8e9 ea3c 1ee5 853d
00000100: bab5 9b3d c420 66bc b47f 85bc 3643 823d
00000110: 6630 0abd 7118 9b3b cc3b 8d3d e006 19be
00000120: fbc8 fc3c 6904 f2bb 7972 a4bd 16c1 acbc
00000130: db85 023e 91c6 30bd 80b1 55bd d86a 8dbc
00000140: 265c cf3c 8b6c b23d c201 833e 74af 7bbe
00000150: 7461 34bc 09ce 43be a4b8 353d 6519 30bc
00000160: 2b4c 88bd 19cf bbbd a92a 093e 9ff6 96bd
00000170: b4da 943d e0f7 9f3d ec62 a2bd 6b29 87bb
00000180: 46f0 f4bd 56d3 c83c 1c31 98bd 653a 0bbe
00000190: 2544 953d e699 4d3e 51f2 dcbd c723 81bd
000001a0: a542 97bd 310a 6abd d221 b4bd dfb3 803c
000001b0: 22ad 18be 4881 7e3d b283 d23c 6e48 1f3e
000001c0: b4a1 033e 7309 de3d fe9b 7f3e 5ed2 23bd
000001d0: 04d1 e6bd 77a4 8fbd b39c b9bd 3404 d03d
000001e0: d95d 8c3b db29 88bb 8943 82bd 4bf4 94bd
000001f0: 3ff2 5f3c d7a0 1abc 4f69 0dbd afcf f9bc
00000200: 633d 45be 0872 77bd d464 86bb 4ae9 8dbd
00000210: 4f87 67bd 64c5 633d cc82 133e 716b bc3c
00000220: 0dc0 2ebc fa59 993c d137 c03d 4fd0 e03c
00000230: 9c2b ae3d a7a7 933c 251b ab3d 5257 00be
00000240: 8c32 a8be a446 aabd 5165 333d 9f2d 803e
00000250: cce3 ff3c c2cd cb3d e35e 2bbd f6e0 973d
00000260: a20d 763d 237a a33c 20f3 363d 7ee6 183e
00000270: 71e8 19be e542 f0bc 34c5 c73d 825a fd3d
00000280: d20f e93d 6cdc 81bd 4d4c 1cbe 4748 3cbe
00000290: 387d 793d 45e2 50bd c816 163d 99b1 86bd
000002a0: 1a2c 883d 1f24 fcbd e41b 0dbe b644 0bb8
000002b0: 8003 633e 0271 00bd e554 aa3d 2ddd c1bc
000002c0: 7ca9 62bd f66f a8be 0507 ed3d b6af bc3d
000002d0: 807b 713e d35e d2bd 881c 093e 644e bd3d
000002e0: 61d4 043e 4484 58be e41e 173d fa22 e8bd
000002f0: 58ec ebbb f4f8 bd3d aca0 103d 9272 01bd
00000300: 0f97 fc3c 1d4e df3c ee79 36bd 62a4 75be
00000310: 7556 abbd d066 afbc 8084 b73d edb3 e8ba
00000320: 318e 03bd e796 4fbe a8f4 50bd fb4a 3b3e
00000330: e6cc 1bbb ad48 f93d afe5 a6bd 47d6 46be
00000340: b344 8f3c 16bb 6abc 57f5 c7bd 1552 023e
00000350: eb56 903d 5e22 d1bc 848a 17be 59d2 46bd
00000360: cdce bc3d a8bf cb3d 2e35 a63d d33c b03c
00000370: 3704 e5bc 7881 af3d 1145 5fbc 6cbc 4f3d
00000380: 2ac2 13be 3e08 193e 150d e53c 6cf9 a23d
00000390: 891d 2bbe 2cfb f6bc 8f2b 733d 7196 b7bc
000003a0: 1305 843d 8d5d ddbb b84e 21be dac0 e73d
000003b0: 0449 c33d 0167 353d 611a f73d b620 8dbd
000003c0: 8814 ccbd c78e fabc ce43 4ebe 39fd 003e
000003d0: 338a 02be fad1 f43b 2c1a b03d 1c89 51bd
000003e0: cfb9 16be 32ee 253d 097d 0bbe 4bfc 0fbd
000003f0: cf6b 94bc 970b fa3d 5f46 16bc 7ead 243b
0.16262867 -0.015878942 0.047872134 -0.02826869 0.071428575 -0.120452136 0.06013899 0.24713801
-0.057874348 0.058064505 0.024167 0.11396717 -0.1101157 -0.07272594 0.022994118 -0.16177414
0.062286522 0.13802712 0.019284634 0.035763573 -0.1199286 -0.025498211 0.18526281 0.038822763
-0.16871545 -0.008182741 -0.03207964 0.061407596 0.027757766 -0.054423176 0.20239834 0.13901457
0.0026388546 0.1189679 0.05113786 0.012845366 0.2007844 -0.094352886 0.07843293 0.05858623
0.045932453 0.010037126 -0.19813512 0.020005608 0.20732234 0.083493784 -0.08807134 0.039303336
0.02272604 0.077142194 -0.03872721 0.11896896 0.0009792813 0.041404605 0.062718436 0.025392957
0.016418306 0.15471475 -0.06404012 0.04207109 -0.14089692 0.046337213 0.028676018 0.06537841
0.07603021 -0.014045898 -0.016296245 0.06360476 -0.033737563 0.0047331383 0.06896171 -0.14944029
0.030857554 -0.0073857796 -0.080296464 -0.021088164 0.12746374 -0.043158118 -0.05217123 -0.017262861
0.025312494 0.08712109 0.2558728 -0.24578649 -0.011009563 -0.19121565 0.04436554 -0.010748242
-0.06655153 -0.0917036 0.1339518 -0.07371258 0.07268277 0.0781095 -0.07929024 -0.0041248105
-0.11959891 0.024514835 -0.07431242 -0.13596494 0.07288388 0.20078239 -0.10788406 -0.06305652
-0.07385758 -0.057138626 -0.08795513 0.01571077 -0.14909795 0.06213501 0.025697563 0.15554973
0.12854654 0.10841646 0.2496185 -0.039995544 -0.11270335 -0.07013791 -0.09063091 0.10157052
0.0042836484 -0.00415538 -0.063605376 -0.07273158 0.013668596 -0.009437761 -0.03452426 -0.030494539
-0.19261698 -0.060411483 -0.004101375 -0.06929262 -0.056525525 0.05560817 0.14405364 0.02300045
-0.010665906 0.018719662 0.09385646 0.02744308 0.085044116 0.018024279 0.08354787 -0.1253331
-0.32851064 -0.08314255 0.043797795 0.25034806 0.031236552 0.099513546 -0.041838538 0.07415955
0.060071595 0.0199557 0.044665456 0.14931676 -0.15030076 -0.029328773 0.097544104 0.123707786
0.113799706 -0.0634087 -0.15263481 -0.18386947 0.060910434 -0.050997037 0.03664282 -0.06576843
0.06649037 -0.12311577 -0.1378017 -3.3204175e-05 0.22169304 -0.031357773 0.083169736 -0.023665035
-0.055337414 -0.3289792 0.115736045 0.09213202 0.23582268 -0.102719925 0.1338979 0.092434675
0.12971641 -0.21144205 0.036894694 -0.11334796 -0.007199805 0.09276 0.03530948 -0.031603403
0.03083375 0.027258927 -0.044549875 -0.23988488 -0.083661 -0.02141133 0.08960819 -0.0017753817
-0.032118026 -0.20272408 -0.051014572 0.18290322 -0.0023773252 0.12172065 -0.081492774 -0.19417678
0.017488813 -0.014326831 -0.09763592 0.12726624 0.07047828 -0.025529083 -0.14798933 -0.048540447
0.092191316 0.09948665 0.08115612 0.021513378 -0.027956111 0.08569616 -0.013627307 0.050716802
-0.14429536 0.1494455 0.02796034 0.0795773 -0.16710486 -0.030149065 0.059367713 -0.022410603
0.0644628 -0.006755537 -0.15752685 0.113160804 0.09535411 0.044287685 0.12065578 -0.06891005
-0.099648535 -0.03058566 -0.20143053 0.12596597 -0.12748031 0.00747132 0.08598742 -0.05115615
-0.14719318 0.040510364 -0.13621916 -0.035152715 -0.018117813 0.12209242 -0.009172051 0.0025127823

l1.bias f4 [100]
00000000: 505b 9c3d f148 1f3e b462 e3bd 27cb 26bd
00000010: 037c 053e a60d f33d fe6e ad3d 0d7c 4b3e
00000020: 09a6 023c 5a4b debd 8720 92bc 8e7f 07bf
00000030: d423 b73d ff66 70be fbd9 c2bd e3f0 1e3e
00000040: ad20 1e3e 6bce 163e af7a 4fbe 10d3 dbbc
00000050: 384f 22be 915c a93e 094e 2f3e 0c43 103e
00000060: ff83 91be a421 b8bd 6a9a 5dbe 0c7f bcbd
00000070: dab8 5d3e 2e14 8fbe 6823 9fbd 0d49 79bd
00000080: 9e3d a7bd d18b 613e 57f9 143d 7d6a 30bd
00000090: a3fe ee3d c3b1 313e cace e83c cec1 2f3d
000000a0: 8356 19be 1485 34be 1085 bd3d 1522 273e
000000b0: 3333 69bd 4269 e83d 729b 9dbe 6755 e03d
000000c0: 1c1c 023e 7eff b33d 97a7 a5bd 639c 603e
000000d0: 8b10 e4bd d2d7 34be 4aa3 873d 8ea8 53bd
000000e0: 3dbd 14be 0aaf 063e 7e0d 85bc 8f8e 3a3e
000000f0: 231c bd3d 37fb 8ebb a637 18be 522f d4bd
00000100: d042 ffbd b570 31bd 3703 a03c 8b60 b3bd
00000110: cb29 603d 3015 d83d 87d2 4c3d 5088 1b3d
00000120: e853 4bbe f5f7 c5bc 038d 1ebe 178a e23c
00000130: e8e9 d23d 5b3a 30be 808b 0bbe 828f 49be
00000140: 866c 04bd 8c55 a23c 7042 be3e 4f0d 603d
00000150: a66b 603e 370b 163e 37e0 69be 26da 5b3e
00000160: 1372 1b3e 5c75 b23c 33bc 30be 8ced 2e3d
00000170: b1f1 84be af40 003d 0f26 a93d 8958 443d
00000180: 0020 863c 3a75 1ebd e322 24bc a4c4 133e
0.07634604 0.15555169 -0.111028105 -0.040721085 0.13035588 0.118678376 0.08468436 0.1987154
0.007974156 -0.10854216 -0.017837776 -0.5292901 0.089423805 -0.2347679 -0.09514233 0.15521578
0.15442152 0.1472718 -0.20261644 -0.02683404 -0.15850532 0.33078435 0.17119612 0.14088076
-0.28421018 -0.089907914 -0.21640936 -0.0920392 0.21652547 -0.27945083 -0.07770425 -0.060860682
-0.081660494 0.22025992 0.0363706 -0.043070305 0.11669662 0.17352967 0.028418917 0.042909436
-0.14974408 -0.1762889 0.09253895 0.16321595 -0.056933593 0.11348201 -0.30782658 0.10953789
0.12706035 0.08788966 -0.08088606 0.21934657 -0.11135968 -0.17660454 0.06622942 -0.05167442
-0.14525314 0.1315271 -0.016241785 0.18218444 0.09233882 -0.0043634432 -0.14864978 -0.10360588
-0.12463915 -0.043320376 0.019532783 -0.087586485 0.054727357 0.10550916 0.050005462 0.037971795
-0.19856226 -0.024166087 -0.15483479 0.027653737 0.1029852 -0.17209761 -0.13627434 -0.1968365
-0.03233006 0.019816183 0.37160063 0.054700192 0.21916065 0.14652716 -0.22839437 0.21469936
0.15180235 0.021784477 -0.17259292 0.04270701 -0.25965646 0.031311687 0.08259212 0.047935996
0.01637268 -0.038686015 -0.010018083 0.14430481

l2.weight f4 [100, 100]
00000000: cfb5 a3bd ee9a d73c c12a 583d d5a0 e1bd
00000010: 8c32 423e 414e 18bd 5d13 0bbe e7cb 0a3e
00000020: 4011 4d3d 2b44 27bd 50fb 7a3c cc43 a53b
00000030: c874 4cbe de4e a63d 18ec 613d 6253 0e3d
00000040: 49f1 3a3c 8087 953b e3bb 46bd a863 853d
00000050: f6c3 62bc 2725 d63d 4f52 573d 887c a7be
00000060: 6ebd 6d3d 2c16 1d3e 60f1 1cbd 052f ffbc
00000070: 4866 893d 6db8 c23d bdf7 963d 21ec a23c
00000080: 4d7a 99be 44b9 26bb aa0b dc3d 39c6 b53d
00000090: 37d7 9cbd 2858 0a3c 18ca 26bd 0f20 ffbd
000000a0: 43fc b63d 6507 3bbe 4dde 31be 7db3 80bc
000000b0: 0619 e0bc 3bb5 55be 6887 0fbd 333f 0e3e
000000c0: 03f5 8ebc 1f5d 513d e89d 5ebe 0fac 31be
000000d0: d9fa 83bc a222 0a3d da29 823a 1d0c 0fbe
000000e0: 97f6 bc3a d8f9 dabc 102c 7cbc 113a 943d
000000f0: 0cd3 a6bd 060d 22be 879b 22be 3e83 a13d
00000100: be36 163e cfa1 10bd 5a36 5bbd b298 67be
00000110: c015 f23d 162f c43c f7f7 89bc 6c6b d23c
00000120: 295d 743d 4229 bc3c f0cb fb3c fa8f 523b
00000130: 4a6c 3abd 1f20 6a3d f403 153e 3d89 a53d
00000140: 7288 553c 768e 98bd 13dc aa3d 0830 4ebc
00000150: d253 af3d 251d 17bd 8c3d fdbd c87d 7fbc
00000160: 147a 0ebe fb46 40bd c663 673d 540d 153d
00000170: 2619 4b3d 4298 23bd 9ae0 c3bc fb18 abbd
00000180: 6a89 fb3c 9cab 503d 9e64 10be 0065 41be
00000190: 2bee 823d d482 47be 6ed5 9fbd 44bb 6e3d
000001a0: 3031 d7bd b228 66bd c689 9ebc 2ed0 823c
000001b0: 566d 1c3e f04d 7d3c b464 a33d 4b1b 83bc
000001c0: c956 413e 1b17 6d3d 18bb 0dbe 4435 a5bd
000001d0: 4e98 ff3d 8843 263c f85e 203d 0d6c 5fbd
000001e0: 64f5 a3bc 8409 c0bc 0122 7abc 01da 89bd
000001f0: b7e8 4f3d a820 e23d c56e b63d b061 9abc
00000200: fe71 4f3d 6990 74bc e5e3 403e 3d90 00bd
00000210: 2ddc 03be 4e73 6b3d 5327 59bc a80e c1bc
00000220: e9a4 cdbc e76f 903c be7c f13c fd41 23bd
00000230: a06d febd 98c8 923d 893c dcbd 3a31 353e
00000240: 4c87 833d 990b 57bd 1bbb ebbd 0fb9 71bc
00000250: 77e1 bd3d 437b c6bc 9130 96bd 5a7f 6cbe
00000260: ad72 b7bd 0055 adbd bf00 033e fa7f 94bc
00000270: 7064 98bd 4c42 b73c 3424 c7bd 98f8 483e
00000280: 0661 8a3d 4d82 6dbe a8b1 28be 22d4 5cbd
00000290: a73c 103c c7f4 2f3d ffd2 b13c ae8c d13c
000002a0: 6eb2 83bd 4388 e63c 7e1a 1d3e b320 56be
000002b0: ea43 ae3d 23c0 a33d c3a0 a3bc 6c83 043d
000002c0: 57b9 2ebd 1641 89bd 43f7 8bbd af53 35be
000002d0: 1e12 bf3d 8090 223d 75cf b73c 798c 173d
000002e0: 72d1 8dbc 43b0 3ebd 69de 98bd 0b65 503d
000002f0: 1fc1 243e 2d2c 0b3e 3c4e fd3b a8cf b83d
00000300: 99f0 07bd 1033 7c3d e214 1c3e 27cf e93c
00000310: 9e9c 30bc 2858 38be 7bd3 29be fd95 38be
00000320: d5be 213e 114f 293c 6024 f3bc 7ae7 abbd
00000330: 899b 95bd d667 2e3d 14b5 e0bd be2f 3fbd
00000340: 6387 4c3e 866d e6bd 93a6 63bd d457 da3c
00000350: be41 603d 9711 4dbd ea2e e03d ce7e 233c
00000360: 37fd 86bd bfde 9cbd fe82 02be bf40 483d
00000370: 8cc8 443c 40fb bfbd c38d 0bbd d78d b03d
00000380: db3f 7c3e 0b73 b23d c20a b03d dffe a13d
00000390: 7ce3 0dbc d186 f0bb 73b1 3abd 7252 1e3e
000003a0: fcba 0abb 3e2b 2abd 9dfc ae3c 8915 c03d
000003b0: 996f 8a3d 1235 1a3e 7123 a7bd 8f23 86bd
000003c0: 6eca c63c 579a 12bc 3ca7 11bd 2756 2db7
000003d0: e489 a73b 085a 21bd a4b5 8dbd d839 f33d
000003e0: 3ec1 843c 0698 5bbd 05d6 dd3c 3f4a 2f3e
000003f0: 1b8e b73d 1554 353d 11ac c3bd df6a b4bd
-0.079936616 0.026318993 0.05277515 -0.110170044 0.18964595 -0.037184004 -0.13581605 0.13554345
0.05006528 -0.040836494 0.015318707 0.0050434824 -0.19966424 0.081205115 0.055156797 0.03474749
0.011410066 0.004563272 -0.048519026 0.065131485 -0.013840666 0.10456305 0.05256873 -0.32712197
0.058041982 0.15340489 -0.03831613 -0.03115035 0.06708962 0.09507833 0.07371471 0.019887986
-0.2997612 -0.0025440017 0.10744412 0.088756986 -0.076582365 0.00844387 -0.040720075 -0.124572866
0.08934834 -0.1826454 -0.17369957 -0.015710587 -0.027355682 -0.20869915 -0.035041243 0.13891296
-0.017450815 0.051114198 -0.21739924 -0.17350791 -0.016110824 0.033724435 0.0009930686 -0.13969465
0.0014416751 -0.026730463 -0.015391365 0.07237638 -0.08145723 -0.1582528 -0.15879641 0.078863606
0.1466932 -0.035310563 -0.05351863 -0.22616842 0.11820555 0.023948234 -0.016841872 0.025685988
0.059659157 0.022968892 0.030736893 0.0032129274 -0.04551343 0.05715954 0.14552289 0.08082817
0.013033019 -0.07449047 0.08342757 -0.012584694 0.08560909 -0.03689303 -0.12365255 -0.015593953
-0.13913757 -0.046942692 0.056491636 0.036389664 0.04958453 -0.039940126 -0.02391081 -0.08354374
0.030705173 0.05094491 -0.14100882 -0.18886185 0.06393083 -0.194835 -0.0780438 0.05828406
-0.10507429 -0.056191154 -0.019352805 0.015968408 0.15276083 0.015460476 0.07978192 -0.016004225
0.18880762 0.057883363 -0.13840902 -0.080668 0.12480222 0.010147937 0.03915307 -0.054546405
-0.020014472 -0.023442037 -0.015266896 -0.06731034 0.050759044 0.11041385 0.08907846 -0.01884541
0.05064582 -0.014927008 0.18836935 -0.031387556 -0.12876959 0.05748301 -0.0132540045 -0.023566559
-0.02510305 0.017631484 0.029478427 -0.039857853 -0.12423253 0.071671665 -0.10753734 0.1769456
0.0642229 -0.052501295 -0.11510297 -0.014753594 0.0927152 -0.024228698 -0.07333482 -0.23095456
-0.089574195 -0.08463478 0.12793253 -0.01812743 -0.07441032 0.02237048 -0.09723702 0.19626081
0.06756787 -0.23194237 -0.1647402 -0.053913243 0.008803523 0.042958047 0.021707056 0.025579777
-0.06430517 0.028141147 0.15342137 -0.20910911 0.08509047 0.079956315 -0.019974118 0.032351896
-0.042657223 -0.06701867 -0.06834271 -0.17707704 0.093296275 0.039688587 0.02243779 0.0369992
-0.017311785 -0.046554815 -0.07464296 0.050877612 0.16089295 0.1359107 0.0077302735 0.09023982
-0.033188436 0.061572134 0.15242341 0.02854116 -0.010779528 -0.18002379 -0.1658458 -0.18025966
0.15795453 0.010333792 -0.02968043 -0.0839376 -0.073050566 0.042579494 -0.10972038 -0.04667639
0.19973521 -0.11251359 -0.05557878 0.026653208 0.054750197 -0.050065603 0.10946448 0.009978963
-0.06591266 -0.07659673 -0.12745282 0.04888987 0.012010705 -0.09374094 -0.03407074 0.08620804
0.24633734 0.08713349 0.08595802 0.07909941 -0.0086601935 -0.00734029 -0.045579385 0.15461138
-0.002116858 -0.041545145 0.02136069 0.093791075 0.06759567 0.15059307 -0.08161057 -0.06549751
0.024266448 -0.00894793 -0.035559878 -1.0331662e-05 0.0051128734 -0.0393925 -0.06919411 0.11876267
0.016205426 -0.053611778 0.027079592 0.17118166 0.08962651 0.04426964 -0.095543034 -0.088094465

l2.bias f4 [100]
00000000: 1ce0 8a3d c366 c43c 1dbe 183e 9004 0bbe
00000010: 9bce a4bc d122 35be a462 cbbd 514b 7cbe
00000020: 6fd9 cfbd 9a2a 73be 6344 2abe bc52 193d
00000030: 32e8 393d ebb6 aabc 1d6d 003e 2392 b6bd
00000040: 8982 4a3e 0d17 17bd c811 b2bd aee1 0cbe
00000050: 855f 153c 9570 273e 2b24 f3bc 271b 8cbd
00000060: 8722 143e c45f be3d 392d 33be 5bae 32be
00000070: 597d 193d 1269 313c 96c1 e83d fa39 95be
00000080: 0e03 2abe 4184 ae3d a773 d93d acec 583d
00000090: 3e35 d2bd b5d7 1d3d 3512 e7bd 1590 233e
000000a0: bbec 95be 12dc 95bb e32f 0dbe 196f 4f3e
000000b0: 0734 313e 1318 5cbe dfea 1a3e 8f4f d1bd
000000c0: 5a7b b23d b825 fa3d 89a7 923d 0db2 f23d
000000d0: 5f47 33be a524 96bd b885 0cbd d96d 843e
000000e0: bdcd 59be e4f7 7b3d f6a1 9ebd f4ca 44be
000000f0: 9485 80be c690 983c aebb e9bd a738 91bd
00000100: 2a06 043d 3026 83bd 561a b8be 34fb 19bc
00000110: d396 423e 3f27 d13e d1ef 99bd 32ed b5bd
00000120: 6812 a1bd e9f3 1cbe 3e46 9bbe 76d9 5cbe
00000130: 9259 f73d 55f7 bfbd f43d 7abd f8ab fa3d
00000140: 139c 9d3d 8134 e6bc 121d fabd 02c2 7a3e
00000150: 691a 9dbd 0420 53bc e18d 363e 38ee aabe
00000160: ba10 80bb 34bf 4cbe ae06 aebd 722c 5bbe
00000170: e6ff 483c bdcb 243e 2724 97bc 30fc 693e
00000180: 8fa4 d33d 18eb 21be 8405 9e3d ddcb e5bc
0.06781027 0.023974782 0.14916272 -0.13575959 -0.020118048 -0.17689063 -0.099309236 -0.24638106
-0.10148894 -0.2374672 -0.1662765 0.037432417 0.045387454 -0.020839175 0.12541623 -0.08914592
0.19776358 -0.036887217 -0.08694798 -0.13757965 0.009117012 0.1635154 -0.029680332 -0.068411164
0.14466296 0.092956096 -0.1749772 -0.17449324 0.037473056 0.010828273 0.113650486 -0.29145795
-0.16602728 0.08521319 0.10617762 0.052960083 -0.102640614 0.038535792 -0.112827696 0.15972932
-0.29282174 -0.0045733536 -0.13787799 0.20257224 0.17305003 -0.21493559 0.15128659 -0.10220253
0.08714934 0.122142255 0.07160861 0.11850367 -0.17507695 -0.07331208 -0.03430721 0.25865057
-0.21269889 0.061515704 -0.07745735 -0.19218045 -0.25101912 0.01862372 -0.1141275 -0.07090884
0.03223244 -0.06403768 -0.35957593 -0.00939827 0.19002847 0.40850255 -0.075164445 -0.08883132
-0.07864839 -0.1532742 -0.30327028 -0.2156733 0.12077631 -0.09373347 -0.06109424 0.12239832
0.076957844 -0.028101208 -0.12212576 0.2448807 -0.07671053 -0.012886051 0.1782756 -0.3338487
-0.003908244 -0.19994813 -0.08497368 -0.21403673 0.012268042 0.16093345 -0.018449856 0.22850108
0.103341214 -0.15812337 0.07715896 -0.028051311

l3.weight f4 [18, 100]
00000000: 0039 533b c52c 3b3e a726 02bd fd9c 89bd
00000010: b9fc 223d 269f 153e d249 bc3d 72d1 d3bd
00000020: 3cdf 6b3e 7b30 c63c f5a8 383e a4c0 233d
00000030: e892 523d 50e6 8dbe 1496 603d b1da 5a3d
00000040: ba0d ecbd 6b1c 1bbd 2ec5 25bd bcfd d93d
00000050: 1074 003d 0772 78bd 2c8d 023e 749e db3d
00000060: 1d48 88bd 0bf3 84bd 5f1f e0bc 8e19 0e3e
00000070: 45af d93d a388 733e eaed 133c 42f6 06bd
00000080: 0ab8 283e 2c3d 373e 2ab5 563d 231a 313e
00000090: caa8 fc3d 4b99 f5bb f496 f2bc d337 e1bc
000000a0: fa40 743c 2f02 fbbc e860 46bc 240d 3f3d
000000b0: 3b2a 033e 0ee9 203c b438 4e3e 30d4 5e3d
000000c0: c945 b13d 5ccb f53d 4af2 eabd f57f 8abd
000000d0: 0959 d13d c469 fcbd 49ee 48be 92b8 e73c
000000e0: f06c f33d 425b 683e e636 713e 25d5 a43d
000000f0: 09ee c939 a31f 623e b8ea fbbc 1b26 d1bd
00000100: 6388 59bc ff6e 253e e842 c83d f306 31be
00000110: 3ad0 74bd 4b32 4bbe 930f 8a3e c7d2 68be
00000120: 1163 cbbc 5880 f93d bde7 e9bd 7cbb 2bbe
00000130: 6334 f6bd ec9a fc3d a711 413d fb62 ef3d
00000140: 749f 113d 4aa5 62be 317e 40be 25d4 7a3e
00000150: 095b b1bd 5aed 31bc df98 aebd b347 b4bd
00000160: cb4d 5bbe 7a7d 633c ca16 8fbd b33c f5bb
00000170: 96d8 f5bd 749a 2d3d aa0e a43e 3444 403e
00000180: f451 5bbd 9ffc 0bbd 3897 ab3d 336f eab9
00000190: d75d 7ebd 728e a1bd e6ce 23bc 0c9f fc3d
000001a0: bdbc 23bc c7e4 d8bc 0651 04bd 3947 26be
000001b0: 0bef bebd af9b 073e 8428 bcbc 696f 803e
000001c0: 5da0 6c3b f490 97bd 217b 583e 908c 0ebd
000001d0: 5d3e 03bd 851b 66bd 9c5b 833e e9b7 123e
000001e0: ad92 74bc 9946 b4bd e603 9738 77b3 8e3d
000001f0: 023b 9e3e 5e82 bc3c 3158 cfbc 9355 66be
00000200: 72c2 a13c f6a0 4f3d 59fe 813d 2b44 8abd
00000210: 54b3 f0bd 02cd ddbd 485b 593d ba1f 52bd
00000220: 55f2 b43d 057d 883d e120 40bd 1179 b13d
00000230: 0e8e 37be 0d42 14bc a05d 833d df74 013d
00000240: 7f1a a6bd facd eb3d f466 313e ec01 af3d
00000250: 8473 a6bd 3d5a 7bbe edb7 d6bd 989f 513c
00000260: 4bfd a13d 1bc1 2a3e 9afd da3d df32 b23d
00000270: ebe6 913d c2be c83d 9645 ad3d 8d49 ff3d
00000280: a091 1cbe 9882 663a 05ee 85bd 9eb0 11bb
00000290: 913e 223e 0b87 ddbd 47af a3bc 1a3a 6ebe
000002a0: a870 303e 1a78 34be 88bc 6c3e 54b4 22be
000002b0: 4d09 be3d 0e99 063e 6e95 323e 657d 51be
000002c0: 9f7d 393d 9503 4a3d c789 2abe 6031 6dbd
000002d0: 748e 27be 951f 383e a763 c53d bdef 83bb
000002e0: e048 163c 107f 8d3c 9089 14be b6d4 6abb
000002f0: 8385 31bd 848f 283c 6ba2 c93e 4baa f73d
00000300: 0213 a6bd 22de b43a 1438 febd b46c d33d
00000310: 6973 3e3e 0b5a 153d 3d41 21be e727 9b3b
00000320: 468d 533d c297 30bc b392 20be b01e c2bc
00000330: c824 1a3e 164f 963e bb29 ebbd e727 24be
00000340: eb34 663b 638c 963d 6dcc 41be 66c5 813d
00000350: 6447 8cbd 677f 83bd fe93 66bc 996a aa3d
00000360: 14a2 763e 171a 673e 5b81 54bd 9ff9 c6bd
00000370: 164e 8d3e 427f 8ebd fe81 13be c9f5 493e
00000380: 58da 4f3d 1310 1f3e c987 64bd 2846 893d
00000390: 8b66 7f3d 8012 44bd 6cd0 113e 0247 0bbe
000003a0: 773b ac3d 3ad4 01be b64f 7cbd a00a 293d
000003b0: a2d4 05bb de12 b8bd 4528 64bd 22c5 3abd
000003c0: a231 2b3e 6344 003c b342 8dbd 75cd 123d
000003d0: 0122 f93d 3d19 fa3d 93ad 283e 0570 5f3c
000003e0: 5c53 683e b613 913d 1724 423c 3686 81bb
000003f0: 8882 1fbe 3b5b 233b ed1c 6a3d 789f 993d
0.003223002 0.18278797 -0.031775143 -0.06719396 0.039791796 0.14611492 0.091937676 -0.10342683
0.23034376 0.02419304 0.18033202 0.03997864 0.051409632 -0.27714777 0.054830626 0.053431217
-0.11526056 -0.0378689 -0.04047125 0.10644099 0.031360686 -0.06065562 0.12749165 0.10723582
-0.066543795 -0.06491669 -0.027358709 0.13876936 0.10629133 0.23782592 0.009028891 -0.032949694
0.16476455 0.17894429 0.052418865 0.17295127 0.123368815 -0.0074950806 -0.029612996 -0.02749244
0.01490807 -0.03064069 -0.012108065 0.04664339 0.12809078 0.00982119 0.20138818 0.054401577
0.086558886 0.12001678 -0.11471994 -0.06762687 0.1022206 -0.12324861 -0.19622149 0.028286252
0.118860126 0.22691062 0.23556098 0.080484666 0.00038515058 0.22082381 -0.030751571 -0.10212346
-0.013277146 0.16155623 0.09778386 -0.17287807 -0.059768893 -0.19843404 0.26965007 -0.22736655
-0.024827512 0.12182683 -0.11421154 -0.16770738 -0.12021711 0.123342365 0.047135975 0.11688801
0.035552457 -0.22133365 -0.18798138 0.24494989 -0.08659942 -0.010859812 -0.085252516 -0.08802738
-0.21416394 0.013884896 -0.069867685 -0.0074840426 -0.12004201 0.042383626 0.32042438 0.18776017
-0.053544953 -0.034176465 0.08378452 -0.00044714808 -0.06210121 -0.078884974 -0.009998059 0.12335023
-0.009993729 -0.026476277 -0.032303832 -0.16238107 -0.093229376 0.13242982 -0.022968538 0.25085
0.0036106326 -0.074006945 0.2114072 -0.03480202 -0.032041896 -0.05617859 0.2565583 0.14327969
-0.014927548 -0.08802528 7.200967e-05 0.06967824 0.30904394 0.023011383 -0.025310608 -0.22493581
0.019746039 0.050690614 0.06347341 -0.06751283 -0.11752954 -0.10830118 0.05306557 -0.051299788
0.08835284 0.066644706 -0.046906356 0.0866567 -0.17925283 -0.009048951 0.06414342 0.031605598
-0.081105225 0.11513896 0.1732443 0.085452884 -0.081275016 -0.24546142 -0.104843 0.012794398
0.0790964 0.16675226 0.10692902 0.08701109 0.07124122 0.09802009 0.08460538 0.124652006
-0.15289927 0.00087932637 -0.06539539 -0.0022230516 0.1584418 -0.10816773 -0.01998104 -0.23264351
0.17230475 -0.1762394 0.23118794 -0.15889102 0.09279118 0.13144323 0.17439815 -0.2045799
0.045285817 0.049319822 -0.1665412 -0.057908416 -0.16362935 0.17980798 0.09638148 -0.0040263818
0.009172648 0.017272502 -0.14505601 -0.0035832352 -0.043340217 0.010288123 0.39381728 0.12093028
-0.08109094 0.0013799111 -0.1241304 0.10323468 0.18598713 0.036462825 -0.15747543 0.0047349813
0.0516484 -0.010778369 -0.15680961 -0.023696274 0.15053093 0.29357213 -0.11482569 -0.16030847
0.0035126756 0.073509954 -0.18925638 0.06336479 -0.06849554 -0.064207844 -0.01407337 0.08321113
0.24085265 0.22568546 -0.051881175 -0.0971558 0.27598637 -0.06957866 -0.14405057 0.19722666
0.05074534 0.15533476 -0.055793557 0.06702834 0.062353652 -0.047869205 0.14239663 -0.13601306
0.084097795 -0.12678614 -0.061599456 0.0412699 -0.0020420928 -0.08987974 -0.055702467 -0.045598157
0.16718152 0.007828805 -0.068974875 0.03584047 0.12164689 0.12211845 0.16472463 0.013637547
0.22688049 0.07083838 0.011849425 -0.003952767 -0.15577137 0.0024926204 0.057156492 0.075011194

l3.bias f4 [18]
00000000: 5871 c1be 58fe e0be f65c 103f 9acf df3e
00000010: 438e c23e 1e39 09be 4575 a43e 7b5c 2f3e
00000020: ba61 c9be f321 70be d43b 84be 3546 023e
00000030: c23f ea3d 51ab 393e bd44 a8bd abdf aabe
00000040: e59e ebbe add5 3f3f
-0.37781787 -0.4394405 0.5639185 0.43713075 0.37999162 -0.13400695 0.3212072 0.17125122
-0.39332372 -0.2345045 -0.25826895 0.12722094 0.11437942 0.18131758 -0.08216236 -0.3337377
-0.46019664 0.7493542
