LARA/weight/g_10.pt (torch, 87399 bytes, 7 tensors)

G_attr_matrix.weight f4 [36, 5]
00000000: d7a8 5b3d 5d1d 1b3e ffd3 8e3e f6ff 643e
00000010: 69f6 56be 6bc7 b2bd 7faa 3fbc 3c2d 93bd
00000020: 2631 2a3e 4f01 33be 908e 4abe 208b 62be
00000030: 1cce 2a3e a8a5 fcbe df04 da3c 3d35 813d
00000040: 2498 e43e 8deb 713e f805 9dbe 9827 343e
00000050: f4fe 943e 2b06 c4be da14 253e 191e 49be
00000060: a285 71be 9dda dc3c 05ec b0bc 09fa cb3e
00000070: 5788 293d 321e a23e e137 943e 239f 21bf
00000080: 5510 3c3e e77b 07be 1a52 863e c8af 51be
00000090: be2c f6bd d929 9d3d a912 2d3e 45b7 1d3e
000000a0: fbea c9be a33b 633e 06cd 94be 8c4d 36be
000000b0: 1595 fb3e 272a 503e 44c0 763e ebd5 96be
000000c0: 335f b9be 2631 053d 7e35 27bd c6d1 9fbd
000000d0: 245f 893e a4f9 21bd 25ae 7ebe e90b e4bd
000000e0: 2ef8 433e d021 4ebe 576e af3d 5119 22be
000000f0: b755 233f ed77 5abe 52ba 3f3e 5608 b33e
00000100: d5d8 543d 1e34 0e3e 819f 0abe 6adc 833c
00000110: 1308 b9bd b8f8 b73d 4256 98be f392 38bd
00000120: 1da9 42be 2260 eabe 33d5 713e 846c 09be
00000130: ba6b 543c 665a 26bd 88d0 8f3d 420c 22be
00000140: 449a 1b3e f229 dcbe ee25 8cbe 09e8 38be
00000150: 57e5 bdbe 558d 29bd 6832 d2be 210e e1bc
00000160: 1729 7abe 7ba2 273e 6a27 fb3d e28f c7be
00000170: 5661 7cbe eb30 2d3e 27ef 113e 4a7d 01bc
00000180: 5377 a2bd d365 843e 49ff e0be 61ce 23be
00000190: 1e30 283e 5200 673c 20c8 8d3e 25f1 2d3e
000001a0: cf8f 353e df0e 193c dce0 803e a2fd e63d
000001b0: 34dc 0a3e e054 323e 0553 b1be a1ba 993e
000001c0: 9859 d0bd 2021 fd3d f0ca fdbd 56ed 2f3e
000001d0: ac02 8f3e b747 3f3e a7c4 3f3c dadc a0be
000001e0: 54d5 5c3e 1577 47be 0d87 353e 045e 003e
000001f0: d6d9 e8bd 47cd 0c3f 19c2 35be 77e5 a43e
00000200: 542c 553e 0609 643d 73d4 d83b 0ee4 1a3d
00000210: 151e 683d 7ffb 8abe c102 81bd a5e1 663e
00000220: d844 87be b1ad aa3d 54e2 34bd ecdd 56bd
00000230: b168 6f3e 98d0 1fbe c779 e3bc a1a1 563d
00000240: 4b75 913e 99ee 8abd db9e a13b a2dd 0f3e
00000250: c6f8 243c b48e ad3d afb3 233e caf7 273e
00000260: fddf 59bd ce8a 0bbf 9a1c 803e efc6 b9bd
00000270: 4885 833e 17e2 ac3d 7087 093e afdf 23be
00000280: a459 e93d 0700 193e 8409 40be 33e2 253c
00000290: 38c8 13be 1472 f5bd 65e6 6b3e b167 643e
000002a0: b1ac f63b 3ab3 e43d 01a8 f33d c753 f8bd
000002b0: 1fc8 2d3d 0970 8ebd 281b b63d f192 643e
000002c0: 01ee 73be d7b6 903d e3ec cabd 5aa4 f63d
0.053627815 0.1514792 0.27896115 0.22363266 -0.20992436 -0.08729442 -0.011698364 -0.07186362
0.16620311 -0.17480968 -0.19780946 -0.22123384 0.16680187 -0.49345136 0.02661365 0.063089825
0.44647324 0.23625012 -0.30668616 0.17593229 0.29100764 -0.38285956 0.16121235 -0.19640388
-0.23586133 0.026959712 -0.021596918 0.398392 0.04138979 0.31663662 0.28948882 -0.6313345
0.18365605 -0.13230859 0.26234514 -0.20477211 -0.12020253 0.076739974 0.1690165 0.15401943
-0.39437088 0.22190718 -0.2906267 -0.1780302 0.49137178 0.2032858 0.24096781 -0.2946008
-0.36205444 0.032517575 -0.0408225 -0.07803683 0.268304 -0.039544716 -0.24871118 -0.11135084
0.19137642 -0.20130086 0.085659675 -0.1582997 0.63802665 -0.2133481 0.1872342 0.34967297
0.0519646 0.13887069 -0.13537408 0.016096313 -0.09034743 0.08982986 -0.2975331 -0.045062017
-0.19009824 -0.4577647 0.23616485 -0.13420302 0.012965137 -0.040613554 0.07022196 -0.15824988
0.15195566 -0.43000752 -0.27372688 -0.18057264 -0.37089035 -0.04139455 -0.41054082 -0.027472558
-0.24429737 0.16370575 0.12263377 -0.3897696 -0.24646506 0.16913192 0.14251386 -0.007903406
-0.079329155 0.25858936 -0.43944767 -0.15996696 0.16424605 0.014099197 0.27691746 0.1698652
0.1773064 0.009341924 0.25171554 0.11278845 0.13560563 0.1741519 -0.3463365 0.300252
-0.10173339 0.12359834 -0.12392223 0.1718038 0.27931726 0.18679701 0.0117046 -0.31418496
0.21565753 -0.1947902 0.17727299 0.12535864 -0.11369674 0.5500073 -0.17749824 0.32206318
0.20817691 0.055672668 0.006617123 0.037815146 0.056669313 -0.27145 -0.062993534 0.22547014
-0.2641971 0.0833391 -0.044161156 -0.052457735 0.2337978 -0.15606916 -0.027768029 0.052400235
0.284098 -0.0678379 0.004932267 0.1404939 0.010069078 0.08474484 0.15986513 0.16403118
-0.053192127 -0.54508674 0.2502182 -0.09071147 0.25687623 0.08441561 0.13430572 -0.16003297
0.11394051 0.14941417 -0.1875363 0.010124731 -0.14431846 -0.11984649 0.23037107 0.2230518
0.0075279106 0.11166997 0.118972786 -0.12125354 0.04242718 -0.06954963 0.088918984 0.22321679
-0.2382126 0.07066124 -0.09908464 0.12043066

l1.weight f4 [100, 90]
00000000: 8775 76bd ff7d 4abe 546b 403e d89a 2dbd
00000010: 1e90 b0bd 1740 8dbc c08e 713d a289 fa3d
00000020: a120 93bd c409 47bd c8b5 043e 0f8a 063e
00000030: 1490 0bbe 74b1 74bc 77ce 963d c0d9 30be
00000040: d531 a8bd 8fd9 95bc 74f7 61bd 59c2 3cbe
00000050: ec10 d83d 6956 48bd 0edf 5b3d 6c3d 06be
00000060: 3927 37be b546 f7ba c84f 67be 7dc2 123e
00000070: 0aba 3a3d a0df 433e edf2 573d a687 8f3c
00000080: d848 d73c ead9 be3d f66a 8f3d 1ea7 373e
00000090: dd36 353d 4a58 5e3e 6f29 9a3d 8919 c4bc
000000a0: 9c07 eabd 6cd9 1f3e f462 da3d be8d c93b
000000b0: 45d2 61be b78c 7fbd 78d2 6f3d 6c00 9a3d
000000c0: 9055 74bd 45b4 193d 4042 7cbe a96e 15be
000000d0: 13e8 ef3d 0157 07be 0ede 0e3d a22a 64bd
000000e0: e142 153d 8a5d 4f3d 16e2 3d3e bf52 1dbe
000000f0: 911e d9ba 2008 ea3d 9dcf a6bd 6c75 713d
00000100: b408 b7bc b159 a7bd 1651 f33c 3bc4 cdbd
00000110: aa06 d33d 065a b1bd 28d9 d7bd 5e48 7c3c
00000120: fa19 a2bd 0f44 8b3c b2d9 823d 7386 08be
00000130: d623 0fbd 6c66 ccbd b6ed a2bc b03f 9b3d
00000140: 307d 53be 8864 ac3d 6721 10bd d1fe 4c3d
00000150: bf72 603c 7f40 c8bd 735c a93d 39c6 15be
00000160: 9a8a 903c a148 e23c 1441 cfbd 15cc f33c
00000170: d6dd a1bd e104 423e bef1 02be b76c 13bc
00000180: 7500 c4bd 71ed 333e c191 73bd 5b2c 26be
00000190: d9d3 283e 129a 68bd a135 113d 1251 12bd
000001a0: e83b 1fbd 4ce8 e6bd 51ba 09be 243c 363e
000001b0: 8357 d33d 4b85 013e 91c9 09be 9061 d63c
000001c0: 8ed2 bc3d 03d5 2bbe cba6 fe3d 3266 edbd
000001d0: ecbd fbbc 154a d43c 3934 2d3e 326f 4cbe
000001e0: 7413 17bd 4b91 733c d9bb 253d df06 4b3d
000001f0: 3466 c43c 9acb b33d 64d6 23be 5c83 03bd
00000200: 58c3 223d 222e 66bd 3884 093e 644a 82bc
00000210: 77e2 95bd ac43 b13d b8ea 0ebe 913a c03d
00000220: 5a62 b4bb 2f25 803a 7ea4 85bd d24d a3bd
00000230: 2307 073e 12da fd3d 3c72 a4bc 27fe 9abc
00000240: b836 aebd 2711 7d3b 708e a6bc b632 a13d
00000250: 48b9 a13c f647 ebbc 55ae 8e3e fbe3 fe3d
00000260: 7da8 f9bc bbfe 1abd 2034 aebd d519 0fbe
00000270: 01de 51be 5055 7e3d d637 cfbd 69e2 6fbe
00000280: b24b 493e fcf6 b33d a044 3bbd 6fe0 93bc
00000290: 3c4c e83d 93f6 dcbd aaf3 16bd cb30 bfbd
000002a0: 95fa 1e3d 42ec 38bd 08d2 d6bd 61d8 a0bd
000002b0: 73f5 353e 4631 823d 361e 0f3b 56ea 3b3e
000002c0: faff 903c bc55 abbd a41e 9fbd 78f8 3f3b
000002d0: ada0 a4bc 1ef4 74bd 0415 62bd ca11 07be
000002e0: 4e8a 73bd 6ee1 3b3d 25b7 e53d 0f11 b23c
000002f0: e9c6 983d 9269 a43c e52d fa3c d029 533e
00000300: bd49 a43d 3a6e 1bbd a852 fdbd f915 1fb9
00000310: 0cb3 aa3d 7cae 063e 8335 f9bd 143c a5bd
00000320: c913 d7bd ba02 333d 9aa8 7bbd 6439 973b
00000330: 65bf 4a3c f250 ef3d e7b6 9f3d 7ffe 3a3e
00000340: 716b 1d3c c465 223e 1255 1c3e 5a0d 30be
00000350: 3995 ad3c c558 8ebd ad43 cd3d 64ec 843d
00000360: 93ce b33c 77b5 a33d edda fa3d b564 babd
00000370: 8ac2 b93d 909f 90bc cf3e 8abd e9b1 9b3d
00000380: f668 b53c 8ac0 6c3c e3c6 33be d2de 53be
00000390: add6 f63d 7ed3 fabc 716d 473c e668 98bd
000003a0: 6e5d b7bd 385d 18bb 7e8e 913e 00e7 92bd
000003b0: fee0 643e 1c4a 0fbe b826 55b9 0603 403d
000003c0: 27d7 113e 75d1 a2bd 0e26 2c3d 9d52 44bd
000003d0: 4af0 ae3d 35ce 50bd b5cc 133d cf45 13bd
000003e0: 78cb 91bc e77e d5bd 7ae9 2c3d ea7a c9bd
000003f0: aad6 e83c 179f 2abd 8553 043e 1c4f 3fbd
-0.060170677 -0.19774626 0.18790942 -0.042384 -0.08621238 -0.017242474 0.058974028 0.122332826
-0.07183958 -0.048593298 0.12959969 0.13138603 -0.1362918 -0.014934886 0.07363599 -0.17270565
-0.0821263 -0.018292217 -0.05516763 -0.18433513 0.105501026 -0.048910532 0.05367952 -0.13109368
-0.17886056 -0.0018865677 -0.22589028 0.14332004 0.045587577 0.19128275 0.052721906 0.017520737
0.026279852 0.093189076 0.07002823 0.17934844 0.044241775 0.21713367 0.07527434 -0.023937957
-0.114272326 0.15610284 0.10663405 0.00615093 -0.22052868 -0.062390056 0.058550328 0.07519612
-0.05965191 0.037525434 -0.24634647 -0.14592995 0.117141865 -0.13216783 0.034879737 -0.05570472
0.036440734 0.050626315 0.18543276 -0.15363596 -0.0016564896 0.11427331 -0.08145068 0.058949873
-0.022343017 -0.08171404 0.02970175 -0.100471936 0.103040054 -0.08659749 -0.10539466 0.015398113
-0.07915111 0.017000226 0.06389178 -0.13332538 -0.034946285 -0.09980473 -0.01988874 0.07580507
-0.20653224 0.08417612 -0.035188105 0.0500477 0.013699233 -0.09777927 0.082695864 -0.14626397
0.017644215 0.027622523 -0.101198345 0.0297604 -0.0790364 0.18947174 -0.1278753 -0.008998088
-0.095704 0.17571045 -0.059465174 -0.16227858 0.16487063 -0.056787558 0.035451535 -0.035721846
-0.03887549 -0.11274776 -0.1344998 0.1779638 0.10319426 0.12648503 -0.13455798 0.026169568
0.092198476 -0.16780476 0.12434157 -0.11591758 -0.03073021 0.025914231 0.16914453 -0.19964293
-0.036883786 0.0148661835 0.04046235 0.0495671 0.023974515 0.08779068 -0.15999752 -0.032107696
0.039737076 -0.05619634 0.13429344 -0.015904613 -0.07318585 0.086554855 -0.13956726 0.09386171
-0.0055048885 0.0009776707 -0.06525515 -0.079738274 0.13186316 0.12395109 -0.020074002 -0.018920017
-0.085065305 0.003861496 -0.020331591 0.078710005 0.01974167 -0.028720837 0.2786738 0.124458276
-0.03047585 -0.037840586 -0.08506036 -0.13974698 -0.20494844 0.06209308 -0.10118072 -0.23426212
0.19657782 0.08787343 -0.045719743 -0.018051354 0.113426656 -0.10789218 -0.03685347 -0.093354784
0.038813192 -0.045147188 -0.10489279 -0.07853771 0.17769413 0.063570544 0.0021838075 0.18351111
0.017700184 -0.08365962 -0.07769516 0.0029292386 -0.020096147 -0.05980312 -0.055195823 -0.1319038
-0.05945807 0.045869283 0.11216573 0.02173665 0.07459814 0.020069871 0.030539462 0.20621419
0.08021877 -0.037946917 -0.12369281 -0.00015171607 0.08334932 0.13152498 -0.1216841 -0.080680996
-0.105018206 0.043703772 -0.061440088 0.004614996 0.012374734 0.11685361 0.07798558 0.18261145
0.009608136 0.15859133 0.15266827 -0.17192593 0.021189319 -0.06950525 0.10022674 0.064904004
0.021949088 0.07993596 0.12248788 -0.091012396 0.090703085 -0.01765421 -0.06750261 0.07602293
0.022144776 0.014450202 -0.17556338 -0.20690468 0.12052665 -0.030618425 0.012172089 -0.07441883
-0.08953367 -0.0023248922 0.28429025 -0.07172966 0.22351453 -0.13993114 -0.00020327687 0.046877883
0.1424223 -0.07950107 0.04202848 -0.04793035 0.08541925 -0.050977904 0.036083896 -0.035955247
-0.017797217 -0.10424595 0.042214848 -0.09837897 0.028422672 -0.041655626 0.12922485 -0.046706304

l1.bias f4 [100]
00000000: 97c4 85bc 3aa9 8e3d 938d 7e3e 22f2 183e
00000010: d235 84bc 2854 6cbe 4ea7 f2bd b856 773d
00000020: 41b4 37be 9eee 7dbd 66e7 c8bd d674 943e
00000030: 2dac c2bd c9ff ca3d 711d 1dbb e08a eb3d
00000040: c2bf e4bd 18b1 98bd a02d 593e 27dc aebb
00000050: 0197 2a3d 33fa ee3d d12f a9bc 800c 52be
00000060: 1493 37be f626 373e 478a 313e 0eb8 abbb
00000070: af1d b9bd b826 51bd 5eb6 4f3d 78ae ea3c
00000080: e442 c13c a729 f63e cc1e 263e 4634 d03c
00000090: 30cb 6cbe ef7b 0b3e 866d 243d db6e 423d
000000a0: 09b2 283e e6a7 ab3d fc20 b7bd 32ce 31bc
000000b0: 192b 71bd 02ff 843e 0e95 4ebe 74cc a9be
000000c0: beef 923e f7db 353e ad50 023e c15e 3dbe
000000d0: d2c2 d4bc 2356 3abd 67b7 013d d529 a13a
000000e0: 8724 57be 59b5 843d 4bb9 943e c0a0 92bb
000000f0: 6599 103e 8ebc 4139 667f cc3d 5fff 99bd
00000100: 32b5 1cbe c205 b5bd c32e c53c 6c99 f9bd
00000110: a8f1 a8bd 2686 633e f3c3 233e 7019 bb3d
00000120: 8559 b3bd 49db bebd ec9e 4b3d a495 e13d
00000130: 33f0 87be eff8 bcbb cdbd 8d3d 8397 8fbc
00000140: b13e c7bd 1516 23bd fb5c 4dbe 33f6 f63b
00000150: aae4 973e 3336 d6bc 2274 adbd 9253 a93d
00000160: 0833 cbbd 72e5 83bc 338c 3cbd 856f 293d
00000170: 38b0 1f3c 3659 e3bd 09c5 86be 6324 69bd
00000180: ee38 fe3c b589 b1be 3231 67bd 4ba2 00be
-0.016329093 0.06965871 0.24858694 0.14936116 -0.016138945 -0.23078978 -0.11848317 0.060385436
-0.17939855 -0.06199514 -0.09809761 0.2899539 -0.09505496 0.099120684 -0.0023973847 0.11501098
-0.111693874 -0.07455653 0.21208811 -0.005336303 0.041647915 0.116688155 -0.020652683 -0.20512581
-0.179272 0.17885956 0.17337905 -0.005240447 -0.09038865 -0.051062316 0.05071103 0.028647646
0.023591466 0.48078653 0.16222686 0.02541555 -0.23124385 0.13621496 0.040143512 0.047469
0.16474165 0.083816335 -0.08941838 -0.010852383 -0.05887899 0.25975806 -0.20174047 -0.33163798
0.28698534 0.17759691 0.12726088 -0.18493177 -0.025971804 -0.045492303 0.031669047 0.0012295792
-0.21010028 0.06479902 0.29047617 -0.0044747293 0.14121015 0.00018476156 0.09985237 -0.07519411
-0.15303496 -0.08838989 0.02407015 -0.12187466 -0.08249217 0.22219142 0.15992717 0.09135711
-0.08757309 -0.09319169 0.049712107 0.1101487 -0.26550445 -0.00576698 0.06920967 -0.017528301
-0.09728754 -0.03981598 -0.20055 0.0075366735 0.29666644 -0.026148891 -0.08469416 0.08267893
-0.09921843 -0.016100619 -0.046032142 0.04136612 0.009746604 -0.11101 -0.263222 -0.056919467
0.031033006 -0.34675375 -0.0564434 -0.1256191

l2.weight f4 [100, 100]
00000000: d9d7 3dbe 5527 6f3e 13d1 26bc 6586 053d
00000010: eb26 5d3d a8b6 de3d 4ee4 b7bc d9ef e73d
00000020: 1ab1 12bd 5f08 2e3d 0504 d9bd f46d ae3c
00000030: befa 40bc 9bb5 2dbc 9f5a 55bc f915 113e
00000040: fc60 b23d 6363 c73a 428a 09be 22ee ddbc
00000050: abfd 0bbd 4e16 c9bc a0f5 07be a6c8 ae3c
00000060: d01b 9abc d595 833d dca2 bcbd 82ab 81bc
00000070: c3f9 00be fff3 01be ef55 2dbe 93b4 c7bd
00000080: ed5e 133e a131 923c 6f07 af3d 13ed 1d3e
00000090: b1cc 99bd 7195 b0bd cf7a 173e 9e5e b73d
000000a0: a925 4bbe ebd3 8c3d d6e9 3f3d 658b f73d
000000b0: 800a cebc 81e4 d23c d2e9 29bd c948 90bd
000000c0: 18c3 c83c e20d 163e 019b 293e 7840 8e3d
000000d0: 6730 77bd ae14 81bd cdee 213c 3d0d 3cbe
000000e0: d2d4 12bd 4c17 843d 9555 d7bd e7af b5bd
000000f0: 2e16 3cbd b421 ed3c 350e 3ebe 097e 50bd
00000100: bdd8 153e 28cb 293e dd42 0b3d 1343 403e
00000110: 9a10 863d b4c1 143d 26ef 46be 8fdb b53c
00000120: 5375 1f3d 54aa 3a3e 15c1 243c 1912 183e
00000130: 372a 993d f8a1 0d3e 6faf f638 55f9 14be
00000140: 6e29 c03c e51e f0bc f083 6a3c 39ae 87bd
00000150: 1b2e 173e 98cc e93d c299 0b3e 6a4d 273e
00000160: 2784 f33d a1ff 42bd ef46 16be 0383 ae3c
00000170: b179 f8ba 9b8f 38bd e97f 64be b3da 02bd
00000180: 81ac ce3b ea4f 1bbe 19f8 743d bb8d 19be
00000190: 8d5f e2bb bc20 28be e8c4 1bbe 0053 8f3e
000001a0: f15e 3c3d bd17 8b3e 53ad ac3d d58b b63b
000001b0: 9370 8f3d 306c b03c 73f0 9b3e 85c7 bb3c
000001c0: 161e a739 8280 e2bd 1796 463e 97f8 003e
000001d0: 9238 153c e8d5 dd3d de7d d5bd aa75 dabb
000001e0: eaf8 f6bd 5c44 dc3c e4f4 963c 3bbe 15be
000001f0: 0036 a6bc cb03 0b3e 2625 49be 3d5f 243e
00000200: acc6 89bc b71c 72bd 4a45 4fbd c3e9 9e3d
00000210: dd33 35be d6e4 fb3c d31b 69bd c938 1fbd
00000220: e264 d1bd b8ea 303d 1792 923d 1b5f 943c
00000230: efd1 01be 7c72 dfbd e1d6 ff3d ebef a1bd
00000240: 5760 1ebe 24a6 05bc 260b d8ba e95b 323e
00000250: 7589 f5bd 1e0e edbc ac49 27be ee70 33bd
00000260: 8d62 b63d c5ad b93d 4c6c 76bd a89a 913e
00000270: 4a10 ad3d f6ba d83d 187c febc 8ae8 713c
00000280: eb74 9ebd 0df4 453d 26e2 04bc 7246 dfbc
00000290: 74e2 e03c 22c1 10be 46af 38bd 74db d73d
000002a0: dbf5 1c3e 0a8a 91bd 0ad9 833d 816c dc3c
000002b0: fb14 383c 2632 5dbe 47cb a63a 3ff0 2a3d
000002c0: fb22 663d 23aa 5dbe 97b0 35bd 8bc6 acbd
000002d0: 3f9e 53bb 156b 19be a3c9 633e 52fe dc3d
000002e0: 7d26 8e3d 1c43 b53d a9de adbd 4300 aa3d
000002f0: 7162 aa3d 2420 0bbe 9557 033e d9fa 0fbd
00000300: 5936 b4bd a6ff 99bd 3357 bb3d 0ddb 3bbe
00000310: b3d4 6ebd 4531 063d 5f39 ee3d 1cf5 19be
00000320: 5c83 cd3d 9378 b1bd 58c8 7e3d 5ec9 93bd
00000330: 768e fa3d f5f5 aa3c cf85 973c b56b 373c
00000340: 7cb4 acbd dcf2 8d3d 688e 473d 84d5 56bd
00000350: ce98 b53d 3642 2cbd 90ac 103c f75f 90bd
00000360: 09c6 113d 26ad 893c a02f 65bd de3c b73c
00000370: cef0 95bc 38da f03d a9b6 7c3d 9c4f 56be
00000380: 9a50 343e 1d2f 93bd f789 3e3e 39da 21bd
00000390: a176 323c e8ee 1b3e 893d 513e 5af1 27be
000003a0: 69c8 0ebe a0ff a53c 0229 ac3c 1445 f93d
000003b0: 6b2e e73c 4ad5 073e 899d 903d 4ec7 0d3d
000003c0: 53db fdbd 9b66 e0bd 8360 dd3d 6f0d b13d
000003d0: 1d60 78bd 6df1 0dbb 53b3 b7bd 94a7 6e3e
000003e0: b302 943d 6343 07be a65a 90bd b484 febd
000003f0: 4da3 d23b 9220 3d3e 7574 35bd c062 a33d
-0.1853937 0.23354848 -0.010181683 0.03259887 0.053992193 0.10874683 -0.022447731 0.11325044
-0.03581343 0.042488452 -0.1059647 0.021292664 -0.011778532 -0.01060238 -0.013022094 0.14168538
0.087099046 0.0015212115 -0.13431647 -0.02709109 -0.034177464 -0.024546769 -0.13277292 0.021335911
-0.01881209 0.064250626 -0.092107505 -0.015828852 -0.12595277 -0.12690733 -0.16927312 -0.09751239
0.1439168 0.01784593 0.0854634 0.15422468 -0.07509745 -0.08622254 0.14792942 0.08953594
-0.19838585 0.06876358 0.046853863 0.12087134 -0.025151491 0.025743725 -0.041482754 -0.07045133
0.02450709 0.14653733 0.16563036 0.0694589 -0.060348894 -0.063027725 0.009883595 -0.18364425
-0.035847493 0.06449756 -0.1051437 -0.08871441 -0.04591959 0.028946735 -0.18560107 -0.050901446
0.1463346 0.16581404 0.033999313 0.18775587 0.06546135 0.036317542 -0.19427165 0.02219942
0.03893025 0.18229038 0.0100558 0.14850654 0.07478755 0.13831317 0.00011762871 -0.14548238
0.023457255 -0.029311607 0.014313683 -0.06625027 0.14763682 0.11415976 0.13632873 0.16338125
0.118904404 -0.047607068 -0.14675497 0.021302706 -0.0018957165 -0.045058828 -0.22314419 -0.03194685
0.006307185 -0.15167204 0.059806917 -0.14995472 -0.006908363 -0.16418737 -0.15211833 0.2799301
0.04598898 0.27166548 0.084314965 0.0055708685 0.07003894 0.021535963 0.30456886 0.022922287
0.00031875138 -0.11059667 0.19393192 0.1259483 0.009107726 0.10831815 -0.10424398 -0.0066668587
-0.12059195 0.026888065 0.01842732 -0.14623348 -0.020289421 0.13575666 -0.19643077 0.16051956
-0.016818367 -0.059109416 -0.05060319 0.0775943 -0.17695566 0.030748766 -0.0569113 -0.038872514
-0.1022432 0.043192595 0.07156771 0.018111756 -0.1267774 -0.10910508 0.12492157 -0.07907089
-0.15466438 -0.008157287 -0.0016482815 0.17417873 -0.119891085 -0.028937396 -0.16336697 -0.04380887
0.08905516 0.09066347 -0.060161874 0.28438306 0.084503725 0.10582535 -0.031065032 0.014764914
-0.07737144 0.048328448 -0.008110559 -0.02725527 0.027451731 -0.14136174 -0.04508903 0.10539904
0.15328161 -0.07106407 0.06437881 0.026907207 0.011235471 -0.21601161 0.0012725376 0.041733023
0.056185704 -0.21646933 -0.044357862 -0.084363066 -0.0032290367 -0.14982255 0.22244887 0.10790695
0.06940935 0.08850691 -0.08489735 0.08300831 0.083195575 -0.1358648 0.12826379 -0.035151336
-0.087994285 -0.07519464 0.09147491 -0.1834528 -0.058308315 0.03276183 0.116320364 -0.15034908
0.100348204 -0.08665576 0.06220278 -0.07216142 0.122342035 0.020869235 0.018496422 0.011195113
-0.08432862 0.069310874 0.048719794 -0.052449718 0.08867036 -0.04205533 0.008830205 -0.07049554
0.03558925 0.016806196 -0.055953622 0.02236789 -0.018303301 0.11760372 0.061697636 -0.20928806
0.17608872 -0.071867205 0.18607317 -0.039514754 0.010892541 0.15227854 0.2043363 -0.16400662
-0.13943638 0.020263493 0.021015648 0.12171379 0.028220376 0.13264957 0.070612974 0.0346139
-0.123953484 -0.109570704 0.10809424 0.086451404 -0.060638536 -0.0021658794 -0.0896975 0.23306113
0.07227077 -0.132093 -0.0704854 -0.12427655 0.0064281584 0.18469456 -0.044300515 0.079778194

l2.bias f4 [100]
00000000: 3861 183d 1e2b aebc eddb 843c ebbf e43d
00000010: 9825 e73d cb90 9a3d 1761 923e b84d 673e
00000020: b0a6 d33d b67d 2d3e 7fa6 9ebc cb7e 053e
00000030: 69fe 803d c4f6 1fbe 7bc3 a83c b048 533e
00000040: 7ff0 91bc 6be5 f83d 690e 813c a83e 173e
00000050: 7aaa a43e 5303 e6bd c39d ac3d c67d ba3d
00000060: 7ed6 7d3c 84f8 7dbe da2a 9c3e 9334 343c
00000070: 6be1 a9be e4a2 2f3d 80bd 55bb a6fe 443d
00000080: 78c8 a1bd e286 0c3c d8fb 0ebc 16f2 18bd
00000090: 81ae 00be 0694 29bd d1e6 e3bd d214 0dbd
000000a0: ee0e 0bbe a5ec 5abd fe45 b1bd 7b48 30be
000000b0: 3899 133e 8abd 213e 9dbd b5bd cee8 913e
000000c0: f1b7 05be 8692 233e a85c 4ebe a8fa 693d
000000d0: 727c 1d3e 0029 f7bd 4651 9a3d 75c8 6d3c
000000e0: ae38 7fbd fe57 94bd 220e dcbc 6c7f 283d
000000f0: 31a9 583d eea4 113e 439f 2ebd 2cda c5bd
00000100: a548 193e 64a9 46bd 33a5 abbc d3f0 16be
00000110: 6dfa a13d 4ee4 7ebd 3a52 653e cb8f 933d
00000120: dc65 b4bd 8935 13be 25c4 81bd 9a43 0ebe
00000130: 4fa2 9dba bba3 983e 0d21 26bc 9ae3 843d
00000140: 72c9 9d3e 40bd d33c dbb5 bcbd 3be2 503d
00000150: eab3 0ebc 3151 83bd 73c0 123e baee cabd
00000160: 17da 0bbe f69c 1a3d 6788 bebc d85e 1b3d
00000170: 55d0 3c3d ef10 e03a 28a9 4a3b 54ad d0bd
00000180: c2cb 843e 372b e13c 6879 d23d d95b a8bc
0.03720209 -0.021260794 0.01621815 0.11169418 0.11286467 0.07547148 0.285897 0.22588241
0.103345275 0.16942486 -0.0193665 0.13036649 0.06298525 -0.15621477 0.020601025 0.20633197
-0.017814873 0.12153133 0.015753942 0.14769995 0.32161313 -0.11231103 0.08428528 0.09106021
0.015493033 -0.24801832 0.30501443 0.010998863 -0.33179793 0.042879954 -0.0032614172 0.048094414
-0.078995645 0.00857708 -0.008727036 -0.037340246 -0.12566568 -0.04140093 -0.11128009 -0.034443684
-0.13579914 -0.053448338 -0.08655928 -0.17215149 0.14413917 0.1579496 -0.088740565 0.28497928
-0.1305845 0.15973863 -0.20152533 0.05712381 0.15379503 -0.12068367 0.07535033 0.014513125
-0.062309913 -0.07243346 -0.026862208 0.041137144 0.05289573 0.14223072 -0.042632353 -0.096607536
0.14969118 -0.048501387 -0.020952797 -0.14740305 0.07909093 -0.062229447 0.22394648 0.07205161
-0.08808491 -0.14375891 -0.0633624 -0.13892975 -0.0012026521 0.29812416 -0.010139716 0.06488724
0.30817753 0.025847077 -0.09214374 0.050997 -0.008709887 -0.064119704 0.14331226 -0.09908815
-0.13657413 0.037747346 -0.023258401 0.037932247 0.04609712 0.001709489 0.003092358 -0.1018931
0.25936705 0.027486427 0.10277063 -0.020551609

l3.weight f4 [18, 100]
00000000: 825b 1bbd deeb 0b3e 7a20 df3c df2f a73c
00000010: 1a09 3fbd 35f9 fe3c 3e48 e63d 3542 92bd
00000020: 06b3 15be c60b a73e fa68 ce3d 57b5 173d
00000030: 0fe1 733e 6fc3 cc3b 0af7 d83c 3988 b23d
00000040: 7175 a0ba 71b8 303d e89c a53d cad3 703d
00000050: 3d13 be3d 39b6 883e 608d 333e d4a2 813d
00000060: 4763 c1bd f54d 143e c2d5 54be a02a 543d
00000070: ae06 d63d 706a 463e 322d 44be 0048 99bc
00000080: d1b3 b93d cc47 58bd 98f8 98be 8f4f b2bd
00000090: f0b8 353e 3117 063e b37d dcbd 0026 273e
000000a0: 9b66 db3c 9268 f6bd e429 de3d 3066 aabe
000000b0: 2b7f febd 1f0d bfbd dffe 98be 3e18 b0bd
000000c0: 35a2 6dbc 1d8d 1e3d 7a87 733d f705 ae3c
000000d0: de70 823e db82 15be 5689 c53d ee5b 913d
000000e0: f854 a0be d307 2b3e 329b 27be 4384 1c3c
000000f0: 2515 9bbb 3872 71bb 7f55 613e f3f6 3fbd
00000100: 2cd4 23be ef15 083d 0e77 bf3d e784 b03a
00000110: b8d1 c8bb 094b 573e b7f1 65bc 971f b2bd
00000120: 4e8a b7bd 05af a3bc a911 a1bd f86a 33be
00000130: b938 cb3d 2f7d 34be 2624 1cbd 41f8 9ebd
00000140: 41da 113e 6519 fc3d 9f54 da3c d473 123b
00000150: a452 b2bd d04a f73c 8b2c c33c 6b55 9e3d
00000160: 884f 333e 357a 563d 88d7 7e3d 99dd cabc
00000170: a912 393d 9cbb 0f3e 223a ce3c 3415 1d3e
00000180: 4793 29bd 3f5d 29bd bfef 273e a378 1d3e
00000190: 046e 113e a12b 1ebd bb67 823e 0ecd b53d
000001a0: 91c7 3d3e a772 50be 99c4 4abe 32dd 8fbd
000001b0: 58bb 59be afc9 1b3e 01bd 063c c5c5 10be
000001c0: c707 593e 5d1f 1bbd 4c23 7f3d c0f7 bfbd
000001d0: f49a 5ebc 4a3d 313e f609 d73e be6f 46be
000001e0: 5a26 aabe 330f bebd 3252 11bd 877f 653e
000001f0: b657 123e 560b 513d d49f aebd 6cdd bf3e
00000200: 4f1a 1abd 01c4 433e 8600 e8bd 798f a7bc
00000210: e378 a4bd bf4c 1dbe dc33 263e 2aac 633e
00000220: 189e 163c 0ab4 80bd b4b6 933d 3785 3b3e
00000230: c060 1ebe 6d87 a43c 0e4a 643d 8f45 2dbd
00000240: f138 623e 2082 0bbe f2d7 f03d 5238 2bbe
00000250: effb dbbb 501a ddbd 1b6e bd3c 0ea6 aabc
00000260: f9c1 223d 59ee 4b3c 7ba3 d53d d39b d7bc
00000270: ce64 65be d7a5 b13d 6a68 b6bd 75c9 6c3e
00000280: 76fa 11be 0b34 e03d 8545 44bd 1dbb 60bd
00000290: 05e6 473d 8ede d83c dd50 07be 950a a93c
000002a0: dbe1 3dbd 31b4 4f3e ae25 df3d 70cb 1f3d
000002b0: 36d6 b43d 3cb9 0f3e c800 9e3c 947e f03d
000002c0: 0bbb 02be 6f4e 15be 2a92 55be 2a5b 4f3e
000002d0: edfa 663e a84a 813d 3b4d ad3e 880e e1bb
000002e0: 9a97 0b3b 0478 083d 5c0c 66be 5423 c3bc
000002f0: 057d 443e 8ab7 333c d201 c63d d0f5 8ebd
00000300: 33d9 b83d 0a1e c93d 0b48 35be 0397 883e
00000310: 53eb a4be 6bca 873d 8a27 83be 70b6 133e
00000320: 22a8 ddbd 89a6 9ebd 60c3 2dbe 7577 803d
00000330: 26be 1ebe fc17 153b 9ada c0bd 8d4a 0c3e
00000340: c758 8cbd 3616 bd3e 7af4 ea3c 804e 62be
00000350: 72db 03be c384 423b df23 9d3d 1f43 283e
00000360: dc16 b2bc 0a05 573e 891b eebc db03 acbd
00000370: 258f 023e 5ec5 563e 83b7 fdbd ce4a 99be
00000380: 43c0 e73d 377d 58be caee 0fbd 4444 fabd
00000390: d96e dabc bfc2 d8bc b5bc afba c7fc 913d
000003a0: ba69 b2bc 69c3 3abd 2bc1 3e3e 7e94 a8bd
000003b0: b0d3 75be 91de 823d 9427 be3c b1cc b23b
000003c0: c146 51bd 3b31 4cbe 42ed 3abd 7e93 0bbd
000003d0: ff08 dd3d 3ecb ebbc 844e a53d c5df acbd
000003e0: 389f a2bd 6aa1 e23d b037 5f3d dc69 093e
000003f0: b1b3 863e 9798 0abe 293e aebd 6748 273d
-0.037929066 0.13664195 0.027237166 0.020408569 -0.04663954 0.03112469 0.11244248 -0.07141534
-0.14619073 0.3262617 0.100786164 0.037038174 0.23816322 0.0062488834 0.026484985 0.08717389
-0.0012242032 0.043144647 0.08086568 0.058795728 0.09281013 0.26701525 0.17534399 0.06329885
-0.09442764 0.14482863 -0.20784667 0.051798463 0.10450493 0.1937654 -0.19157866 -0.01871109
0.090675004 -0.052802846 -0.29877162 -0.08706581 0.1774633 0.13094784 -0.10766163 0.1632309
0.026782325 -0.12031664 0.10847834 -0.33281088 -0.12426599 -0.093286745 -0.2988195 -0.08598374
-0.014504005 0.038708795 0.059455372 0.021243079 0.25476736 -0.14600699 0.096453354 0.07097612
-0.31314826 0.16702203 -0.16367796 0.009553018 -0.0047327452 -0.0036841761 0.2200527 -0.04686637
-0.15998906 0.033224043 0.0934888 0.0013467342 -0.006128516 0.21024717 -0.01403468 -0.086974315
-0.089619264 -0.019980917 -0.078646965 -0.17521274 0.09922928 -0.17625879 -0.03812041 -0.077621944
0.14243414 0.12309531 0.026651679 0.002234687 -0.08707169 0.03018704 0.02382495 0.07731136
0.17510808 0.05236264 0.062217265 -0.02476387 0.04518381 0.14036411 0.025174204 0.1534012
-0.04140022 -0.041348692 0.1640005 0.1537805 0.14202124 -0.038615827 0.25469765 0.08877002
0.1853316 -0.20356236 -0.19801559 -0.070246115 -0.21262872 0.15213655 0.008223773 -0.14137943
0.21194373 -0.037871707 0.06228952 -0.093734264 -0.013586748 0.17308536 0.41999787 -0.19378564
-0.33232385 -0.09280243 -0.03547878 0.22411929 0.14291272 0.0510362 -0.085265785 0.3747362
-0.037622746 0.19117738 -0.11328225 -0.020454155 -0.0803087 -0.15361308 0.1623072 0.22233644
0.009192966 -0.0628434 0.07212582 0.18312536 -0.15466595 0.020084107 0.055734687 -0.042302664
0.22092034 -0.13623857 0.11759938 -0.16720703 -0.0067133824 -0.10796034 0.023123791 -0.020831134
0.039735768 0.012446963 0.10431572 -0.02631942 -0.22401735 0.086742096 -0.08906634 0.23123725
-0.142557 0.109474264 -0.04791786 -0.054865945 0.048803348 0.02647331 -0.1321444 0.020634929
-0.04635797 0.20283581 0.10895859 0.039012372 0.0882992 0.14035505 0.019287482 0.11742893
-0.12766664 -0.14580701 -0.20856538 0.2024962 0.22556658 0.06313068 0.33847985 -0.0068681873
0.0021300078 0.03331758 -0.22465652 -0.023820557 0.19188316 0.010969052 0.09668316 -0.06980479
0.090258025 0.098201826 -0.17703263 0.26677713 -0.32210788 0.06630405 -0.25616103 0.14425063
-0.108230844 -0.07746608 -0.16969061 0.062727846 -0.15502223 0.0022749892 -0.09416695 0.13700314
-0.068528704 0.36931008 0.028681029 -0.22100258 -0.1287668 0.0029681183 0.076728575 0.16431855
-0.021739416 0.20998016 -0.029065864 -0.08399173 0.12749918 0.20973727 -0.12388518 -0.29939884
0.11315968 -0.21141516 -0.035139836 -0.12220052 -0.026664184 -0.02646005 -0.001340768 0.071282916
-0.02177893 -0.045596514 0.18628375 -0.08231448 -0.24006534 0.063901074 0.023212232 0.00545653
-0.051092867 -0.19940655 -0.045636423 -0.034076206 0.107927315 -0.028783437 0.08071616 -0.08441118
-0.07940525 0.110659435 0.054496467 0.13419288 0.2630897 -0.13534771 -0.0850795 0.040840533

l3.bias f4 [18]
00000000: 2b23 123e 0965 0bbe 67fb debe 7a39 7cbd
00000010: c41a d1be 2c23 64be 6ae7 803d 4fa5 9e3c
00000020: f864 093e d873 3e3e 72c5 7b3d 8331 8c3e
00000030: c174 ecbe ab24 62bd 29b7 a33e 37f2 d4be
00000040: 0837 44bd 8e33 7cbe
0.14271228 -0.1361276 -0.4355118 -0.06157825 -0.40840733 -0.22279042 0.06294139 0.019365935
0.13417423 0.18598878 0.061467595 0.27381524 -0.46182826 -0.05521075 0.31975678 -0.41591045
-0.047904044 -0.24629042
