LARA/weight/g_2.pt (torch, 87399 bytes, 7 tensors)

G_attr_matrix.weight f4 [36, 5]
0	0x3e6842ab	0.22681682
1	0x3f0bd88a	0.5462729
2	0x3dd41c24	0.1035693
3	0xbe072511	-0.13197733
4	0xbeff1263	-0.49818715
5	0x3e755f0a	0.23962036
6	0xbe76c578	-0.24098766
7	0xbe752103	-0.23938374
8	0x3d8c002d	0.06835971
9	0xbe96635c	-0.2937268
10	0x3e868d58	0.26279712
11	0xbe422e72	-0.1896303
12	0xbeaf893a	-0.34284383
13	0xbcaedb32	-0.021344755
14	0x3e499eb3	0.19689445
15	0xbe6f0f69	-0.23345722
16	0x3d6af3c9	0.057361398
17	0xbd8f1398	-0.06986159
18	0xbde84eb7	-0.11343139
19	0xbe13e8ff	-0.1444435
20	0x3e366257	0.17810951
21	0xbb8e1e0b	-0.0043370775
22	0xbe21df11	-0.1580775
23	0x3e6ab61d	0.22921033
24	0x3d2c3c12	0.042049475
25	0x3db4fbe9	0.088371105
26	0x3e843062	0.25818163
27	0xbddaddf1	-0.10686863
28	0x3e94ac80	0.29037857
29	0xbd4526c3	-0.04813267
30	0xbe965d62	-0.2936812
31	0x3d9b63cb	0.075873934
32	0xbe3be289	-0.18348135
33	0xbe6142ac	-0.2199809
34	0xbe4292af	-0.19001268
35	0xbd940f7a	-0.072295144
36	0x3eb4b9c1	0.3529797
37	0x3c94a312	0.018144164
38	0x3dfb304d	0.12265072
39	0xbd661bb1	-0.056178752
40	0xbe5ebe21	-0.21752216
41	0xbe38f597	-0.18062435
42	0xbecc1545	-0.39859977
43	0x3e0cb375	0.13740332
44	0xbe1314c3	-0.14363389
45	0xbe86924f	-0.262835
46	0xbf2ea82e	-0.6822537
47	0xbe4b0501	-0.19826128
48	0x3d36578f	0.044517096
49	0xbebf1a30	-0.37324667
50	0x3e953675	0.2914311
51	0xbea1d294	-0.3160597
52	0x3e97afc4	0.29626286
53	0x3e876471	0.26443818
54	0x3e594a6f	0.212198
55	0xbc0a8131	-0.008453653
56	0x3ec23b34	0.37935793
57	0x3b506cd5	0.003180315
58	0x3e9e36b8	0.30901122
59	0x3e2b5df2	0.16735056
60	0xbd361676	-0.044455014
61	0xbe909053	-0.2823511
62	0x3eb8b5ff	0.36076352
63	0xbdbac664	-0.09119871
64	0xbd92717b	-0.07150551
65	0x3c86ded8	0.016463682
66	0xbe1885a3	-0.14894728
67	0x3e6a85f3	0.2290266
68	0xbe8bfdcf	-0.27342078
69	0xbd0516e1	-0.032492522
70	0x3f12dda9	0.57369477
71	0x3e584758	0.21120965
72	0x3e0ffd91	0.14061572
73	0x3e687663	0.22701411
74	0xbd325be1	-0.043544654
75	0x3e843796	0.2582366
76	0xbe5e9350	-0.21735883
77	0xbdddbd1b	-0.10827085
78	0x3cc8c3fa	0.024507511
79	0xbd78ad20	-0.06071198
80	0xbdaaf90f	-0.083482854
81	0x3e00e994	0.12589103
82	0xbd0f0a11	-0.03492171
83	0x3f00f977	0.50380653
84	0xbd8c3d18	-0.0684759
85	0x3e806441	0.25076488
86	0xbe62617e	-0.22107503
87	0xbcc011f0	-0.023446053
88	0xbe16725f	-0.14692067
89	0x3e4ce1b1	0.2000797
90	0x3e74e869	0.23916782
91	0x3ddb232b	0.10700067
92	0x3e812ba4	0.25228608
93	0x3d9ade98	0.07561988
94	0x3e639f52	0.22228745
95	0xbd600d9a	-0.05470047
96	0x3e14503b	0.1448373
97	0x3d105f8e	0.035247378
98	0x3dbce59b	0.09223481
99	0x3b507804	0.0031809816
100	0xbef36ffd	-0.47546378
101	0x3e5dd6ee	0.2166402
102	0xbb2ae7b3	-0.0026078045
103	0x3e24e1f2	0.16101816
104	0xbe504270	-0.20337844
105	0xbe5c9c39	-0.21543969
106	0x3d2957cf	0.041343506
107	0xbcdda026	-0.027053904
108	0xbe646a20	-0.22306108
109	0xbc2f1693	-0.010686534
110	0x3e64b73c	0.22335523
111	0x3d0896be	0.033346884
112	0xbf05029d	-0.5195711
113	0x3e42c018	0.1901859
114	0xbea60dbd	-0.32432356
115	0x3e3df3cb	0.18550031
116	0x3e8a1b28	0.26973844
117	0xbe40af82	-0.18816951
118	0x3d2cb047	0.0421603
119	0xbd96bf57	-0.07360714
120	0x3e2ba62d	0.1676261
121	0x3cdc98fd	0.02692842
122	0x3e8907fd	0.26763907
123	0x3d6940af	0.056946453
124	0xbbe26151	-0.0069085737
125	0xbe40e9fe	-0.18839261
126	0xbe81b39f	-0.25332353
127	0xbd86b492	-0.0657741
128	0xbda8a5b4	-0.0823473
129	0x3dae80c2	0.08520652
130	0xbc1748f8	-0.009233706
131	0xbe3b82a1	-0.1831155
132	0x3e6c585c	0.23080581
133	0xbe87dada	-0.26534158
134	0xbd8e419e	-0.06946109
135	0xbe7491a4	-0.23883682
136	0x3c655364	0.013996933
137	0xbd25eda6	-0.040509842
138	0x3dc561f9	0.096378274
139	0x3e2acabc	0.166789
140	0xbe56048f	-0.20900176
141	0xbe65b457	-0.22432075
142	0xbd9e6f38	-0.07736057
143	0x3d379464	0.04481925
144	0xbd33da35	-0.04390927
145	0xbe853791	-0.26018956
146	0xbe2ab9a3	-0.16672377
147	0xbb90bf36	-0.0044173254
148	0xbcb6a41a	-0.022295047
149	0x3ec3e285	0.38258758
150	0x3e9ee818	0.31036448
151	0xbe16abc9	-0.14713968
152	0x3ea65960	0.32490063
153	0xbd19b258	-0.037523597
154	0xbdbff4e1	-0.09372879
155	0x3e7befce	0.24603197
156	0x3e8664b6	0.2624871
157	0xbc89d819	-0.016826676
158	0xbe0f9967	-0.14023362
159	0x3d9ba9c8	0.076007426
160	0x3dfe0523	0.124033235
161	0xbe013109	-0.12616362
162	0xbec5c084	-0.3862344
163	0x3dd455ba	0.103679135
164	0x3e4560fe	0.19275281
165	0xbe43d2ba	-0.19123355
166	0x3ec9c91e	0.39411253
167	0xbe6a8088	-0.22900593
168	0x3ddd8b87	0.10817628
169	0x3ac1235e	0.0014735272
170	0xbe4f41e7	-0.20239983
171	0x3cefaa34	0.029255964
172	0x3d2ead26	0.042645596
173	0xbb9412fa	-0.0045188637
174	0xbe676190	-0.22595811
175	0xbea18c7c	-0.31552494
176	0x3de16524	0.11005619
177	0xbed0e849	-0.4080222
178	0x3ebff874	0.37494242
179	0x3e450fc2	0.19244292

l1.weight f4 [100, 90]
0	0x3e2e7bbb	0.17039387
1	0xbc0ddb4a	-0.00865824
2	0x3d585971	0.052819673
3	0xbd15150d	-0.03639703
4	0x3d81ecbf	0.06343984
5	0xbde7296d	-0.11287198
6	0x3d569061	0.052383784
7	0x3e7532b0	0.23945117
8	0xbd8516d4	-0.06498495
9	0x3d86e092	0.06585802
10	0x3d0186a0	0.03162253
11	0x3dd89953	0.10576119
12	0xbdf12fcd	-0.117766954
13	0xbd84ed4e	-0.06490575
14	0x3cf95783	0.030437237
15	0xbe2dca87	-0.1697179
16	0x3d8e547b	0.06949707
17	0x3e054b02	0.13016894
18	0x3c3dfaee	0.011595471
19	0x3ce60784	0.028079756
20	0xbe0294c7	-0.12752067
21	0xbd080049	-0.033203397
22	0x3e35ee34	0.17766649
23	0x3d42ae05	0.04752924
24	0xbe34c952	-0.17654923
25	0xb9eb90dd	-0.00044930624
26	0xbd22c8fa	-0.039742447
27	0x3d8d73bd	0.06906841
28	0x3d10fa9e	0.035395257
29	0xbd3dea60	-0.046366096
30	0x3e407502	0.18794635
31	0x3e069810	0.13143945
32	0x3c302cf3	0.010752904
33	0x3de20463	0.11035993
34	0x3d313c3c	0.043270335
35	0x3ca94f72	0.020667765
36	0x3e54cf0c	0.20782107
37	0xbdabb3f1	-0.083839305
38	0x3db08fff	0.08621215
39	0x3d4aad0f	0.049481448
40	0x3d1f1f31	0.038848106
41	0x3c927552	0.017878208
42	0xbe5317e9	-0.2061459
43	0x3ce51a08	0.027966514
44	0x3e448104	0.1918984
45	0x3dbaa443	0.09113362
46	0xbda1dc4b	-0.07903346
47	0x3d3f76e4	0.046744242
48	0x3cfad516	0.030619185
49	0x3dadc34a	0.08484514
50	0xbd3ddf28	-0.046355397
51	0x3e01a68d	0.1266119
52	0xbc2bf61c	-0.010495689
53	0x3d48e3d8	0.049045414
54	0x3d61d270	0.05513233
55	0x3d084569	0.03326932
56	0x3cc60c15	0.024175683
57	0x3e16a76d	0.14712305
58	0xbd66ad6f	-0.056317743
59	0x3d0d6632	0.03452129
60	0xbe077db6	-0.13231549
61	0x3d6150de	0.05500876
62	0x3d155272	0.03645558
63	0x3da1e0ac	0.07904181
64	0x3d81ba7e	0.06334399
65	0xbca40877	-0.020023568
66	0xbcc51e10	-0.024062186
67	0x3d920548	0.071299136
68	0xbd2cf592	-0.04222638
69	0xbbb84891	-0.005623885
70	0x3d7ba727	0.061438706
71	0xbe20e510	-0.1571238
72	0x3cc0d2b5	0.023537973
73	0x3a307671	0.00067315163
74	0xbd931bbe	-0.07183026
75	0xbc5d665c	-0.013513174
76	0x3df605b2	0.12012805
77	0xbd1218ce	-0.035668187
78	0xbd7a5ae6	-0.061121844
79	0xbcda749b	-0.02666693
80	0x3d072b29	0.033000145
81	0x3da0e54f	0.07856237
82	0x3e7e02d9	0.24805774
83	0xbe737c84	-0.23777968
84	0xbb686144	-0.0035458365
85	0xbe4bbbf8	-0.19895923
86	0x3d6d8e9a	0.057997324
87	0xbb61aac3	-0.0034434057
88	0xbd69580c	-0.056968734
89	0xbdcbcf3d	-0.09951637
90	0x3e203af3	0.15647487
91	0xbd539316	-0.051653944
92	0x3dbb81ca	0.09155615
93	0x3d621fb1	0.055206005
94	0xbdd12225	-0.10211591
95	0x3c9291d0	0.017891794
96	0xbe11572c	-0.1419341
97	0x3b0bc69a	0.0021328093
98	0xbdc6fd07	-0.0971623
99	0xbde8bca0	-0.11364102
100	0x3dc2da91	0.095143445
101	0x3e3aa9b3	0.18228798
102	0xbe05eccf	-0.13078617
103	0xbd25e17c	-0.04049824
104	0xbd57a663	-0.052648913
105	0xbda381b4	-0.07983723
106	0xbd881d4a	-0.066462114
107	0xbbd82e15	-0.0065972903
108	0xbe2fbae2	-0.17161134
109	0x3d2363cd	0.0398901
110	0x3b6690e3	0.0035181574
111	0x3e08572c	0.13314503
112	0x3dd93c2b	0.10607179
113	0x3e0713b2	0.13191107
114	0x3e688920	0.22708559
115	0xbc9186e4	-0.017764516
116	0xbe09f1c8	-0.13471138
117	0xbd439801	-0.047752384
118	0xbd8bae13	-0.068203114
119	0x3dfe570a	0.12418945
120	0xbcb32319	-0.021867322
121	0xbcd96ff6	-0.026542645
122	0xbd25d3a4	-0.04048504
123	0xbdc3ebc6	-0.095664546
124	0xbc046d80	-0.008082747
125	0x3c53fe98	0.012939118
126	0xbc9c72c6	-0.019097697
127	0xbbbba22c	-0.0057261195
128	0xbe2ec454	-0.1706708
129	0xbdad28ac	-0.08455023
130	0xbccce78d	-0.025012756
131	0xbd3f51ad	-0.04670875
132	0xbda0b9a2	-0.07847907
133	0x3da08a1a	0.07838841
134	0x3dee15ab	0.116252266
135	0x3d398b03	0.045298588
136	0x3c5187a3	0.012788686
137	0x3d286887	0.04111531
138	0x3dee0f8d	0.1162406
139	0x3d4b8c7c	0.049694523
140	0x3d80b55b	0.06284591
141	0x3d24fdd1	0.04028112
142	0x3d85ee0f	0.06539547
143	0xbdd30a9a	-0.103047565
144	0xbeb3a4fd	-0.35086814
145	0xbd78a07a	-0.060699917
146	0x3d86f45a	0.06589575
147	0x3e699073	0.22809009
148	0x3d5c87d5	0.053840477
149	0x3d9e34a3	0.077248834
150	0xbc9991b3	-0.018746233
151	0x3dc55299	0.09634895
152	0x3da954ba	0.082681134
153	0x3d3e1617	0.046407785
154	0x3cc2f9fa	0.023800839
155	0x3e04c1ee	0.12964603
156	0xbe30fe51	-0.17284514
157	0xbbe464c3	-0.0069700195
158	0x3d98e8c4	0.074662715
159	0x3dca913c	0.098909825
160	0x3dbb800c	0.091552824
161	0xbdb02d70	-0.086024165
162	0xbe333087	-0.1749898
163	0xbe25ac1b	-0.16178934
164	0x3da97a75	0.0827531
165	0xbcea92dc	-0.028634481
166	0x3c7edade	0.015555112
167	0xbd340011	-0.043945376
168	0x3d315dc9	0.04330233
169	0xbe157e6b	-0.14599006
170	0xbdeb7fba	-0.11498971
171	0xbcca5835	-0.024700264
172	0x3e4be486	0.19911394
173	0xbc17fc3e	-0.009276448
174	0x3dd7bc7e	0.10533999
175	0xbd3e6acd	-0.046488572
176	0xbce7b489	-0.028284328
177	0xbe9d898c	-0.30769002
178	0x3e0abee7	0.13549386
179	0x3d8d71e4	0.069064885
180	0x3e61db1d	0.22056241
181	0xbdf00285	-0.117192306
182	0x3e003099	0.12518539
183	0x3dde319f	0.10849308
184	0x3e14e006	0.14538583
185	0xbe67b15b	-0.2262625
186	0x3d545c23	0.05184568
187	0xbdc8c0d7	-0.09802406
188	0x3bd2da70	0.006434731
189	0x3d9f1f27	0.07769614
190	0x3ca6ebf8	0.02037619
191	0xbce3f6e4	-0.027827688
192	0x3d3e39d3	0.046441864
193	0x3c3a73e3	0.011380169
194	0xbd72c76e	-0.059272222
195	0xbe65b22a	-0.22431245
196	0xbdc67a96	-0.0969135
197	0xbbbd76df	-0.005781993
198	0x3dd70ee6	0.105008885
199	0x3c541718	0.012944959
200	0xbc8be5d3	-0.017077362
201	0xbe401ca8	-0.18760931
202	0xbd100552	-0.035161324
203	0x3e2a6eb3	0.16643791
204	0x3c4d3c7c	0.012526628
205	0x3dd950a7	0.10611086
206	0xbd88195e	-0.066454634
207	0xbe569121	-0.209538
208	0x3aebc973	0.0017989114
209	0xbcf7e8c8	-0.030262366
210	0xbd989045	-0.07449392
211	0x3e11cb9b	0.14237826
212	0x3d5e3a65	0.054254908
213	0xbc12884e	-0.00894363
214	0xbe09d1ef	-0.1345899
215	0xbd82d1b7	-0.06387656
216	0x3d9f77e0	0.07786536
217	0x3da8bc75	0.0823907
218	0x3d86e020	0.06585717
219	0x3d1bdf00	0.038054466
220	0xbc648690	-0.013948098
221	0x3d912aa7	0.070882134
222	0x3b33d212	0.0027438444
223	0x3d0e4029	0.034729157
224	0xbdf033e8	-0.1172865
225	0x3e09ba2c	0.13449925
226	0x3c321db0	0.010871336
227	0x3d838346	0.06421523
228	0xbe39e289	-0.18152823
229	0xbd3908d4	-0.045174435
230	0x3d9850ec	0.074373096
231	0xbd1882d7	-0.037234154
232	0x3d8d224c	0.06891307
233	0xbcb1f544	-0.021723397
234	0xbe11ca14	-0.14237243
235	0x3dc8dcb8	0.09807724
236	0x3da79864	0.08183363
237	0x3d740cc5	0.05958249
238	0x3dd7a912	0.105302945
239	0xbd5d0b7c	-0.05396603
240	0xbdf03e18	-0.117305934
241	0xbd2d0cff	-0.042248722
242	0xbe5e2c14	-0.21696502
243	0x3dd61bc8	0.104545176
244	0xbde9fa76	-0.11424725
245	0x3ca53cd5	0.020170609
246	0x3dcefbe0	0.10106635
247	0xbd872f76	-0.06600849
248	0xbe06b4ea	-0.1315495
249	0x3d79aeab	0.060957592
250	0xbdf84b21	-0.12123705
251	0xbca22dd4	-0.019797243
252	0xbb7da992	-0.0038705808
253	0x3de0b245	0.10971502
254	0xbcc3739f	-0.023858843
255	0xbc5048bb	-0.012712653

l1.bias f4 [100]
0	0x3dac0162	0.08398701
1	0x3e362bc0	0.17790127
2	0xbe016cf5	-0.1263922
3	0xbd7e3c8b	-0.062069457
4	0x3e169abd	0.14707465
5	0x3e0be265	0.13660581
6	0x3d90e8b1	0.07075632
7	0x3e48ef88	0.19622624
8	0x3c6365b1	0.013879226
9	0xbdde2241	-0.10846377
10	0xbc92f865	-0.01794071
11	0xbf092eb7	-0.53586906
12	0x3d9f6f1c	0.07784864
13	0xbe641ec3	-0.2227736
14	0xbd90022c	-0.07031664
15	0x3e1f6615	0.15566285
16	0x3e031e3b	0.12804501
17	0x3dff5b00	0.12468529
18	0xbe59b178	-0.21259105
19	0xbbd6ef07	-0.006559256
20	0xbe3b8dcc	-0.1831581
21	0x3ea2cfba	0.31799108
22	0x3e2a2d94	0.16618949
23	0x3e10776e	0.14108059
24	0xbe8b83c2	-0.2724896
25	0xbd95d84b	-0.07316645
26	0xbe3b2a86	-0.1827794
27	0xbdd43902	-0.10362436
28	0x3e72415b	0.23657744
29	0xbe99071d	-0.2988824
30	0xbd914577	-0.070933275
31	0xbd7cae04	-0.06168939
32	0xbd9b8492	-0.07593645
33	0x3e661b4f	0.22471355
34	0x3d2509ce	0.040292554
35	0xbcc0a0db	-0.023514202
36	0x3df488ff	0.119401924
37	0x3e4bf234	0.19916612
38	0x3d1fd355	0.0390199
39	0x3c8b9712	0.01703981
40	0xbe0a72a6	-0.13520297
41	0xbe44ffd3	-0.19238214
42	0x3ddbfc90	0.10741532
43	0x3e353eb7	0.17699705
44	0xbd512cf6	-0.05106827
45	0x3df61258	0.120152175
46	0xbe9a20a6	-0.30103034
47	0x3db411f3	0.08792486
48	0x3ddd04c7	0.10791927
49	0x3de30a37	0.11085933
50	0xbdb4c8f2	-0.0882739
51	0x3e568cd8	0.20952165
52	0xbdc8a1f3	-0.09796514
53	0xbe46b752	-0.19405869
54	0x3d352370	0.04422325
55	0xbd70bcb8	-0.058773726
56	0xbe2644c5	-0.16237171
57	0x3e0a5742	0.13509849
58	0xbc5f17b1	-0.013616488
59	0x3e415f1e	0.1888394
60	0x3dbf3fcb	0.093383394
61	0x3c690301	0.014221908
62	0xbe239351	-0.15974165
63	0xbdd819a3	-0.10551765
64	0xbe00813d	-0.125493
65	0xbce05bca	-0.027387518
66	0x3d0d31d2	0.03447134
67	0xbdeb3b3c	-0.114859074
68	0x3d84ead1	0.064901
69	0x3db6d173	0.08926668
70	0x3d28d079	0.04121444
71	0x3d221f81	0.039580826
72	0xbe5c8650	-0.21535611
73	0xbc2c7274	-0.010525335
74	0xbe358791	-0.17727496
75	0x3d1b770b	0.037955325
76	0x3ddfab41	0.10921336
77	0xbe316071	-0.17321946
78	0xbe022d7b	-0.12712662
79	0xbe3899aa	-0.18027368
80	0xbd4b0a67	-0.049570467
81	0x3c5cdd2c	0.013480466
82	0x3ec0def7	0.3767011
83	0x3d46676e	0.048438482
84	0x3e608ca0	0.21928644
85	0x3e0a13f2	0.13484171
86	0xbe7b1d47	-0.24522887
87	0x3e5ae90b	0.21377961
88	0x3e0a675c	0.13515991
89	0x3d076ac7	0.033060815
90	0xbe0c6b9a	-0.13712922
91	0x3d5fe38a	0.054660358
92	0xbe79925f	-0.24372242
93	0x3ccf1f62	0.02528352
94	0x3d933b38	0.071890295
95	0x3d959944	0.07304624
96	0x3ca54b7e	0.020177599
97	0xbd514392	-0.05108983
98	0xbca9ebcc	-0.02074232
99	0x3e2dc860	0.16970968

l2.weight f4 [100, 100]
0	0xbda1f9fc	-0.07909009
1	0x3cedd3cf	0.029031662
2	0x3d5caab3	0.05387373
3	0xbdba1ef4	-0.09087935
4	0x3e33dff2	0.17565897
5	0xbcab6b11	-0.020925077
6	0xbe2701b4	-0.16309243
7	0x3e208c33	0.15678482
8	0x3d06f644	0.0329497
9	0xbd027882	-0.031853206
10	0x3a368df1	0.00069639
11	0xbc69d5cc	-0.014272165
12	0xbe3f1885	-0.18661697
13	0x3de97032	0.11398353
14	0x3d1a7499	0.037708852
15	0x3d3e911b	0.046525102
16	0x3cdef63a	0.02721702
17	0x3c809d3f	0.01569998
18	0xbd6b6fec	-0.057479784
19	0x3d53d3e3	0.051715743
20	0xbd208b1f	-0.039195176
21	0x3e00cee2	0.1257892
22	0x3d2d33b6	0.042285644
23	0xbe9fc0d4	-0.31201804
24	0x3d5ba25b	0.05362163
25	0x3e08ac54	0.13346988
26	0xbcbdb7c0	-0.023158908
27	0xbc07ed19	-0.008296275
28	0x3dad6996	0.084674045
29	0x3d431e1c	0.047636136
30	0x3db615d0	0.08890879
31	0x3c007f91	0.007842914
32	0xbe90bd7f	-0.28269574
33	0x3c4f3f80	0.012649417
34	0x3dbea97f	0.093096726
35	0x3de84d57	0.113428764
36	0xbdbd41fb	-0.092411004
37	0x3cb64843	0.022251254
38	0xbba91819	-0.0051603434
39	0xbe06874a	-0.13137546
40	0x3d9687e1	0.073501356
41	0xbe2cb9db	-0.16867773
42	0xbe1dbf7f	-0.15405081
43	0x3afab509	0.0019127439
44	0xbcda462a	-0.026644785
45	0xbe4bc809	-0.19900526
46	0xbd44d180	-0.048051357
47	0x3e159f5b	0.1461157
48	0xbc2d62a2	-0.010582598
49	0x3d832684	0.06403831
50	0xbe4b5820	-0.19857836
51	0xbe1539c4	-0.14572817
52	0xbd39575f	-0.04524934
53	0x3b67b67d	0.0035356574
54	0xbcb9dabf	-0.022687314
55	0xbe23aae6	-0.15983161
56	0xbc657456	-0.014004787
57	0xbc62f146	-0.013851469
58	0xbce7efbe	-0.02831256
59	0x3db620f1	0.08893002
60	0xbd217e63	-0.039427172
61	0xbdf8d097	-0.1214916
62	0xbe344fe4	-0.17608601
63	0x3d87ff85	0.06640533
64	0x3e0914ce	0.13386843
65	0xbd1e615a	-0.03866706
66	0xbd42a59a	-0.04752121
67	0xbe4a1d11	-0.1973765
68	0x3e0a0670	0.13479018
69	0x3d43844b	0.047733586
70	0xbcdb6c6b	-0.026785096
71	0x3c3287ed	0.010896665
72	0x3d0f4566	0.034978293
73	0x3cb604fe	0.022219177
74	0x3c235a6d	0.00997029
75	0x3ca6831c	0.02032619
76	0xbce546f7	-0.02798794
77	0x3d28afc5	0.041183252
78	0x3e0e3a49	0.13889422
79	0x3d934c5d	0.071922995
80	0xbc1fbd70	-0.009749755
81	0xbdb60e6b	-0.08889469
82	0x3dd3aadb	0.103353225
83	0xbb0e3da2	-0.0021704216
84	0x3dcaa262	0.09894253
85	0xbcc0f6af	-0.023555128
86	0xbe14ca72	-0.14530352
87	0xbbd74bac	-0.0065703
88	0xbdf88d12	-0.12136282
89	0xbd882473	-0.06647577
90	0x3d80c7ec	0.06288132
91	0x3d64ffb4	0.05590792
92	0x3da4a743	0.08039715
93	0xbda8061a	-0.08204289
94	0xbc85c5b2	-0.01632962
95	0xbd2b630c	-0.041842505
96	0x3d32833b	0.043582182
97	0x3c2a1c4d	0.010382724
98	0xbdfbea7e	-0.12300585
99	0xbe23dd5f	-0.16002415
100	0x3d99fd1a	0.075189784
101	0xbe38cc6d	-0.18046732
102	0xbdb2d60c	-0.087322325
103	0x3d0cef18	0.034407705
104	0xbda772e6	-0.08176212
105	0xbd98b10d	-0.07455645
106	0x3bcc4b75	0.006234581
107	0x3ac9d05b	0.0015397178
108	0x3e315662	0.17318109
109	0xbac273da	-0.0014835552
110	0x3dce3463	0.10068586
111	0x3b519d9c	0.0031984812
112	0x3e29ffd1	0.16601492
113	0x3cfff3aa	0.031244118
114	0xbde9be3c	-0.114132375
115	0xbdcb46bf	-0.09925603
116	0x3dd401fe	0.103519425
117	0xbc446f54	-0.011989433
118	0x3d218b24	0.039439335
119	0xbd0600e3	-0.03271569
120	0x3bd3f939	0.0064689186
121	0xbd418184	-0.047242656
122	0x3b7dce59	0.003872773
123	0xbdb290f0	-0.08719051
124	0x3d88458d	0.06653891
125	0x3e085fac	0.13317746
126	0x3db4d76a	0.088301495
127	0xbd2d17a4	-0.042258874
128	0x3cf67f9e	0.03009015
129	0x3c298427	0.010346449
130	0x3e2b5b11	0.16733958
131	0xbc3c696c	-0.011499744
132	0xbe1be691	-0.15224673
133	0x3d21714d	0.039414693
134	0x3c100e4a	0.008792469
135	0xbd2750bb	-0.040848475
136	0xbc3f17b1	-0.011663363
137	0x3c2b56ab	0.010457675
138	0x3be7d5e3	0.007075058
139	0xbd686dd9	-0.056745384
140	0xbdd6e3ca	-0.10492666
141	0x3d56b425	0.052417893
142	0xbe05b370	-0.13056731
143	0x3e20f7bd	0.15719505
144	0x3d95cbb7	0.07314246
145	0xbd87690e	-0.066118345
146	0xbdc2b590	-0.095072865
147	0xbd1184d3	-0.03552706
148	0x3d957894	0.07298389
149	0xbce3e19c	-0.02781754
150	0xbdc835cc	-0.09775886
151	0xbe814132	-0.25245053
152	0xbd86b134	-0.065767676
153	0xbd6e05a2	-0.05811084
154	0x3e1b460b	0.15163438
155	0x3bb90e73	0.0056474744
156	0xbd6547f5	-0.055976827
157	0x3ba47745	0.005019101
158	0xbda034f3	-0.07822599
159	0x3e337345	0.1752444
160	0x3d39df9a	0.04537926
161	0xbe84c264	-0.25929558
162	0xbe1447f3	-0.14480571
163	0xbd140668	-0.036138922
164	0x3ce7ffe4	0.02832026
165	0x3d721edd	0.059111465
166	0x3d21be98	0.039488405
167	0x3a7b62e3	0.00095896254
168	0xbdad2e3a	-0.08456083
169	0x3bbfb81f	0.0058508064
170	0x3e291a7a	0.16514006
171	0xbe414309	-0.18873228
172	0x3dd2837d	0.10278986
173	0x3dc35127	0.09536963
174	0x39aef6d3	0.00033371765
175	0x3c409b78	0.011755817
176	0xbd829744	-0.06376508
177	0xbd3febf9	-0.0468559
178	0xbd513626	-0.05107703
179	0xbe227a0f	-0.15866874
180	0x3df40e19	0.119167514
181	0x3d6fc778	0.058539838
182	0xb8f845a6	-0.000118385346
183	0x3c8e035a	0.017335583
184	0xbd11d1ca	-0.03560046
185	0xbd80db03	-0.06291773
186	0xbd6103f5	-0.054935414
187	0x3d038302	0.03210736
188	0x3e0f0298	0.13965833
189	0x3e1f8ca5	0.15580995
190	0x3c90cca3	0.017675703
191	0x3d8a80a6	0.06762819
192	0xbd08ead0	-0.03342706
193	0x3dad43c1	0.08460189
194	0x3e06a20f	0.13147758
195	0xb9c77a3a	-0.00038047304
196	0xbcc203c6	-0.02368344
197	0xbe2f7839	-0.17135705
198	0xbe40cc63	-0.18827967
199	0xbe508d41	-0.20366384
200	0x3e20bea8	0.1569773
201	0x3c0ac2ec	0.008469325
202	0xbcded388	-0.027200475
203	0xbd811bf9	-0.063041635
204	0xbdbc95be	-0.092082486
205	0x3d654ae1	0.055979613
206	0xbe0f7ab0	-0.14011645
207	0xbd1f6872	-0.038917966
208	0x3e3dad4c	0.18523139
209	0xbdcfdbdb	-0.10149356
210	0xbd9263b7	-0.07147925
211	0x3c59d0b3	0.013294387
212	0x3d945195	0.07242123
213	0xbca9a7d5	-0.020709911
214	0x3db50a41	0.088398464
215	0x3cb9adc5	0.022665868
216	0xbd4f1c74	-0.050564244
217	0xbd7a5702	-0.061118133
218	0xbe0aebc7	-0.13566504
219	0x3d07115c	0.03297554
220	0xbc835505	-0.016031751
221	0xbd934603	-0.07191088
222	0xbd482add	-0.048869003
223	0x3dccff42	0.10009624
224	0x3e768453	0.24073915
225	0x3d8a363a	0.06748624
226	0x3dd7a167	0.10528832
227	0x3dcde606	0.10053639
228	0x3c1402b5	0.0090338485
229	0xbd098141	-0.03357053
230	0xbcea11ef	-0.028573005
231	0x3e0f2eaa	0.13982645
232	0x3c9ab162	0.01888341
233	0xbcf467cc	-0.02983465
234	0x3b4d2fc8	0.0031308997
235	0x3df43e40	0.11925936
236	0x3d8047ff	0.06263732
237	0x3e267464	0.16255337
238	0xbd7f9ad0	-0.0624035
239	0xbd806819	-0.06269855
240	0x3c5f57a7	0.013631738
241	0x3aa32c4e	0.0012449117
242	0xbc666ada	-0.014063561
243	0x3c6fb897	0.014631412
244	0x3b5e99f6	0.003396628
245	0xbcdb4909	-0.026768224
246	0xbda9a20a	-0.082828596
247	0x3e07150c	0.13191622
248	0x3ce85dc9	0.028365033
249	0xbd3e16fd	-0.046408642
250	0x3d4eb6a4	0.05046715
251	0x3e3f880f	0.18704246
252	0x3d8c0cba	0.06838365
253	0x3c753df0	0.01496838
254	0xbdf74e92	-0.12075533
255	0xbddfaa32	-0.10921134

l2.bias f4 [100]
0	0x3dae4f7b	0.085112534
1	0x3b9ba9ae	0.004750452
2	0x3e262092	0.16223362
3	0xbe0b2463	-0.13588099
4	0xbcbf52cb	-0.023354908
5	0xbe3eccf0	-0.18632865
6	0xbdd0f3e0	-0.102027655
7	0xbe7fdbe3	-0.24986224
8	0xbde1615b	-0.11004897
9	0xbe6f7114	-0.2338298
10	0xbe2aeae7	-0.1669117
11	0x3cf8bb6a	0.030362803
12	0x3d4d0b97	0.05005988
13	0xbc0892d4	-0.008335788
14	0x3e0d2bb1	0.13786198
15	0xbdb1e499	-0.0868618
16	0x3e3a9043	0.18219094
17	0xbd38afea	-0.04508964
18	0xbd81790f	-0.06321918
19	0xbe297a8c	-0.16550654
20	0x3cafa9d8	0.021443292
21	0x3e305598	0.17220151
22	0xbcbd5d3c	-0.023115747
23	0xbdc3803e	-0.09545945
24	0x3e2a6677	0.1664065
25	0x3dbc24d5	0.09186713
26	0xbe227e9d	-0.15868612
27	0xbe477425	-0.194779
28	0x3cac1ef5	0.021010855
29	0x3c3607a6	0.011110222
30	0x3dac0305	0.083990134
31	0xbe9d39ca	-0.30708152
32	0xbe43110d	-0.19049473
33	0x3ddb45a9	0.10706646
34	0x3e0a6ceb	0.13518111
35	0x3d93c512	0.072153226
36	0xbde133bd	-0.109961964
37	0x3d3205ff	0.04346275
38	0xbdebb179	-0.115084596
39	0x3e2fb884	0.17160231
40	0xbe9b579b	-0.30340275
41	0x3c611198	0.013737105
42	0xbe01364f	-0.12618373
43	0x3e531d37	0.20616613
44	0x3e1f497a	0.15555373
45	0xbe5f67ec	-0.21816987
46	0x3e1d0588	0.15334141
47	0xbddde022	-0.108337656
48	0x3da0eb9f	0.07857441
49	0x3ddb6170	0.10711944
50	0x3d8105b4	0.06299916
51	0x3e05ccbc	0.13066381
52	0xbe41fc4e	-0.18943903
53	0xbd62ae75	-0.055342156
54	0xbca165bf	-0.019701837
55	0x3e865a50	0.26240778
56	0xbe70708f	-0.23480438
57	0x3d5195e2	0.05116833
58	0xbddb4c65	-0.107079305
59	0xbe4a3be4	-0.19749409
60	0xbe814b3a	-0.25252706
61	0xbc03ef01	-0.008052588
62	0xbdc75417	-0.09732836
63	0xbdbbe59e	-0.091746554
64	0x3d804471	0.06263054
65	0xbd9d3e4b	-0.07677897
66	0xbec4c95f	-0.38434884
67	0x3b83c2c9	0.004021023
68	0x3e515537	0.20442663
69	0x3ed0e828	0.4080212
70	0xbd8be820	-0.06831384
71	0xbd918df8	-0.071071565
72	0xbd9339b5	-0.07188741
73	0xbdfcbeb1	-0.12341059
74	0xbe9b3689	-0.30315045
75	0xbe5e97f3	-0.21737652
76	0x3dfc2824	0.12312344
77	0xbd9a55c9	-0.075358935
78	0xbd9fc3c8	-0.07801014
79	0x3de5e38b	0.11225041
80	0x3da02616	0.07819764
81	0xbc1fb6fd	-0.009748218
82	0xbdcd439b	-0.1002266
83	0x3e6b3490	0.2296927
84	0xbd64e47a	-0.055881955
85	0xbd24056c	-0.040044233
86	0x3e2a36ea	0.1662251
87	0xbe9a851a	-0.30179673
88	0x3cb5ae05	0.022177706
89	0xbe4c1aa8	-0.19932044
90	0xbd846fd4	-0.06466642
91	0xbe4a9e7d	-0.19787021
92	0x3cd0632b	0.025437912
93	0x3e28d51e	0.16487548
94	0xbcb23231	-0.021752449
95	0x3e698b46	0.22807035
96	0x3e00a0e3	0.12561373
97	0xbe2be4ba	-0.16786471
98	0x3d660272	0.056154676
99	0xbd42f8eb	-0.047600668

l3.weight f4 [18, 100]
0	0x3cb2fe5b	0.021849802
1	0x3e31f016	0.17376742
2	0xbd0610b0	-0.03273076
3	0xbdae65cf	-0.08515512
4	0x3d704adf	0.058665153
5	0x3e1064aa	0.141009
6	0x3dcdfaaf	0.1005758
7	0xbdcea9b9	-0.10090966
8	0x3e80c0f8	0.25147223
9	0x3bd15646	0.0063884584
10	0x3e35cb49	0.17753328
11	0x3caf7f20	0.021422923
12	0x3d2cbce4	0.042172328
13	0xbe85e75d	-0.2615308
14	0x3d40d3a9	0.047076855
15	0x3d177c20	0.03698361
16	0xbdfd1511	-0.12357534
17	0xbd2688ea	-0.040657915
18	0xbd31ba30	-0.043390453
19	0x3dbf7159	0.09347791
20	0x3d3f77ff	0.046745297
21	0xbd5053e3	-0.05086125
22	0x3dfa162a	0.12211259
23	0x3dbd4323	0.09241321
24	0xbdb852e8	-0.09000188
25	0xbda3f5c5	-0.08005861
26	0xbcbce683	-0.023059135
27	0x3e091a6b	0.13388984
28	0x3dda9456	0.10672824
29	0x3e848f03	0.2589036
30	0xbbdce232	-0.006740832
31	0xbd0a0d06	-0.033703826
32	0x3e2c6277	0.16834436
33	0x3e2e7921	0.17038395
34	0x3d956481	0.0729456
35	0x3e2a2cd6	0.16618666
36	0x3dd7adaa	0.10531171
37	0x3c68b2e4	0.014202807
38	0xbd00e3ab	-0.03146712
39	0xbd148404	-0.036258712
40	0x3b4e9e7a	0.0031527565
41	0xbc517406	-0.01278401
42	0x3bfc886e	0.0077066934
43	0x3d054d60	0.032544494
44	0x3e060aa7	0.13090001
45	0x3cf2668e	0.029589918
46	0x3e3bb930	0.18332362
47	0x3d6a3f11	0.05718905
48	0x3d8eabcd	0.06966362
49	0x3de64432	0.11243476
50	0xbdda21df	-0.10650992
51	0xbdb1d5b8	-0.08683342
52	0x3deda24d	0.11603222
53	0xbdeb0dc6	-0.114772364
54	0xbe587408	-0.21138012
55	0x3c91e155	0.017807642
56	0x3dcc7434	0.099831015
57	0x3e7e6594	0.24843436
58	0x3e615423	0.22004752
59	0x3d96dda2	0.07366492
60	0x3c24825a	0.010040844
61	0x3e561df6	0.20909867
62	0xbcd3f8d6	-0.02587549
63	0xbdda4a5a	-0.10658713
64	0xba6ad5fa	-0.00089582766
65	0x3e17095e	0.14749667
66	0x3dc233de	0.09482549
67	0xbe4215cc	-0.18953627
68	0xbd9287b4	-0.071547896
69	0xbe4ce2f6	-0.20008454
70	0x3e8300b7	0.25586483
71	0xbe5fd85c	-0.21859878
72	0xbd373a0e	-0.0447331
73	0x3e12f5ad	0.1435153
74	0xbdc505e4	-0.09620264
75	0xbe2db45e	-0.16963336
76	0xbe0c32c6	-0.13691244
77	0x3e12009a	0.14258042
78	0x3d8cff04	0.06884578
79	0x3e08e03d	0.1336679
80	0x3cd2a273	0.025712227
81	0xbe511714	-0.2041896
82	0xbe2ca4ae	-0.16859695
83	0x3e7b14fe	0.24519727
84	0xbd9db6e9	-0.07700903
85	0xbc8e8ed8	-0.017402098
86	0xbdc3aaad	-0.09554038
87	0xbd93c735	-0.0721573
88	0xbe48733c	-0.19575208
89	0x3cf3281b	0.02968221
90	0xbd8955cf	-0.0670582
91	0xbc6c6ed8	-0.014430724
92	0xbe0986cd	-0.13430329
93	0x3d6e8f08	0.058241874
94	0x3eb052bc	0.3443812
95	0x3e529e84	0.20568281
96	0xbd6926c9	-0.056921754
97	0xbd265a55	-0.04061349
98	0x3da50c08	0.080589354
99	0xb6f86404	-7.4026193e-06
100	0xbda918ed	-0.08256707
101	0xbd8e568c	-0.06950101
102	0xbbb32c16	-0.005467902
103	0x3e12803f	0.14306735
104	0xbd03bab8	-0.03216049
105	0xbcaf30a1	-0.021385493
106	0xbd3a0e21	-0.04542363
107	0xbe2a8ed8	-0.16656053
108	0xbdee815f	-0.11645769
109	0x3e1d8914	0.15384322
110	0xbcb34ffc	-0.021888725
111	0x3e8ae410	0.27127123
112	0x3c84cfb3	0.01621232
113	0xbdb9139a	-0.09036942
114	0x3e649f2a	0.22326341
115	0xbc74104f	-0.014896466
116	0xbcc01fd5	-0.023452679
117	0xbd62fb7c	-0.055415615
118	0x3e87c4b1	0.2651725
119	0x3e1fb0fb	0.15594856
120	0xbcfc4530	-0.03079471
121	0xbdcb36e4	-0.09922579
122	0x3bfa1926	0.0076323925
123	0x3daea328	0.08527213
124	0x3eab94cd	0.33511963
125	0x3d26230f	0.04056078
126	0xbcbb0bdf	-0.022832809
127	0xbe64d001	-0.22344972
128	0x3c8e6156	0.017380398
129	0x3cdecfc0	0.027198672
130	0x3da6cdd7	0.081447296
131	0xbd902274	-0.070378214
132	0xbe02fc4c	-0.12791556
133	0xbdc2b3ea	-0.09506972
134	0x3cfc977f	0.030833958
135	0xbd12251e	-0.03567993
136	0x3dde1f1b	0.10845777
137	0x3d2f2f85	0.042769928
138	0xbd333723	-0.043753754
139	0x3dccc579	0.099986024
140	0xbe2b2f08	-0.1671716
141	0xbce4f206	-0.027947437
142	0x3d2bc5c9	0.04193667
143	0x3d589d2d	0.05288427
144	0xbdb9294f	-0.09041082
145	0x3dbe3eda	0.09289332
146	0x3e48e978	0.19620311
147	0x3da83869	0.082138844
148	0xbd78568f	-0.060629424
149	0xbe76fa87	-0.24119006
150	0xbdefb19d	-0.11703799
151	0x3d10c177	0.035340752
152	0x3d75ed5b	0.060040813
153	0x3e2593de	0.16169688
154	0x3e01fc2f	0.12693857
155	0x3dd53828	0.104111016
156	0x3dbb1d8b	0.09136494
157	0x3d91cbeb	0.071189724
158	0x3dcc8441	0.09986163
159	0x3e0664e3	0.13124423
160	0xbe2af8d4	-0.16696483
161	0x3c2f7388	0.010708697
162	0xbd92970e	-0.07157718
163	0xbba18051	-0.0049286266
164	0x3e12d21d	0.14337964
165	0xbdc2a0c4	-0.0950332
166	0xbcaeb192	-0.021324906
167	0xbe5980a0	-0.21240473
168	0x3e44c26c	0.19214791
169	0xbe35ef54	-0.17767078
170	0x3e7efe77	0.24901758
171	0xbe2a12e6	-0.16608772
172	0x3dec80a0	0.11547971
173	0x3ddd3aa3	0.108022
174	0x3e1da255	0.15393956
175	0xbe4fc529	-0.20290054
176	0x3d859e30	0.065243125
177	0x3cef7e7f	0.029235123
178	0xbe431db3	-0.19054298
179	0xbda211b0	-0.0791353
180	0xbe1a2f5f	-0.15057133
181	0x3e24d02a	0.16095033
182	0x3d9aa82f	0.0755161
183	0xbc18fb70	-0.009337291
184	0xbabc9889	-0.0014388721
185	0x3cb0c8ae	0.021580067
186	0xbe09e696	-0.13466868
187	0xbcb14e01	-0.02164364
188	0xbd7f2bac	-0.062297508
189	0xbc1d42fa	-0.009598488
190	0x3ec9b011	0.3939214
191	0x3e0938a0	0.13400507
192	0xbd7ee86a	-0.062233366
193	0xbc9356eb	-0.017985782
194	0xbe1a7dbc	-0.15087026
195	0x3da88a18	0.08229464
196	0x3e4c5093	0.19952612
197	0x3d3bebbd	0.045879114
198	0xbe2155f4	-0.15755445
199	0x38aa4636	8.1193095e-05
200	0x3d8b303e	0.06796311
201	0xbc3bc7f2	-0.011461245
202	0xbe2b7ec4	-0.16747576
203	0xbd2a2bca	-0.041545667
204	0x3e311599	0.17293395
205	0x3e971ad6	0.29512662
206	0xbdce7871	-0.10081566
207	0xbe21a906	-0.15787134
208	0x3cef1852	0.029186402
209	0x3d5a8344	0.05334784
210	0xbe3c9135	-0.18414767
211	0x3d389293	0.04506166
212	0xbda31f35	-0.07964937
213	0xbd6039ec	-0.05474274
214	0xbcdd2075	-0.026993016
215	0x3d7f31aa	0.062303223
216	0x3e7e2afb	0.24821083
217	0x3e6e95ab	0.23299281
218	0xbd89788c	-0.067124456
219	0xbdbe43e9	-0.092902966
220	0x3e8df7f9	0.2772825
221	0xbd8283ed	-0.06372819
222	0xbe1b40a4	-0.15161377
223	0x3e4975d1	0.1967385
224	0x3c9339b8	0.017971858
225	0x3e0e6db3	0.13909034
226	0xbd9ffc9c	-0.07811853
227	0x3da06234	0.07831231
228	0x3d89edbd	0.06734798
229	0xbc94783f	-0.018123744
230	0x3e033b34	0.12815553
231	0xbe00130b	-0.12507264
232	0x3dd45794	0.10368267
233	0xbe1078e8	-0.14108622
234	0xbd208e1a	-0.03919802
235	0x3ca2d43a	0.019876588
236	0xbc945122	-0.018105093
237	0xbd8155fc	-0.06315228
238	0xbd6cc762	-0.057807334
239	0xbd786483	-0.06064273
240	0x3e2a8184	0.16650969
241	0x3c88bfa5	0.016692946
242	0xbd450fe4	-0.048110858
243	0x3c48f556	0.012265524
244	0x3e116ad8	0.14200914
245	0x3e141e2c	0.14464635
246	0x3e0f8708	0.14016354
247	0x3c51f9d5	0.012815912
248	0x3e55f2e5	0.20893438
249	0x3db1d585	0.08683304
250	0x3cddd4b6	0.027078968
251	0xbd025ee7	-0.031828787
252	0xbe0e08bd	-0.13870521
253	0xbc59088c	-0.013246667
254	0x3cfdfff9	0.031005846
255	0x3d698754	0.057013825

l3.bias f4 [18]
0	0xbec7aa66	-0.3899719
1	0xbed89d6d	-0.42307606
2	0x3f0cd84e	0.55017555
3	0x3ed9f975	0.42573133
4	0x3ebd5b6d	0.36983815
5	0xbe1cc064	-0.15307766
6	0x3e9e1e08	0.30882287
7	0x3e344b3a	0.17606822
8	0xbec4aef0	-0.38414717
9	0xbe702075	-0.23449881
10	0xbe811b98	-0.25216365
11	0x3df8a7d5	0.121413864
12	0x3e00bdc8	0.12572396
13	0x3e486923	0.19571356
14	0xbdc29c8d	-0.09502516
15	0xbea6604b	-0.3249534
16	0xbee51a01	-0.44746402
17	0x3f3ce4ca	0.73786604
