LARA/weight/g_20.pt (torch, 87399 bytes, 7 tensors)

G_attr_matrix.weight f4 [36, 5]
0	0x3d6cbb5e	0.057795875
1	0x3e087620	0.13326311
2	0x3e6e5e8b	0.23278253
3	0x3e5e90b3	0.21734886
4	0xbe3df16b	-0.18549125
5	0xbdb6d1f3	-0.089267634
6	0xbca573da	-0.020196844
7	0xbdd7df18	-0.10540599
8	0x3e39cc9e	0.18144462
9	0xbe165305	-0.14680107
10	0xbe44bf67	-0.19213639
11	0xbe620ebf	-0.22075938
12	0x3e105121	0.14093448
13	0xbeee65d3	-0.4656206
14	0xbb2060dd	-0.0024471798
15	0x3d8d703e	0.06906174
16	0x3ede17c5	0.4337751
17	0x3e6108b3	0.21975975
18	0xbe943103	-0.28943643
19	0x3e14d1e3	0.1453319
20	0x3e84b5d7	0.25919983
21	0xbeac3a4f	-0.33638236
22	0x3e051d02	0.12999347
23	0xbe30052d	-0.17189474
24	0xbe52ad33	-0.20573883
25	0x3ce887c5	0.028385052
26	0x3c2e2c6c	0.010630708
27	0x3eb7634a	0.3581794
28	0x3d6eea4d	0.058328915
29	0x3eaed434	0.34146273
30	0x3e815da5	0.25266758
31	0xbf0f293e	-0.55922306
32	0x3e37f9d9	0.17966403
33	0xbd91df08	-0.07122618
34	0x3e558d29	0.2085463
35	0xbe791e8c	-0.24328059
36	0xbd8ad9f5	-0.06779853
37	0x3daf5882	0.085618034
38	0x3e73e295	0.23816903
39	0x3dd9ea5c	0.10640404
40	0xbeb14457	-0.34622452
41	0x3e3a7942	0.18210319
42	0xbe8b0464	-0.27151787
43	0xbde5c297	-0.11218756
44	0x3efdac84	0.4954568
45	0x3e7fccfa	0.24980536
46	0x3e5304f4	0.20607358
47	0xbe8c19a3	-0.2736331
48	0xbe997acd	-0.29976502
49	0x3d07ee41	0.0331862
50	0x3c1ca784	0.009561423
51	0xbd8e8e35	-0.069607176
52	0x3e74dc1c	0.2391209
53	0xbc9805fa	-0.018557537
54	0xbe51ee4a	-0.20501056
55	0xbd7507ae	-0.059821777
56	0x3e39ca0b	0.1814348
57	0xbe53731f	-0.20649384
58	0x3de25c6c	0.11052784
59	0xbe0f3427	-0.13984738
60	0x3f1ac5fe	0.6045836
61	0xbe577f21	-0.2104459
62	0x3e19a30f	0.15003608
63	0x3e926f69	0.28600624
64	0x3c23f8a8	0.010008015
65	0x3dbe6b28	0.09297782
66	0xbe073b04	-0.13206106
67	0xbd054040	-0.032531977
68	0xbe0fd4ee	-0.1404607
69	0x3d8061ac	0.062686294
70	0xbe912be8	-0.2835381
71	0xbc90595e	-0.017620739
72	0xbe496786	-0.19668397
73	0xbedf46ae	-0.43608612
74	0x3e6fa434	0.23402482
75	0xbdf6d510	-0.12052357
76	0x3d2408ee	0.04004758
77	0xbd276c15	-0.04087456
78	0x3dc0388a	0.09385784
79	0xbe225e48	-0.15856278
80	0x3e10c21e	0.1413655
81	0xbed37873	-0.41302833
82	0xbe65450f	-0.22389625
83	0xbe4e93e0	-0.20173597
84	0xbeaebc9e	-0.34128278
85	0xbd402bbb	-0.046916705
86	0xbec1ca4f	-0.37849662
87	0x3b0aca52	0.0021177721
88	0xbe8aaf44	-0.27086842
89	0x3e3643e0	0.1779933
90	0x3dbd9c93	0.0925838
91	0xbec2d9b9	-0.38056734
92	0xbe319a84	-0.173441
93	0x3e202812	0.15640286
94	0x3dc7d9f0	0.09758365
95	0xbc60943c	-0.013707217
96	0xbd94ff61	-0.07275272
97	0x3e9a600c	0.30151403
98	0xbee27657	-0.4423091
99	0xbe4f7542	-0.20259574
100	0x3e0fd93a	0.14047709
101	0xbd3aca02	-0.045602806
102	0x3e76c33a	0.2409791
103	0x3e2a6d11	0.16643168
104	0x3e37cfd8	0.1795038
105	0x3d06c7c3	0.03290535
106	0x3e3c357c	0.18379778
107	0x3db767df	0.08955359
108	0x3e023d1e	0.12718627
109	0x3e4de7c0	0.20107937
110	0xbea6699e	-0.32502455
111	0x3e846a8f	0.25862548
112	0xbdbf6442	-0.093452945
113	0x3e17781a	0.14791909
114	0xbd743948	-0.05962494
115	0x3e38958e	0.180258
116	0x3e6e29f2	0.23258188
117	0x3e4e9bf2	0.20176676
118	0x3d6c1487	0.057636764
119	0xbe7404d5	-0.23829968
120	0x3e1bca20	0.15213823
121	0xbe426e0d	-0.18987294
122	0x3e238ff5	0.15972884
123	0x3daa6087	0.083191924
124	0xbd9ef88e	-0.07762252
125	0x3ef05964	0.469432
126	0xbe288a34	-0.1645897
127	0x3e99fbe9	0.30075005
128	0x3e2b0e31	0.16704632
129	0x3dca660f	0.098827474
130	0x3c340c00	0.010989189
131	0x3dac727b	0.08420273
132	0x3cadcb03	0.021214968
133	0xbe669977	-0.2251948
134	0xbcd1db1e	-0.025617179
135	0x3e5ed027	0.21759091
136	0xbe553c92	-0.20823887
137	0x3d3e6775	0.046485383
138	0x3ba32f21	0.0049799834
139	0xbcdb6289	-0.026780384
140	0x3e756e69	0.239679
141	0xbe137191	-0.14398791
142	0xbd329399	-0.04359779
143	0x3cfd922c	0.03095349
144	0x3e57beff	0.21068953
145	0xbd5179a6	-0.051141404
146	0x3cd2d0af	0.025734274
147	0x3df7e898	0.121049106
148	0xbbd7814e	-0.0065766936
149	0x3c441296	0.011967322
150	0x3e0e0bdf	0.13871716
151	0x3e1aa5aa	0.15102258
152	0x3b7f1ab4	0.0038925828
153	0xbf042f8c	-0.5163505
154	0x3e852fb0	0.26012945
155	0xbddd542b	-0.108070694
156	0x3e80624d	0.25074998
157	0x3e11c3f7	0.14234911
158	0x3e0cbb9f	0.13743447
159	0xbe17276a	-0.14761129
160	0x3de757a5	0.11296014
161	0x3dd737b2	0.1050867
162	0xbe502b4b	-0.20329015
163	0xbcb4a71c	-0.02205234
164	0xbe2b66ef	-0.16738485
165	0xbde26469	-0.11054308
166	0x3e3ebf3b	0.18627636
167	0x3e57ba24	0.21067101
168	0xbc891884	-0.016735323
169	0x3d9a42a3	0.07532241
170	0x3daf44fb	0.08558079
171	0xbdc94f5a	-0.09829588
172	0xbc0a78d0	-0.0084516555
173	0xbce3d55a	-0.027811695
174	0x3d85b2f5	0.06528274
175	0x3e33fd7a	0.17577162
176	0xbe66ba27	-0.22531949
177	0x3c8af180	0.01696086
178	0xbd6b2ca2	-0.057415612
179	0x3dbcbc38	0.092155874

l1.weight f4 [100, 90]
0	0xbd9d5b9b	-0.07683488
1	0xbe3a75ad	-0.18208952
2	0x3e4cfa73	0.20017414
3	0xbcbd392a	-0.023098547
4	0xbdda3002	-0.10653688
5	0xbcf4fce0	-0.029905736
6	0x3d46ad0d	0.048504878
7	0x3e0c3628	0.13692534
8	0xbdbaae64	-0.091152936
9	0xbd13a75f	-0.03604829
10	0x3e188f5f	0.14898442
11	0x3def318f	0.116793744
12	0xbdf18448	-0.11792809
13	0xbd0bfaa7	-0.034174588
14	0x3d6b7f2f	0.05749434
15	0xbe2002aa	-0.15626016
16	0xbdcde2c1	-0.100530155
17	0x3a657d2a	0.00087543076
18	0xbd8f7db0	-0.07006395
19	0xbe2b844c	-0.16749686
20	0x3dc12786	0.094313666
21	0xbd02c59b	-0.031926733
22	0x3d0ae484	0.033909336
23	0xbe1af3ef	-0.15132116
24	0xbe231564	-0.15926129
25	0xbc5fbcbf	-0.01365584
26	0xbe742c56	-0.23845038
27	0x3e21d0f5	0.15802367
28	0x3d4feb5c	0.050761566
29	0x3e33ec56	0.17570624
30	0x3d93a377	0.07208913
31	0xbb42319b	-0.0029631618
32	0x3d2db428	0.04240814
33	0x3de548b9	0.11195511
34	0x3dc53ec3	0.096311115
35	0x3e26860d	0.16262074
36	0x3d2280f9	0.03967378
37	0x3e49ced4	0.19707805
38	0x3d6b8f97	0.057509985
39	0xbbab7926	-0.005232948
40	0xbdc45929	-0.095873185
41	0x3e0c1862	0.13681176
42	0x3dba2d79	0.090907045
43	0xbc936478	-0.017992243
44	0xbe7335b2	-0.23750952
45	0xbd390234	-0.045168117
46	0x3d26bf90	0.040710032
47	0x3d70db4e	0.058802895
48	0xbd22580f	-0.03963476
49	0x3d41d682	0.04732371
50	0xbe6d9022	-0.23199514
51	0xbe275696	-0.16341624
52	0x3e0ad35d	0.13557191
53	0xbdee1a97	-0.11626165
54	0x3d5c16b9	0.053732608
55	0xbd99676e	-0.07490431
56	0x3d6926aa	0.05692164
57	0x3d2a9dd2	0.041654415
58	0x3e4fef29	0.20306076
59	0xbe303199	-0.1720642
60	0x3c59a5ab	0.013284127
61	0x3dc81ae3	0.09770753
62	0xbd892e63	-0.06698301
63	0x3da0b20e	0.07846461
64	0xbce71c2f	-0.028211681
65	0xbd6b0646	-0.05737903
66	0x3d5c96ce	0.053854756
67	0xbdd31c9a	-0.1030819
68	0x3dae6d0e	0.08516894
69	0xbdced325	-0.100988664
70	0xbdb03df1	-0.086055644
71	0xbb02065e	-0.001984022
72	0xbddf4006	-0.109008834
73	0x3ce9ddd9	0.028548168
74	0x3d9fcb96	0.07802503
75	0xbde656c1	-0.11247016
76	0xbc90fdc3	-0.017699128
77	0xbd7e91bf	-0.062150713
78	0xbd2dbbd2	-0.042415448
79	0x3dcbce90	0.09951508
80	0xbe40b4cf	-0.18818973
81	0x3dc3de16	0.09563844
82	0xbd60d8e3	-0.05489434
83	0x3c64c726	0.013963496
84	0x39aa8014	0.00032520352
85	0xbda25496	-0.0792629
86	0x3d7f5781	0.06233931
87	0xbe239816	-0.15975985
88	0xbc18bd2e	-0.009322448
89	0x3d275e77	0.040861573
90	0xbe1e85fe	-0.15480801
91	0xbc3a21df	-0.011360615
92	0xbdefd518	-0.11710566
93	0x3e17ac26	0.14811763
94	0xbda81def	-0.082088344
95	0x3d2c8154	0.042115524
96	0xbd591275	-0.052996118
97	0x3e08544c	0.13313407
98	0xbc5792ab	-0.013157527
99	0xbe2f51bb	-0.17121021
100	0x3df3787b	0.11888214
101	0xbc369471	-0.01114379
102	0xbc5f554d	-0.013631177
103	0x3c28f9d9	0.010313475
104	0x3b9909cc	0.0046703573
105	0xbe238f84	-0.15972716
106	0xbdb500cc	-0.088380426
107	0x3e0408d2	0.1289399
108	0x3e171094	0.14752418
109	0x3da0bb39	0.0784821
110	0xbda6f63c	-0.08152434
111	0xbc99019f	-0.01867753
112	0x3e0f4ea1	0.13994838
113	0xbdf563a5	-0.11981896
114	0x3d9f48c8	0.07777554
115	0xbd6c370d	-0.057669688
116	0x3cb5150f	0.022104768
117	0xbca72296	-0.020402234
118	0x3e60072a	0.21877733
119	0xbe1b1f23	-0.15148596
120	0xbdaca923	-0.08430698
121	0x3d80c53e	0.06287621
122	0x3ab5f3a7	0.0013881818
123	0x3b8187a9	0.0039529395
124	0xbc7cf52c	-0.015439313
125	0x3e0ba047	0.1363536
126	0xbe0657a8	-0.13119376
127	0x3c0531aa	0.008129517
128	0x3db2cbe6	0.08730297
129	0xbdcb76bf	-0.099347584
130	0x3db580d1	0.088624604
131	0x3cfd570d	0.030925298
132	0xbcda3095	-0.026634494
133	0x3e07e0dd	0.13269372
134	0xbdbe2a7f	-0.09285449
135	0x3d6d9703	0.058005344
136	0x3d2a00f5	0.04150482
137	0x3d2bbf2c	0.041930363
138	0xbde5bcaa	-0.112176254
139	0xbe058425	-0.1303869
140	0x3dbabd47	0.09118133
141	0x3e1d23ec	0.15345734
142	0xbd8a2fc1	-0.067473896
143	0xbd8d494e	-0.068987474
144	0xbe0894c7	-0.13338004
145	0x3d472771	0.0486216
146	0xbd8aae68	-0.067715466
147	0x3df64a55	0.120258965
148	0xbcbf3ac2	-0.023343448
149	0x3cbaae43	0.022788173
150	0x3e6fc925	0.23416574
151	0x3e30b661	0.17257072
152	0xbd9a54c3	-0.07535698
153	0xbdadb8e1	-0.084825285
154	0xbd19452b	-0.03741948
155	0xbe3fa9d1	-0.18717124
156	0xbe85459e	-0.26029676
157	0x3c6cd9bf	0.014456212
158	0xbd5b54ff	-0.053547855
159	0xbe420d51	-0.18950392
160	0x3e196d4c	0.149831
161	0x3e0956e3	0.13412051
162	0xbc92697d	-0.017872566
163	0xbd75823b	-0.05993865
164	0x3d8d8ce9	0.06911642
165	0xbe1ac915	-0.15115769
166	0xbdac24b6	-0.084054396
167	0xbe176d35	-0.14787753
168	0x3daba85c	0.083817214
169	0xbdb4a5b5	-0.088206686
170	0xbe169e1a	-0.14708748
171	0xbdffd7bc	-0.1249232
172	0x3e6581a1	0.22412731
173	0x3d8762d9	0.066106506
174	0x3d3c9c9c	0.04604779
175	0x3e0f2977	0.13980661
176	0x3d7bdb83	0.06148864
177	0xbdbefb62	-0.09325291
178	0xbd1bfb11	-0.038081232
179	0xbd0817bc	-0.03322576
180	0xbcf80cf2	-0.03027961
181	0xbd976622	-0.07392527
182	0xbd8c497f	-0.06849956
183	0xbe16a102	-0.14709857
184	0xbd397ec6	-0.045286916
185	0x3d6a4755	0.057196934
186	0x3dfd721f	0.123752825
187	0x3c1e6b11	0.009669081
188	0x3db622ab	0.08893331
189	0xbc2e1af2	-0.010626541
190	0x3c859ce1	0.016310157
191	0x3e61a261	0.22034599
192	0x3d85a1fd	0.065250374
193	0xbcd5bf18	-0.026092097
194	0xbde2cf5d	-0.11074708
195	0xbc3ebb79	-0.011641377
196	0x3dc70531	0.09717787
197	0x3de96876	0.113968775
198	0xbddd09f7	-0.10792916
199	0xbdbe5832	-0.09294166
200	0xbdb7fe95	-0.089841045
201	0x3ce84755	0.028354326
202	0xbd3fb2cd	-0.046801377
203	0x3c9be196	0.019028466
204	0xbb64ba59	-0.003490111
205	0x3df1012f	0.11767804
206	0x3daa0e2a	0.08303483
207	0x3e2fff2c	0.17187184
208	0x3c389fc3	0.011268559
209	0x3e308fc8	0.17242348
210	0x3e0cf261	0.13764335
211	0xbe20c918	-0.15701711
212	0x3bb2e931	0.0054599275
213	0xbdacc3d5	-0.084357895
214	0x3da4476b	0.080214344
215	0x3d9f0bf1	0.077659495
216	0x3c9f784a	0.019466538
217	0x3dbd1b33	0.092337035
218	0x3e0997f2	0.13436869
219	0xbdcd24b2	-0.10016765
220	0x3d9bb07a	0.076020196
221	0xbb3345ef	-0.0027354916
222	0xbd62f2f8	-0.055407494
223	0x3dbc1af4	0.091848284
224	0x3d0e7508	0.03477958
225	0xbbc75494	-0.0060830805
226	0xbe247eee	-0.16064045
227	0xbe43d5d7	-0.19124542
228	0x3dd14e00	0.102199554
229	0xbd3a84e9	-0.04553691
230	0xbb763ed7	-0.0037574077
231	0xbd793dfe	-0.060850136
232	0xbdd4af37	-0.10384982
233	0xbc8ce24a	-0.017197747
234	0x3e89c53f	0.269083
235	0xbd6cd750	-0.057822526
236	0x3e55f472	0.2089403
237	0xbe06df38	-0.13171089
238	0xbc5eb224	-0.013592277
239	0x3d78f3bf	0.06077933
240	0x3e02867d	0.12746616
241	0xbd87dfca	-0.06634481
242	0x3cdbd34f	0.026834158
243	0xbd80f167	-0.06296044
244	0x3dce12dd	0.10062192
245	0xbd95399d	-0.072863795
246	0x3d2cc7f5	0.04218288
247	0xbd3ec4d4	-0.04657443
248	0xbb89cb5f	-0.004205152
249	0xbdc0554f	-0.09391271
250	0x3cd94225	0.026520798
251	0xbdab7062	-0.08371045
252	0x3d117b81	0.035518173
253	0xbd522cf2	-0.051312394
254	0x3de9785c	0.1139991
255	0xbd8a1501	-0.067422874

l1.bias f4 [100]
0	0x3b55c83f	0.0032620577
1	0x3cb1662c	0.021655165
2	0x3e6ec41d	0.23316999
3	0x3e20d10f	0.1570475
4	0xbc6c7751	-0.014432744
5	0xbe59ee56	-0.21282324
6	0xbdf92d6a	-0.12166865
7	0x3d746c19	0.059673402
8	0xbe2b6bd3	-0.1674035
9	0xbd8861ee	-0.066593036
10	0xbd9605a0	-0.07325292
11	0x3e89ad0b	0.26889834
12	0xbdd46eb4	-0.103726774
13	0x3da1ce46	0.07900672
14	0x3a18f81d	0.00058353116
15	0x3d8034a5	0.06260041
16	0xbdca472b	-0.098768555
17	0xbd9b2fbe	-0.075774655
18	0x3e2486a0	0.1606698
19	0x3cc3527a	0.023843039
20	0x3d04a564	0.03238429
21	0x3e2d08dc	0.16897911
22	0xbcebffda	-0.028808523
23	0xbe5891c2	-0.21149352
24	0xbe377d60	-0.1791892
25	0x3e59425c	0.2121672
26	0x3e2d4ed2	0.16924599
27	0xbc8917c4	-0.016734965
28	0xbdbc87a1	-0.09205557
29	0xbd8ce9eb	-0.06880554
30	0x3dd4b3d5	0.10385863
31	0x3d03580b	0.032066386
32	0xbc8fc76a	-0.017551143
33	0x3eed3d83	0.46335992
34	0x3e184ee6	0.14873847
35	0x3c746afb	0.014918084
36	0xbe670e10	-0.22563958
37	0x3e2c6bc8	0.1683799
38	0x3cdc2475	0.026872853
39	0x3d08c9c0	0.03339553
40	0x3e0135e3	0.12618212
41	0x3da08112	0.07837118
42	0xbdbb070e	-0.09132205
43	0xbc23eba5	-0.0100049125
44	0xbd28edf7	-0.041242566
45	0x3e6414f7	0.22273622
46	0xbe60d1d6	-0.21955046
47	0xbe9bf2fd	-0.30458823
48	0x3e8926f3	0.26787528
49	0x3e1fdb61	0.1561103
50	0x3dde57a6	0.10856561
51	0xbe2948f7	-0.1653174
52	0xbd26e4ae	-0.04074543
53	0xbda2518c	-0.0792571
54	0xbbd18ee3	-0.0063952073
55	0xbc94c7b5	-0.018161634
56	0xbe6a321f	-0.22870682
57	0x3d399a5e	0.04531323
58	0x3e8bc75f	0.27300546
59	0x3ccd929b	0.025094321
60	0x3e207c6f	0.15672468
61	0xbc639ef1	-0.013892875
62	0x3df2267b	0.11823746
63	0xbd73376a	-0.05937902
64	0xbdffb0d3	-0.124848984
65	0xbda8c2e0	-0.082402945
66	0x3c4ee6f3	0.012628305
67	0xbd8f8ee7	-0.07009678
68	0xbda042dc	-0.078252524
69	0x3e40c877	0.18826471
70	0x3e477e9a	0.19481888
71	0x3d49b5f2	0.049245782
72	0xbdf1619e	-0.11786197
73	0xbdd4e9a6	-0.103961274
74	0x3dbc2e73	0.09188547
75	0x3dd6ef08	0.1049481
76	0xbe727c7e	-0.23680303
77	0xbceace20	-0.028662741
78	0x3d1d39be	0.038385145
79	0x3cb90338	0.022584543
80	0xbdb273b3	-0.08713474
81	0xbd0096f3	-0.031393956
82	0xbe2ec539	-0.17067422
83	0x3cf55ceb	0.029951533
84	0x3e7aa547	0.24477111
85	0xbd280b81	-0.041026596
86	0xbdd81907	-0.105516486
87	0x3d9f0dc2	0.07766296
88	0xbddac130	-0.10681379
89	0xbce89da2	-0.028395478
90	0xbd5b6115	-0.05355938
91	0x3d306241	0.043062452
92	0x3c35d271	0.011097536
93	0xbdfbfe82	-0.12304403
94	0xbe897d06	-0.26853198
95	0xbd0c6f3b	-0.034285765
96	0x3d2ca9ad	0.042154003
97	0xbeb364a4	-0.3503772
98	0xbd8e0d77	-0.06936162
99	0xbdb04729	-0.08607323

l2.weight f4 [100, 100]
0	0xbe27a73a	-0.16372386
1	0x3e87436b	0.26418623
2	0xbd3ce4b4	-0.046116546
3	0x3dc1db4f	0.09465658
4	0x3dbead25	0.093103684
5	0x3e228697	0.15871654
6	0x3c01cd9d	0.007922557
7	0x3d640087	0.055664565
8	0xbcac39f5	-0.02102373
9	0x3db11d6f	0.08648192
10	0xbdd0e91d	-0.10200713
11	0x3d5ead59	0.054364536
12	0x3b985ef5	0.0046499916
13	0xbd708c21	-0.058727387
14	0xbcb099ee	-0.021557774
15	0x3e268fc2	0.16265777
16	0x3d7ac2e4	0.06122102
17	0x3cd5e77b	0.026111355
18	0xbdcff637	-0.10154384
19	0xbda33dea	-0.079707935
20	0x3c8729fc	0.016499512
21	0xbcbe854c	-0.02325692
22	0xbdbef7b2	-0.09324588
23	0x3ca97e92	0.020690236
24	0xbccb6a5f	-0.024830995
25	0x3d45dd50	0.048306763
26	0xbda0875b	-0.07838317
27	0xbb858963	-0.0040752157
28	0xbdfcc2d2	-0.123418465
29	0xbe0a37df	-0.13497876
30	0xbe25207e	-0.16125676
31	0xbd88bfed	-0.06677232
32	0x3e1d1a27	0.15342008
33	0xbb9f8215	-0.004867802
34	0x3e007fbe	0.1254873
35	0x3e243100	0.16034317
36	0xbcd2a2d1	-0.025712403
37	0xbd9f8aac	-0.077901214
38	0x3e174074	0.1477068
39	0x3e05ec64	0.13078457
40	0xbe4d74b2	-0.20064047
41	0x3dae9858	0.08525151
42	0x3b3349c4	0.00273572
43	0x3e05a8b5	0.13052638
44	0xbc7cd2f1	-0.015431152
45	0x3d4c7237	0.04991361
46	0xbccc03b9	-0.024904119
47	0xbd81005b	-0.06298896
48	0x3d252ae1	0.040324096
49	0x3ded0c9b	0.1157467
50	0x3de2b161	0.110689886
51	0x3d2a210c	0.041535422
52	0xbd65fc8c	-0.05614905
53	0xbd90c682	-0.07069112
54	0x3ba63b6e	0.0050730025
55	0xbe1eedd1	-0.15520407
56	0xbdc0968e	-0.09403716
57	0x3d770357	0.06030592
58	0xbd88b19a	-0.066745
59	0xbcff4836	-0.031162363
60	0xbd12eef2	-0.035872407
61	0x3d619973	0.05507798
62	0xbe47196e	-0.19443294
63	0xbdac17a6	-0.08402948
64	0x3df4e6ad	0.119580604
65	0x3e450544	0.1924029
66	0x3da2d7fd	0.07951353
67	0x3e4a543b	0.19758694
68	0x3d8b632f	0.06806027
69	0x3d36e521	0.044652108
70	0xbe280f29	-0.16412033
71	0x3cd06753	0.025439894
72	0x3cabac49	0.020956175
73	0x3e350e09	0.17681135
74	0x3ce8bd74	0.02841065
75	0x3e433b2a	0.19065538
76	0x3d87f74f	0.06638967
77	0x3e01bf44	0.12670618
78	0x3bb55056	0.0055332584
79	0xbe236aea	-0.15958753
80	0x3d28b439	0.0411875
81	0x3b352123	0.002763816
82	0x3c174354	0.009232361
83	0xbce8adbb	-0.028403154
84	0x3e1f240a	0.15541092
85	0x3da25100	0.07925606
86	0x3e2b35ab	0.16719691
87	0x3e1f7752	0.15572861
88	0x3de8a95e	0.11360429
89	0xbd24c49c	-0.040226564
90	0xbe1ac99e	-0.15115973
91	0x3dbd345e	0.09238504
92	0xbc31c2cf	-0.010849669
93	0xbc44e6fc	-0.012017962
94	0xbe46c617	-0.19411503
95	0x3c867c69	0.016416745
96	0x3d329c72	0.04360623
97	0xbe09a278	-0.13440883
98	0x3da9ab92	0.082846776
99	0xbe155b13	-0.14585523
100	0xbd10aca2	-0.035320885
101	0xbdfaf1bc	-0.122531384
102	0xbe0b95ae	-0.13631317
103	0x3e8610bf	0.2618465
104	0x3ce19c1d	0.02754026
105	0x3e705e69	0.23473515
106	0x3d8dc81e	0.06922935
107	0x3cb9ecc1	0.0226959
108	0x3d5b6318	0.0535613
109	0x3c8e3ccf	0.01736298
110	0x3e930528	0.2871487
111	0x3d52df69	0.05148259
112	0xbc3af4fe	-0.01141095
113	0xbdd19055	-0.10232607
114	0x3e58143e	0.21101472
115	0x3e21a421	0.15785266
116	0x3cd92a5e	0.02650946
117	0x3da963d7	0.08270996
118	0xbd8ae50c	-0.067819685
119	0xbd392e53	-0.045210194
120	0xbde5b5e6	-0.11216335
121	0x3c91fb7e	0.017820116
122	0x3d3a3308	0.045458823
123	0xbe09b95b	-0.13449614
124	0xbc40e6ef	-0.011773809
125	0x3dd3ccf8	0.10341829
126	0xbe349c9e	-0.1763787
127	0x3e49cf2a	0.19707933
128	0xbce10dab	-0.027472338
129	0xbd637621	-0.05553258
130	0xbd893e75	-0.06701366
131	0x3d7856c9	0.06062964
132	0xbe299ab4	-0.16562921
133	0x3d1ee972	0.03879685
134	0xbd282167	-0.04104748
135	0xbd7713cf	-0.060321625
136	0xbdddcaaf	-0.108296745
137	0x3bb9d2f8	0.0056709014
138	0x3dcc09e7	0.09962826
139	0x3cbba2eb	0.022904834
140	0xbddfe9ed	-0.1093329
141	0xbdceb75c	-0.10093567
142	0x3df32750	0.11872733
143	0xbdaceb39	-0.08443303
144	0xbe2e0614	-0.16994506
145	0x3c27f323	0.010250839
146	0x3ca4f9c8	0.020138636
147	0x3e167463	0.14692836
148	0xbdf7b753	-0.12095513
149	0x3ba6e7c8	0.0050935484
150	0xbe21e288	-0.15809071
151	0xbd4067ad	-0.046973873
152	0x3db000d4	0.08593908
153	0x3dd280ec	0.10278496
154	0xbd28bbe4	-0.04119481
155	0x3e938bef	0.28817698
156	0x3dda6d76	0.10665409
157	0x3df448af	0.11927926
158	0xbbab5db2	-0.005229675
159	0xbc24aabd	-0.010050473
160	0xbdcac17b	-0.09900185
161	0x3d467daa	0.048459686
162	0xbcbcadf8	-0.023032174
163	0xbcff58ca	-0.031170268
164	0x3bf7c9ba	0.0075618895
165	0xbe1928c0	-0.14956951
166	0xbd41a46a	-0.047275938
167	0x3d86cb90	0.06581795
168	0x3e0d9020	0.1382451
169	0xbd290d0d	-0.04127221
170	0x3d43e5d2	0.047826596
171	0x3d6fad9a	0.05851517
172	0x3ce0bd15	0.027433911
173	0xbe4d5247	-0.20050918
174	0xbc8a5539	-0.01688634
175	0x3d16da73	0.036829423
176	0x3cb61673	0.022227501
177	0xbe515012	-0.204407
178	0xbd55255f	-0.052037593
179	0xbdc9fa74	-0.09862223
180	0xbc8213ce	-0.015878584
181	0xbe33c622	-0.1755605
182	0x3e46e98a	0.19425026
183	0x3db35382	0.08756162
184	0x3dd597c1	0.104293354
185	0x3dc0842f	0.09400212
186	0xbdad727b	-0.08469101
187	0x3dbd48c8	0.092423975
188	0x3da1146f	0.078652255
189	0xbe09dd30	-0.13463283
190	0x3e1ea781	0.15493585
191	0xbd23bd6b	-0.039975565
192	0xbdc84daf	-0.09780442
193	0xbd5cdf3c	-0.05392383
194	0x3da25498	0.07926291
195	0xbe45c3c6	-0.19312963
196	0xbd9c99ef	-0.07646548
197	0x3cede211	0.02903846
198	0x3e0d91eb	0.13825195
199	0xbe3baddf	-0.18328045
200	0x3d53ec41	0.05173898
201	0xbdb3a26e	-0.087712154
202	0x3daed97f	0.08537578
203	0xbdeee38e	-0.11664496
204	0x3dcc02aa	0.09961446
205	0xbbed1157	-0.007234733
206	0xbbe4e879	-0.0069857207
207	0x3d51c04b	0.051208775
208	0xbdaf6396	-0.085639164
209	0x3cf94f07	0.030433191
210	0x3d587a33	0.052850913
211	0xbd1a3602	-0.037649162
212	0x3d8d35c8	0.068950236
213	0xbcb3e567	-0.021959973
214	0x3cd44459	0.025911497
215	0xbd5f657c	-0.054540142
216	0x3d8201af	0.06347977
217	0xbc1ce6cc	-0.009576511
218	0xbd5609c1	-0.052255396
219	0x3d389e82	0.04507304
220	0xbce1f2f1	-0.027581664
221	0x3dc36393	0.09540477
222	0x3d7b3f03	0.06133939
223	0xbe537f71	-0.20654084
224	0x3e3f9693	0.18709783
225	0xbd9a44bf	-0.075326435
226	0x3e4d17b4	0.20028573
227	0xbcd42e3b	-0.02590095
228	0xbbe2db2c	-0.0069231
229	0x3e2a773f	0.16647051
230	0x3e41c3e2	0.1892238
231	0xbe35892d	-0.1772811
232	0xbde93db5	-0.11388723
233	0x3d429702	0.047507294
234	0xbbc7e1c3	-0.006099911
235	0x3e08ba2b	0.13352267
236	0x3caba8f3	0.020954585
237	0x3df9b73f	0.121931545
238	0x3d9bca7e	0.07606982
239	0x3c285922	0.010275157
240	0xbde28ad5	-0.11061636
241	0xbdefb0c2	-0.11703636
242	0x3e026470	0.12733626
243	0x3d6d2bd0	0.05790311
244	0xbddba540	-0.10724878
245	0x3a2d7363	0.000661662
246	0xbdcb725d	-0.099339224
247	0x3e698f48	0.22808564
248	0x3d35d926	0.044396542
249	0xbdd444ef	-0.103647105
250	0xbd396b56	-0.04526838
251	0xbe02b630	-0.12764812
252	0x3d01680b	0.031593364
253	0x3e3d3cc4	0.18480211
254	0xbc979967	-0.018505765
255	0x3d980ec4	0.07424691

l2.bias f4 [100]
0	0x3c0fbb21	0.008772642
1	0xbc56927a	-0.013096446
2	0x3cf46714	0.029834308
3	0x3dd16b8f	0.10225593
4	0x3e046aac	0.12931317
5	0x3d953a04	0.07286456
6	0x3e82b752	0.25530487
7	0x3e5aa455	0.2135175
8	0x3db67a82	0.08910085
9	0x3e2f1044	0.17096049
10	0x3bf6e224	0.0075342823
11	0x3e09d5dc	0.13460487
12	0x3d764d83	0.060132515
13	0xbe04d2f3	-0.12971096
14	0x3d249358	0.04017958
15	0x3e54495a	0.20731106
16	0x3c6a0bc9	0.014285036
17	0x3dd7b583	0.105326675
18	0x3c24f241	0.010067523
19	0x3e223014	0.15838653
20	0x3e9e1cd6	0.30881375
21	0xbde4459f	-0.11146092
22	0x3d9fc7f3	0.07801809
23	0x3dc2766c	0.094952434
24	0x3ceda1d1	0.029007824
25	0xbe767316	-0.2406734
26	0x3e9e5b35	0.3092896
27	0xbbe4ab91	-0.00697846
28	0xbeb53d40	-0.35398293
29	0x3d332114	0.043732718
30	0x39afb438	0.00033512875
31	0x3d0da9a0	0.034585595
32	0xbdc04422	-0.09387995
33	0xbc7708ab	-0.01507775
34	0xbcaa5d1a	-0.020796347
35	0xbd3215cd	-0.043477822
36	0xbde2428c	-0.11047849
37	0xbd519fe0	-0.05117786
38	0xbdd30801	-0.10304261
39	0xbc6a3d6b	-0.01429687
40	0xbdd944ce	-0.106088266
41	0xbc83a016	-0.016067546
42	0xbdd49a08	-0.10380942
43	0xbe22820d	-0.15869923
44	0x3e2a4d38	0.16631019
45	0x3dff4bc1	0.12465621
46	0xbda12f23	-0.07870319
47	0x3e8b7d25	0.27243915
48	0xbe1442bf	-0.14478587
49	0x3e1e5647	0.154626
50	0xbe3fd875	-0.18734916
51	0x3d77987c	0.060448155
52	0x3e3781ad	0.17920561
53	0xbe0a8651	-0.135278
54	0x3db9b218	0.09067172
55	0xbb68184a	-0.0035414868
56	0xbd6775d5	-0.056508858
57	0xbd614280	-0.05499506
58	0xbce7d45b	-0.028299501
59	0x3d0c808e	0.034302287
60	0x3dc6645c	0.09687111
61	0x3e2a7425	0.16645868
62	0xbd1afa1b	-0.037836175
63	0xbdcb24da	-0.09919138
64	0x3e416447	0.18885909
65	0xbd88999b	-0.06669923
66	0xbcbc5cf7	-0.022993548
67	0xbe189444	-0.14900309
68	0x3d8b5e06	0.06805043
69	0xbd74cf9e	-0.05976831
70	0x3e6af9fd	0.22946925
71	0x3d95c60a	0.073131636
72	0xbd73ebb3	-0.059550952
73	0xbe0cea37	-0.13761221
74	0xbda80179	-0.08203406
75	0xbe1a0b67	-0.15043412
76	0xbd1e786b	-0.03868906
77	0x3e9afea4	0.302724
78	0x3c1ee8e0	0.009699076
79	0x3dac950f	0.08426868
80	0x3ea53c73	0.32272682
81	0x3d2cf559	0.04222617
82	0xbdbd3c4f	-0.092400186
83	0x3d18d717	0.0373145
84	0x3b03c585	0.0020106744
85	0xbd9a91fb	-0.07547375
86	0x3e1da3ac	0.15394467
87	0xbda740b5	-0.08166639
88	0xbe291899	-0.1651329
89	0x3cea332c	0.028588854
90	0xbcc23886	-0.023708593
91	0x3cda697c	0.026661627
92	0x3d5661ea	0.052339472
93	0xbbc45a54	-0.0059922133
94	0x3b55a7ad	0.0032601163
95	0xbdc1b871	-0.094590075
96	0x3e8818e2	0.26581484
97	0x3cae3fbc	0.021270625
98	0x3dc017e8	0.0937956
99	0xbd167a48	-0.03673771

l3.weight f4 [18, 100]
0	0xbc25a620	-0.010110408
1	0x3dcfee58	0.10152882
2	0xbc9cb6f6	-0.019130211
3	0x3d3c1000	0.045913696
4	0xbd6b3825	-0.05742659
5	0x3d658a69	0.0560402
6	0x3df0a678	0.117505014
7	0xbd5b5da7	-0.05355611
8	0xbe0659ef	-0.13120244
9	0x3ea6e114	0.32593596
10	0x3d9ab59c	0.075541705
11	0x3cac995f	0.021069227
12	0x3e69957f	0.22810934
13	0xbc4b438f	-0.012406244
14	0x3c01ceb4	0.007922817
15	0x3d9ba3cb	0.075996004
16	0xbcdc9c42	-0.026929978
17	0x3d97f441	0.074196346
18	0x3d8ce2ab	0.06879171
19	0x3d41f3b5	0.047351558
20	0x3dc4c893	0.09608569
21	0x3e7d9ac3	0.24766068
22	0x3e1dede0	0.15422773
23	0x3d6077e4	0.054801837
24	0xbdf47ddf	-0.119380705
25	0x3e029762	0.1275306
26	0xbe469adf	-0.19395016
27	0x3d3637bc	0.044486746
28	0x3e0b6e76	0.13616356
29	0x3e561287	0.20905505
30	0xbe4b3bbe	-0.19847009
31	0xbc564daa	-0.01308004
32	0x3df89725	0.121382035
33	0xbc93ce54	-0.01804272
34	0xbe828d94	-0.2549864
35	0xbd6160b9	-0.055023883
36	0x3df12bb8	0.11775917
37	0x3dce66df	0.10078215
38	0xbdbebddf	-0.09313559
39	0x3e04dd4a	0.1297504
40	0x3cddc733	0.027072525
41	0xbe146a56	-0.14493689
42	0x3de414ff	0.11136817
43	0xbe904e67	-0.28184816
44	0xbe050f17	-0.12994038
45	0xbd8a7033	-0.067596816
46	0xbe890203	-0.26759347
47	0xbd9566db	-0.07295009
48	0x3c00c56c	0.007859569
49	0x3d2e8248	0.042604715
50	0x3d1d00c4	0.03833081
51	0xbc50a59e	-0.012734799
52	0x3e5b0de8	0.21392024
53	0xbe0e0cad	-0.13872023
54	0x3d8ec17d	0.06970499
55	0x3da4338f	0.080176465
56	0xbeacfcda	-0.3378666
57	0x3e29d17a	0.16583815
58	0xbe0edcc3	-0.13951401
59	0x3cfa6435	0.03056536
60	0xbd5470b9	-0.051865313
61	0xbc9df363	-0.019281095
62	0x3e4ffd84	0.20311552
63	0xbc7413c6	-0.0148972925
64	0xbe46dbcf	-0.19419788
65	0x3d67b227	0.056566384
66	0x3d9bca67	0.076069646
67	0x3a861faa	0.0010232825
68	0x3b0e1572	0.0021680263
69	0x3e596da4	0.21233231
70	0x3c0b35b5	0.0084966915
71	0xbd6a3168	-0.057176024
72	0xbde85f07	-0.1134625
73	0xbd2852e8	-0.04109469
74	0xbde5dacc	-0.11223373
75	0xbe1eb28a	-0.15497795
76	0x3df610d3	0.12014928
77	0xbe34598a	-0.17612281
78	0xbd02ec7b	-0.031963807
79	0xbd644709	-0.055731807
80	0x3dd2e1d4	0.102969795
81	0x3e02290f	0.12710975
82	0x3d2f2f39	0.042769644
83	0x3c00eb18	0.007868551
84	0xbd576008	-0.052581817
85	0x3d49d116	0.049271666
86	0x3d0afce6	0.03393259
87	0x3d962574	0.07331362
88	0x3e5a829d	0.21338888
89	0x3d7bc39e	0.061465852
90	0x3dc7f421	0.09763361
91	0xbb25e7e9	-0.0025315231
92	0x3c377df3	0.011199462
93	0x3e25b190	0.16181016
94	0xb96385d7	-0.00021698266
95	0x3e02972e	0.12752983
96	0xbd888678	-0.06666273
97	0xbc48db9c	-0.01225939
98	0x3e250aa2	0.16117337
99	0x3e33073f	0.17483233
100	0x3df540f2	0.11975278
101	0xbce93224	-0.028466292
102	0x3e8b253f	0.27176854
103	0x3d81ecce	0.06343995
104	0x3e2407e9	0.16018642
105	0xbe372b8a	-0.17887703
106	0xbe21ed4e	-0.15813181
107	0xbda0067e	-0.07813738
108	0xbe538286	-0.2065526
109	0x3e379859	0.1792921
110	0x3c9772be	0.01848733
111	0xbe140c01	-0.14457704
112	0x3e4d1498	0.20027387
113	0xbc8e69b2	-0.017384384
114	0x3c8c95b1	0.017161222
115	0xbe021ee6	-0.127071
116	0xbcd93fa9	-0.026519613
117	0x3e089c4a	0.1334087
118	0x3ed5ba50	0.41743708
119	0xbe08fe6e	-0.13378307
120	0xbe9e7faf	-0.3095679
121	0xbde5c69b	-0.112195216
122	0xbd84655b	-0.064646445
123	0x3e668898	0.22513044
124	0x3e3b2111	0.18274333
125	0x3cc9aa3d	0.024617309
126	0xbd69f401	-0.057117466
127	0x3ecac0b2	0.3960014
128	0xbc499a43	-0.012304845
129	0x3e4fe8ba	0.20303622
130	0xbdb08c5d	-0.08620522
131	0xbd1c1e9b	-0.038115125
132	0xbd37f6d2	-0.04491312
133	0xbe04e41c	-0.12977642
134	0x3e11f627	0.14254056
135	0x3e469e38	0.19396293
136	0x3bc32887	0.005955759
137	0xbd02d493	-0.031941008
138	0x3d84c3fb	0.06482693
139	0x3e27d0c2	0.16388229
140	0xbe0642cb	-0.13111417
141	0x3cd0f1bc	0.025505893
142	0x3d9cc0af	0.07653939
143	0x3bc76fb8	0.006086316
144	0x3e6bf781	0.23043634
145	0xbe1aea30	-0.15128398
146	0x3dbf3cec	0.09337792
147	0xbe50ea3e	-0.20401856
148	0x3ba5393b	0.005042223
149	0xbd93f4d9	-0.07224435
150	0x3ccf78c8	0.025326148
151	0xbb46e7e1	-0.0030350613
152	0x3d22b4bb	0.03972314
153	0x3d27a44b	0.040928166
154	0x3df9973a	0.12187047
155	0xbac2336d	-0.0014816351
156	0xbe3ef346	-0.18647489
157	0x3da4a9be	0.08040188
158	0xbdbe551a	-0.092935756
159	0x3e6e7983	0.2328854
160	0xbe1091ca	-0.14118114
161	0x3db971ee	0.090549335
162	0xbbe8a5f6	-0.007099862
163	0xbcbcce63	-0.023047632
164	0x3d114962	0.035470374
165	0x3d081367	0.03322163
166	0xbdbce383	-0.09223082
167	0x3d65260d	0.05594449
168	0xbd8e3fbd	-0.06945751
169	0x3e5e2fc5	0.2169791
170	0x3e0563bd	0.13026328
171	0x3d31fd6f	0.043454584
172	0x3e0c0879	0.13675107
173	0x3e25b303	0.16181569
174	0x3d1d8d0a	0.038464583
175	0x3dd6cd1e	0.10488342
176	0xbe1ddaea	-0.1541554
177	0xbdde7daf	-0.10863816
178	0xbe7aa447	-0.2447673
179	0x3e55c0c0	0.2087431
180	0x3e50ada3	0.20378737
181	0x3daa1bf8	0.08306116
182	0x3e9c09c7	0.3047621
183	0x3d6c5fc4	0.057708517
184	0x3d1289b8	0.03577587
185	0x3d2675a1	0.040639523
186	0xbe46aff3	-0.19403057
187	0x3b13cc12	0.0022552055
188	0x3e32ad1a	0.17448846
189	0x3c3d395b	0.011549319
190	0x3e0e6e72	0.13909319
191	0xbdc07a97	-0.09398382
192	0x3d745ac6	0.05965688
193	0x3d9b169f	0.07572674
194	0xbe417c2a	-0.18895021
195	0x3e6ed776	0.2332438
196	0xbe9d3c5a	-0.30710107
197	0x3dc1042a	0.09424622
198	0xbe89f85e	-0.26947302
199	0x3e26e425	0.16297968
200	0xbdb048ef	-0.08607661
201	0x3b9b3a42	0.0047371695
202	0xbe1db937	-0.15402685
203	0x3d639575	0.055562455
204	0xbe1448c4	-0.14480883
205	0xbd742971	-0.059609834
206	0xbdf2b2a6	-0.11850481
207	0x3e047e23	0.12938742
208	0xbdaf45d2	-0.08558239
209	0x3eb9050a	0.36136657
210	0x3d12c290	0.03583008
211	0xbe08efc9	-0.13372721
212	0xbdb63487	-0.088967375
213	0x3c07794e	0.008268667
214	0x3e00dcba	0.125842
215	0x3e4682ab	0.19385783
216	0x3b24529b	0.002507365
217	0x3e5bc47e	0.21461675
218	0xbc9f9a0b	-0.019482633
219	0xbdb907f5	-0.09034721
220	0x3dbcaa53	0.09212174
221	0x3e77cf0b	0.24200074
222	0xbda8c574	-0.08240786
223	0xbe975138	-0.29554152
224	0x3daab126	0.0833457
225	0xbe1bf359	-0.15229549
226	0xbdaa8193	-0.083254956
227	0xbe2748d7	-0.1633638
228	0xbc568a51	-0.013094501
229	0xbd3cc42a	-0.046085514
230	0xbd148764	-0.03626193
231	0x3d406f7b	0.046981316
232	0xbd204866	-0.039131545
233	0xbd91d47e	-0.07120608
234	0x3e293a79	0.16526212
235	0xbdc24382	-0.09485532
236	0xbe255f81	-0.16149713
237	0x3da5ca4f	0.08095228
238	0x3d55ad2b	0.0521671
239	0x3d48f16b	0.04905836
240	0xbd34a775	-0.044105012
241	0xbe47d333	-0.1951416
242	0xbd41b6ef	-0.0472936
243	0xbd92d678	-0.07169813
244	0x3db7b8b5	0.08970777
245	0xbd06406f	-0.032776292
246	0x3d2c5b4a	0.042079248
247	0xbdb22839	-0.08699078
248	0xbd749e71	-0.059721414
249	0x3d84e5b8	0.06489128
250	0x3d66a592	0.056310244
251	0x3e14de02	0.14537814
252	0x3e8aa932	0.2708221
253	0xbe48d287	-0.1961156
254	0xbdac3f97	-0.08410566
255	0x3d1bdd63	0.038052928

l3.bias f4 [18]
0	0x3e0d91bd	0.13825126
1	0xbe0f7ab2	-0.14011648
2	0xbee33ea5	-0.4438373
3	0xbd6c2099	-0.057648275
4	0xbebedfc0	-0.37280083
5	0xbe5fd89a	-0.2185997
6	0x3dacb1e6	0.08432369
7	0x3ce09a84	0.027417429
8	0x3dfdde61	0.12395931
9	0x3e27346a	0.16328588
10	0x3daede34	0.08538476
11	0x3e90b8fd	0.28266135
12	0xbeeee02c	-0.46655405
13	0xbce67e85	-0.028136501
14	0x3e988916	0.29792088
15	0xbec628f3	-0.38703117
16	0xbd4b4968	-0.049630553
17	0xbe6cb831	-0.23117138
