LARA/weight/g_30.pt (torch, 87399 bytes, 7 tensors)

G_attr_matrix.weight f4 [36, 5]
00000000: 1f05 723d 0061 f93d 3129 4a3e a788 463e
00000010: 61c6 23be db7d a7bd 1729 f6bc 7cc4 0abe
00000020: b404 303e 0537 f3bd c3ef 35be 81ff 41be
00000030: 5506 df3d e76d e2be 7878 a0bc bd41 9e3d
00000040: e506 df3e ab9a 5e3e 51c8 8dbe 0660 043e
00000050: 092e 7c3e 1621 9bbe b51c e63d 76b7 20be
00000060: c5f6 38be 8050 643d 28c7 de3c eccd b03e
00000070: 01b5 903d b709 b43e d368 783e 6278 0bbf
00000080: 0685 273e 1069 83bd 8ee6 423e d8b2 74be
00000090: 37ed d6bd 656d d73d f02a 633e 5b0c d73d
000000a0: 2e1c a5be 6903 273e 5454 83be 9750 d4bd
000000b0: c171 f23e 0f47 8e3e 7072 403e a9d7 84be
000000c0: b16d 92be 88a4 2f3c 8035 db3b 1d5c 28bd
000000d0: 82ac 4d3e 24ca 9bbc b920 47be d9f7 94bd
000000e0: 7699 463e af5f 49be 07f7 e93d 7446 0dbe
000000f0: f385 163f ad16 43be 1459 f43d 6aaf 823e
00000100: 5d5f f73b da16 d13d f211 12be 771b 77bd
00000110: c4d4 f4bd 005d d03c 403e 8bbe 880e 05bd
00000120: b31a 30be fc43 dbbe 03c3 513e 5931 f9bd
00000130: e840 1b3d 246d 87bc b1f1 cb3d 7045 39be
00000140: 0375 ff3d 49d2 c4be 83c2 44be 6c72 3abe
00000150: 0bd2 a2be 5ad1 2ebd 6902 b8be 9821 34bb
00000160: 2ce4 65be fc7a 203e 1ec6 9b3d 5149 bdbe
00000170: de9c 26be 9147 233e 6d6e b23d b0f0 ea3c
00000180: 0937 84bd 1c3c 963e 2413 d3be d9a4 3bbe
00000190: 4406 fe3d 08ad 23bd e13e 6a3e 79ff 1a3e
000001a0: 0b94 1f3e 6484 243c 71aa 313e 1ff1 a33d
000001b0: 58f2 b83d 6ad7 433e a50c 95be 5286 7d3e
000001c0: 2897 88bd c142 eb3d 2465 ccbc 8675 2a3e
000001d0: 28a9 5e3e fcad 603e 303e 443d 0ffa 29be
000001e0: 7b42 023e 3920 2bbe 06e6 fd3d 6377 943d
000001f0: a690 8fbd da84 cd3e b793 09be 9629 6a3e
00000200: 1cc8 173e a33c 013e c82b dd38 883f 693d
00000210: 7fe4 733c a619 5dbe fc87 9abc 0d7f 3e3e
00000220: 28ae 6ebe 6fb2 443d addf 673c 05bc c7bc
00000230: b2bf 603e 23b7 e9bd cc71 05bd 4554 bf3c
00000240: d8ca 3f3e fb45 8cbd 64e4 3c3d 1203 fa3d
00000250: 5011 983b 101e 2cbb 2e9f 043e e6a9 183e
00000260: 7361 21bb 0b4b f4be c9b6 683e 4c60 debd
00000270: 00bf 803e 4851 1f3e 9901 253e 8758 34be
00000280: 9639 ce3d 3d46 bb3d 6319 37be 47d3 efbc
00000290: ddd4 16be 9860 abbd 07fa 1d3e 1431 6a3e
000002a0: 8cbd 63bc 58b9 843d ce51 813d d6be a8bd
000002b0: 592f 83bc a547 09bd d163 2e3d bbc8 0f3e
000002c0: 42a6 52be 4e7e b23b ba4e 81bd aba9 7f3d
0.059086915 0.121767044 0.19742276 0.19388066 -0.15993644 -0.08178302 -0.03004889 -0.13551515
0.17189294 -0.118757285 -0.17767243 -0.18945123 0.108898796 -0.44224474 -0.019588694 0.07727382
0.43559948 0.21738689 -0.27691892 0.12927255 0.24626936 -0.3029868 0.11235944 -0.15694985
-0.18062885 0.055740833 0.027194574 0.34532106 0.07065774 0.35163662 0.24258737 -0.54480565
0.16359338 -0.064165235 0.19033262 -0.23896348 -0.10494464 0.10518912 0.22184348 0.105004035
-0.32248062 0.16309895 -0.25650275 -0.10366934 0.47352412 0.27788588 0.18793654 -0.25945786
-0.28599313 0.01072038 0.0066897273 -0.04110347 0.20085338 -0.019017287 -0.19446076 -0.07273836
0.19394478 -0.19665407 0.1142407 -0.13796407 0.5879814 -0.19051619 0.11931053 0.25524455
0.00754921 0.10209437 -0.14264658 -0.060328927 -0.11954644 0.02543497 -0.2719593 -0.03248456
-0.17197685 -0.42825305 0.20484547 -0.121676154 0.037903696 -0.016531534 0.09958208 -0.18092895
0.1247349 -0.38441685 -0.19214825 -0.18207711 -0.31800875 -0.042680122 -0.3593934 -0.0027485844
-0.22450322 0.15671915 0.07606147 -0.36969998 -0.16270778 0.15945269 0.08712468 0.028679222
-0.064558096 0.29342735 -0.4122554 -0.18324603 0.12403539 -0.039959937 0.22875549 0.15136518
0.15583818 0.01004133 0.17350174 0.080049746 0.090305984 0.19125143 -0.2911121 0.2475827
-0.06669456 0.11487342 -0.024950571 0.16646394 0.21744215 0.2194137 0.04791087 -0.16599296
0.12720673 -0.1671151 0.12397389 0.07249334 -0.070100114 0.4014042 -0.13435255 0.22867426
0.1482243 0.12620787 0.00010546256 0.056945354 0.014886021 -0.21591815 -0.01886367 0.18603154
-0.23308623 0.04802173 0.01415245 -0.024381647 0.21948126 -0.11411884 -0.03257923 0.023355613
0.18729722 -0.06849285 0.046116248 0.12207617 0.0046407357 -0.0026263036 0.12951347 0.14908561
-0.0024624735 -0.47713503 0.22725977 -0.10858211 0.2514572 0.1555835 0.1611389 -0.17611896
0.100695774 0.09144256 -0.17880778 -0.02927555 -0.14729638 -0.08368033 0.15427409 0.22870284
-0.013900172 0.06480664 0.06314431 -0.08239524 -0.016013788 -0.03351559 0.04257566 0.14041416
-0.20571235 0.0054471856 -0.06313844 0.062417667

l1.weight f4 [100, 90]
00000000: d69c 79bd 7a69 35be 73d0 4e3e ac6b afbc
00000010: 10d7 debd a87a 0cbd 551c 383d 055d 0e3e
00000020: db8b bebd 22f9 6bbd 4044 1b3e f1b2 e83d
00000030: ebd7 eebd 50c2 11bd 6de9 643d 5123 21be
00000040: c855 d0bd 14f7 2e3b bab3 7ebd 8ba5 29be
00000050: d71a bd3d 5b1b eebc 1e26 033d 4c24 1cbe
00000060: d24c 20be 24bc dabc 62fc 79be b467 223e
00000070: 0ca9 2bbb 9cb8 313e 53f3 963d 33b8 82bb
00000080: 4130 363d 0582 e73d d11d 0b3e b318 253e
00000090: 6bfb 103d 4b10 4a3e 0b11 623d 8d49 37bb
000000a0: b668 c4bd 0394 0a3e 5a7a b83d 3e18 a2bc
000000b0: 79e2 74be 30a9 3cbd d65d 1c3d 4d40 713d
000000c0: 41ac 20bd 00f7 463d b1aa 68be 9866 2dbe
000000d0: c1be 0d3e 390b ebbd 9d31 653d f785 9ebd
000000e0: c7b5 703d 8f60 213d e6aa 523e 401f 31be
000000f0: 088b 7f3c 002e c43d 20ce 83bd c24b a23d
00000100: b0a0 06bd 41a9 50bd 2975 193d 6340 c8bd
00000110: 53b2 ac3d 196b cbbd 52e6 abbd f668 70bb
00000120: 50fe ccbd c6b3 ff3c 0d81 a53d 1537 d4bd
00000130: 47e0 92bc 4d37 95bd 5b48 4abd 632f df3d
00000140: bc4e 3bbe 6588 c33d 7d9f 75bd dbb6 7f3c
00000150: 7a3c b5bb 493d 9ebd 3adc 743d 09b4 2ebe
00000160: 734e 78bc 4fe3 343d d1ca 15be 3caf b5ba
00000170: f348 d4bd 856b 213e 83c2 bbbd f82a 0e3d
00000180: d992 6ebd b8e2 113e 7843 b2bc 381a 12be
00000190: ad64 013e 15d2 9dbc 2561 3abb eef9 273b
000001a0: 2315 0abb 3ccb 1bbe b8b0 c5bd 4b06 0d3e
000001b0: 36c1 0e3e 2ad2 b13d af62 c8bd d419 23bc
000001c0: c05a 063e c8fb 01be 8c1c b63d 9a60 febc
000001d0: a013 9dbb 4ce0 a6bb 9076 453e 0b9c 24be
000001e0: 4ff4 9bbd 8333 5f3d a7a0 343c 3125 4a3c
000001f0: 49be e5bc dcd9 fd3d 62e0 18be 9d72 14bc
00000200: 85af 873d c0d4 6fbd d386 c63d 1b94 b53c
00000210: 12d2 0bbd 3562 fc3d 318c ccbd 74aa 8f3d
00000220: c73a 053d 68ef f83c d1f7 ccbd 4558 f5bd
00000230: f814 cd3d 185c 173e ce98 71bd 1b14 73bd
00000240: 5333 ffbd 08e8 1d3d 3f57 72bd 94c1 de3d
00000250: ec55 44bc 21cc 603c 87aa 773e 1185 273e
00000260: fdb4 88bd 8315 9dbd 7800 42bd 473f 31be
00000270: 4b0f 87be 4c63 c73c 6dab 75bd f335 49be
00000280: 4b37 233e 2a74 fc3d 8e7a 02bd bbb2 51bd
00000290: f055 a13d b938 0cbe 600e 9cbd 8259 17be
000002a0: 1de2 923d 639f 98bd a8f6 09be ae21 efbd
000002b0: aa75 583e e44a 5e3d ff6b 103d 1ee5 183e
000002c0: 1634 5a3d fcf2 bbbd db4c 37bd 0ff3 cbbc
000002d0: 67d4 49bd c516 b8bd 5a08 a9bd f5ed 23be
000002e0: 8b29 04bd f120 943d 7c76 103e 7c01 77bb
000002f0: 32d9 d03d 6843 5f3c a736 373b 8d54 703e
00000300: 649f 5a3d f87e 5bbc 8c4a c7bd c315 c6bc
00000310: 4f38 e13d 25f0 ce3d fe90 c8bd a29e d8bd
00000320: 92a7 8bbd a986 7a3c 6fc0 0bbd 3c47 f43c
00000330: 612f 9ebc a191 f43d a7c4 d23d 52e3 213e
00000340: fa76 663d 4501 3e3e a949 003e 15af 13be
00000350: 2915 f0bb a364 c5bd 9955 703d 0dc4 b53d
00000360: b507 483c 32e3 d13d f08c 123e fdb1 d6bd
00000370: 4df2 833d 8d2a 233c 3c8e 2ebd b39d d73d
00000380: d792 433d b80b 8abc 10cf 15be fe83 34be
00000390: a0de af3d 10ba 78bd c796 96bc 7ebd 57bd
000003a0: c15e efbd 85e2 f4bc d8e8 823e f8aa 33bd
000003b0: 9201 493e 63f6 eebd 1819 e5bc 99ea 943d
000003c0: bc4d ea3d 0103 59bd 040c 5f3c 8adb 96bd
000003d0: 988b e93d 35cf bbbd 7eed 493d c1b3 76bd
000003e0: 1bbc eb3b e17b aabd 42bb 473c 0125 8dbd
000003f0: ffba 473d 1d99 86bd dfa7 cb3d 74d7 a5bd
-0.060940586 -0.17716017 0.20196705 -0.021413647 -0.10880864 -0.03429666 0.044948895 0.13902672
-0.09304019 -0.05761064 0.15162754 0.11362255 -0.11662277 -0.0355857 0.055886675 -0.15736128
-0.101726115 0.0026697563 -0.06218312 -0.16567056 0.09233635 -0.029065778 0.032018773 -0.15248221
-0.15654305 -0.02670104 -0.24412683 0.15859872 -0.002619329 0.17355579 0.07370629 -0.0039892434
0.044479612 0.11304096 0.13585593 0.16122703 0.03539602 0.19732778 0.055192035 -0.0027967424
-0.095902845 0.13533024 0.09007712 -0.01978695 -0.23914517 -0.046059787 0.038175426 0.058899213
-0.039226774 0.0485754 -0.22721364 -0.16933668 0.13842298 -0.1147675 0.055955518 -0.077403955
0.058767106 0.039398726 0.20573005 -0.17297077 0.0155971125 0.09579086 -0.064357996 0.07924606
-0.032868087 -0.050942663 0.03746525 -0.09777906 0.0843245 -0.09932537 -0.083935395 -0.0036683655
-0.10009444 0.031213652 0.08081255 -0.103620686 -0.01792921 -0.072859384 -0.04938541 0.1089771
-0.18291754 0.095474996 -0.059966553 0.015607561 -0.005530891 -0.07726533 0.059780337 -0.17060865
-0.0151554225 0.04416209 -0.1462815 -0.0013861428 -0.103654765 0.15763672 -0.091679595 0.034708947
-0.058245514 0.14246643 -0.021760687 -0.14267814 0.12636061 -0.019265214 -0.002843925 0.0025631147
-0.0021069727 -0.15214247 -0.09652847 0.13771932 0.13940892 0.08682664 -0.097844474 -0.009954888
0.13120556 -0.12693703 0.08892164 -0.031051923 -0.0047935992 -0.0050926562 0.19283509 -0.1607515
-0.076149575 0.054492485 0.011024631 0.012337969 -0.028044837 0.12395069 -0.14929345 -0.009060529
0.066252746 -0.058552504 0.096936844 0.022165349 -0.034135886 0.12323419 -0.09987677 0.07014933
0.032526758 0.030387595 -0.10008205 -0.11979727 0.10013765 0.14781225 -0.058983617 -0.059345346
-0.12460961 0.03855136 -0.059165236 0.10876766 -0.011983376 0.013720543 0.24186145 0.16359355
-0.06675146 -0.07670119 -0.04736373 -0.17309295 -0.26378855 0.02433934 -0.059977937 -0.19649486
0.15939061 0.12326844 -0.03185516 -0.05119584 0.078777194 -0.13693513 -0.07619929 -0.14780238
0.07172034 -0.074522756 -0.13472998 -0.11676346 0.21138635 0.05427064 0.035259243 0.14931151
0.05327233 -0.09177205 -0.04475103 -0.024896173 -0.04927483 -0.08988718 -0.08253546 -0.16008742
-0.03226618 0.072328456 0.14107698 -0.0037690094 0.10197677 0.013626911 0.002795616 0.23469754
0.053374663 -0.013396971 -0.097310156 -0.024180299 0.10997068 0.10104398 -0.0979328 -0.10577132
-0.06819071 0.015290895 -0.034119066 0.029819123 -0.019309701 0.11941839 0.10291415 0.15809372
0.05626581 0.18555172 0.12528099 -0.14422257 -0.0073267412 -0.096383356 0.058675382 0.08875284
0.012208869 0.10248412 0.14311576 -0.10483167 0.064426996 0.009958875 -0.042616114 0.105281256
0.04774746 -0.016851291 -0.1462977 -0.17628476 0.08587384 -0.060724318 -0.018382443 -0.05267095
-0.11687995 -0.02989317 0.2556827 -0.04386422 0.19629505 -0.11668088 -0.027966067 0.072713085
0.11440608 -0.05298138 0.013613705 -0.073660925 0.114035785 -0.09170381 0.049298756 -0.06023002
0.007194055 -0.08324409 0.012190642 -0.068918236 0.048762318 -0.06572173 0.09944128 -0.08097735

l1.bias f4 [100]
00000000: 7191 bd3b 2692 f53c 2d59 613e cd54 273e
00000010: fc4c 72bb cf71 47be bd95 dcbd 107e 1e3d
00000020: 563d 2ebe 67e5 7cbd 3dfb 8abd 9916 893e
00000030: c209 bebd 717b 943d a9e7 94bc 9410 8b3d
00000040: 2954 fbbd 75c0 93bd 5a9e 2e3e 01dc 9d3b
00000050: 1ece 033d 0d76 1d3e 6052 0cbd cf13 55be
00000060: d265 41be 26fe 463e 625b 1d3e 14bb a8bc
00000070: f4e2 b6bd 0895 9dbd 61a8 ca3d a8df 563d
00000080: 7b6b ccbb e9a9 ec3e e095 143e b6f7 753c
00000090: 1193 67be e3e7 203e fda9 0e3d d35d 483d
000000a0: ee9e f13d bc3e 963d a879 b1bd 46dc aeba
000000b0: 5dd2 07bd 3d1d 623e 20a7 5bbe df93 a3be
000000c0: b8b4 8a3e 0024 203e 7b66 ee3d 6700 3abe
000000d0: e126 11bd 7b4f b1bd afb9 363c eb33 dbb9
000000e0: 5a80 67be 770c 453d b36e 8f3e 61e1 8a3c
000000f0: 5e68 293e 50bc 6ebb ea20 e03d e3c4 87bd
00000100: 93ec 0bbe a4e3 a5bd 5e00 953c 4425 a4bd
00000110: 9448 9cbd 5e09 383e 8629 3d3e 6a43 683d
00000120: 75aa f9bd 39f0 cabd 63c1 be3d 7e92 fd3d
00000130: 9471 74be fd39 14bd 7977 1e3d 74a4 0a3b
00000140: 45bb 96bd 8221 05bd 6a2f 37be 4ded e43c
00000150: 6187 883e 293f 10bd 2475 d3bd d1d0 ac3d
00000160: b012 bbbd 4aa3 debc e76e 8abd 4054 683d
00000170: e427 a43c d475 f5bd 0549 75be 3a38 cebc
00000180: c703 7d3d f221 a6be 0e78 87bd a7db d4bd
0.00578516 0.029976916 0.22006674 0.16340943 -0.0036972156 -0.19477008 -0.10770748 0.03869444
-0.17015585 -0.061742213 -0.06786201 0.26775053 -0.09279205 0.07250107 -0.01817687 0.067902714
-0.12271912 -0.07214443 0.17052594 0.0048174863 0.03217899 0.15377064 -0.034258246 -0.20808338
-0.18886498 0.19432887 0.15366891 -0.020597018 -0.089300066 -0.07694441 0.09895397 0.05245939
-0.0062383986 0.4622338 0.14510298 0.015012672 -0.22614695 0.15713458 0.034830082 0.048917603
0.117978916 0.073361844 -0.08665782 -0.0013340793 -0.033159602 0.22081466 -0.21450472 -0.31948754
0.27091002 0.15638733 0.1164064 -0.18164216 -0.03543747 -0.08657738 0.011152669 -0.00041809617
-0.22607556 0.04810759 0.28014144 0.016953172 0.16543719 -0.003642816 0.10943778 -0.0662935
-0.13664465 -0.0810006 0.018188652 -0.0801492 -0.07631031 0.17972323 0.18472871 0.056704916
-0.12190715 -0.099091 0.09314229 0.12381457 -0.23871452 -0.036188114 0.038688157 0.002115515
-0.073599376 -0.03250266 -0.17889181 0.027945185 0.26665786 -0.035216484 -0.10325077 0.08438266
-0.09134424 -0.027177472 -0.06759434 0.056720972 0.020038553 -0.119853646 -0.23953636 -0.025173295
0.06177118 -0.32447773 -0.066146955 -0.10393458

l2.weight f4 [100, 100]
00000000: 208c 39be 727e 883e ef10 0abd bbae e13d
00000010: 785e a93d 8b7c 183e 7b73 2f3c 1b90 323d
00000020: ce0c 6cbd f917 c53d 2076 e7bd 9e7b 613c
00000030: 12e6 883c 3ce9 45bd 44e0 34bc d314 273e
00000040: fa1e 8e3d e0c3 8d3c 781d afbd 253f d8bd
00000050: 5bfd 2fbb aaf8 4fbb 5c1a bcbd 1c45 183d
00000060: 6852 15bd f875 273d 1372 81bd a663 1e3c
00000070: c774 08be 8d2e cabd 4413 17be 7890 76bd
00000080: 907a 173e 688f d2bb fa29 fa3d 68f8 303e
00000090: c87a 64bd d5a4 b8bd ae8c cd3d 20ea 073e
000000a0: e886 49be ed05 df3d bfad 85bc ce38 1a3e
000000b0: dae6 e3bb e1bd 863d 1942 dabc efa4 9bbd
000000c0: 7b30 0c3d 234f ca3d 794d e63d a84b 6e3d
000000d0: 90a3 96bd b90e b3bd 12f9 92bc cf73 27be
000000e0: ee91 d1bd 7c6f ac3c 918d 84bd a443 b8bc
000000f0: be83 74bd d10d 2d3d d1c7 2bbe c50f b2bd
00000100: 39cd d33d bfa4 443e c0af 933d 2825 4a3e
00000110: d34c 0d3d 455a 9a3d 5939 09be b62b 27bc
00000120: c196 ff3c c2ab 3f3e c5a0 523c 4d23 383e
00000130: 89bf 093d 269b 0d3e b541 d5bc 9a20 21be
00000140: 5c36 a03c 8116 983a 5626 da3a 439f 15bd
00000150: 80bb 203e 0d6c 243d 038a 0f3e 8c07 1a3e
00000160: cb3c d63d ec4b 87bd 284d 0cbe c128 b03d
00000170: 3e01 a43c 1216 07bc 5d57 4abe 47cd 35bb
00000180: 3f9c ce3c b277 1abe a1c9 a33d 9c85 e4bd
00000190: 9776 22bd 40a8 00be 5baa fdbd 01e1 8c3e
000001a0: 3c63 bc3c be34 6f3e d9a6 a03d fd65 7e3b
000001b0: 1500 953c 43cc e33c 95dc 8f3e ad53 883c
000001c0: 1243 253b bc0d c2bd d281 633e 133c 193e
000001d0: dc39 ec3c a4c8 9e3d 02b2 4cbd b2b8 83bd
000001e0: 199f e7bd 82cb ab3c 2c23 bc3c 3e82 05be
000001f0: b383 49bc 684a da3d 6dd1 35be 428a 4e3e
00000200: e754 37bc a54d a9bc 5c88 65bd 29ba 6c3d
00000210: 1c1e 2ebe 4ca7 1a3d 22aa 40bd b437 5ebd
00000220: e884 18be 05d2 71bb b8f0 963d ca3f e23c
00000230: 0f81 efbd 9cf1 bebd 4815 c83d ccd5 59bd
00000240: 067a 20be 57db d23c d37f c03c 1b08 013e
00000250: 9652 ebbd 1d67 133c d03a 24be b4fe e2bc
00000260: 048e a33d 1a18 d43d 4625 8fbd 838e 923e
00000270: 0f28 a63d b291 aa3d 792c 4dbc 9090 883c
00000280: e79d d4bd 3f23 803d 838e da3b 06a3 22bd
00000290: a872 a5bc 6dfc 1abe e292 59bd 0756 683d
000002a0: a482 f33d 64d3 e2bc 24a2 9c3d 6d5f ee3c
000002b0: 6c6d 143d dc9c 4abe 33f0 37bd eb38 fd3c
000002c0: e7db bbba 764e 51be 1134 92bd 6161 e1bd
000002d0: 855f e2bc 162a 25be b244 403e 88ed aa3d
000002e0: 5b59 e93d fc40 9e3d 3f16 d5bd 3130 b33d
000002f0: 9101 9e3d e74f 2abe 5d50 173e 52ad 34bd
00000300: f54b 98bd d284 68bd 007c 983d 3fd2 44be
00000310: 62e9 b6bd 44c1 4f3c d7cd 043e 3bc3 23be
00000320: 344e 833d db36 ccbd e1af c33d 5bfb afbd
00000330: d127 c13d 6773 98bc 4449 7f3c d11d 3c3d
00000340: 5542 fcbd c58b 1f3d a393 593d b66b 58bd
00000350: f80d b73d 71a6 70bc df06 d13c 1326 77bd
00000360: 7e8b 5d3d c6ee c039 d847 1ebd 52bf 293d
00000370: 71d4 3dbb bc07 d53d a46a 053d 162c 47be
00000380: 73b8 463e bc0f 6dbd 93de 3e3e 9f29 363b
00000390: 4160 d43c ea85 4b3e 26a4 423e d632 47be
000003a0: 39a3 ebbd be31 643d 1cc9 4cbc b1a2 173e
000003b0: 4926 69bc 17bd dc3d 0878 8c3d a889 dc3c
000003c0: 62bf 04be 3e8b fdbd 89e8 ee3d 82f5 b63d
000003d0: fc6e ccbd 8a78 953b 71d5 b0bd 671e 563e
000003e0: b3d4 353d 4c54 b6bd 7ef8 58bd 2b42 c8bd
000003f0: bd40 3d3d edbb 3c3e 7882 55bd 024f bf3d
-0.1811986 0.2665897 -0.033707555 0.11019655 0.082699716 0.1489126 0.010708685 0.04359446
-0.0576294 0.09623713 -0.113018274 0.013762383 0.016711269 -0.048318133 -0.011039797 0.16316538
0.06939502 0.017305315 -0.085505426 -0.10558919 -0.0026853892 -0.0031733909 -0.09184715 0.037175283
-0.03645554 0.04088399 -0.06320586 0.009667313 -0.13325797 -0.0987216 -0.14753443 -0.06019637
0.14792848 -0.0064257868 0.12215038 0.1728226 -0.055781156 -0.09015814 0.10036598 0.13272905
-0.19680369 0.10889802 -0.0163182 0.15060732 -0.00695501 0.06579185 -0.026642846 -0.07599818
0.034225922 0.098783754 0.112452455 0.05817762 -0.07355416 -0.087430425 -0.017941032 -0.16352771
-0.10232912 0.021049254 -0.06472314 -0.022493191 -0.05969595 0.042249504 -0.16775443 -0.08694414
0.103418775 0.1920347 0.07211256 0.19740736 0.034497093 0.07536749 -0.13400783 -0.010203293
0.031199815 0.18717864 0.012855713 0.17982216 0.033629928 0.13828716 -0.026032308 -0.15735093
0.01955717 0.0011603386 0.0016643505 -0.036528837 0.15696526 0.040142108 0.14017491 0.15041941
0.10460814 -0.06606278 -0.13701308 0.08601523 0.020020124 -0.008245008 -0.19759889 -0.0027740763
0.025220988 -0.15084723 0.07997442 -0.111582965 -0.039663877 -0.12564182 -0.12386008 0.27515414
0.022996537 0.23359963 0.07844324 0.0038818114 0.018188516 0.02780736 0.28097978 0.016641462
0.002521698 -0.09475276 0.22217491 0.14964323 0.028836183 0.07753113 -0.04997445 -0.06431712
-0.11309642 0.020971064 0.02296599 -0.13037965 -0.012299466 0.10658723 -0.17755671 0.20169929
-0.011189676 -0.020666907 -0.056038246 0.057794724 -0.17003673 0.037757203 -0.04703725 -0.05425234
-0.1489445 -0.0036898863 0.07370132 0.027618308 -0.11694538 -0.09323427 0.09769684 -0.05318241
-0.15671548 0.025739355 0.023498451 0.12600748 -0.114903614 0.008996752 -0.1603806 -0.027709343
0.07986072 0.103561595 -0.06989531 0.28624353 0.08113109 0.083285704 -0.01252281 0.016670495
-0.1038168 0.06256723 0.0066698208 -0.039706253 -0.020196274 -0.15135355 -0.053118594 0.056722667
0.11890152 -0.02768869 0.07648113 0.029098237 0.036237165 -0.197864 -0.044906806 0.03091093
-0.0014332504 -0.20440087 -0.07138837 -0.11004902 -0.027633438 -0.16129336 0.18776205 0.08346087
0.11393996 0.077272385 -0.10404634 0.08749426 0.077151425 -0.16632043 0.1477675 -0.044110604
-0.07436363 -0.056767292 0.07445526 -0.19220828 -0.08931233 0.012680355 0.12969147 -0.15992443
0.064114004 -0.099714 0.095550306 -0.08592864 0.094314225 -0.018609716 0.015581433 0.045926873
-0.12317339 0.038951654 0.053119313 -0.052837096 0.08938211 -0.01468812 0.025515972 -0.060339045
0.05408811 0.00036798994 -0.038642734 0.041442223 -0.0028965736 0.10401866 0.032572404 -0.19450411
0.194063 -0.057876334 0.18639593 0.0027795804 0.025924804 0.19875303 0.1900793 -0.19452986
-0.115057416 0.0557115 -0.01249912 0.14808156 -0.014230319 0.107782535 0.06858832 0.026921108
-0.12963632 -0.12380074 0.11665446 0.08933546 -0.09982106 0.0045614885 -0.08634461 0.20910035
0.0443923 -0.08902797 -0.052971356 -0.097782455 0.046204317 0.18431063 -0.052126378 0.093412414

l2.bias f4 [100]
00000000: cc89 7f3c 1d25 b4bb c436 273d 3b08 e53d
00000010: e6b6 013e 5651 853d a1ae 823e 2130 583e
00000020: 8911 9b3d b4f3 3f3e 78bb f1bb 3fa1 113e
00000030: 8d07 8f3d 770e f9bd 2d58 4c3d 0013 453e
00000040: ecfa 02bc cd0a f93d f66f bf3c ab0f 0d3e
00000050: c01c a03e 0b57 dabd 09c9 d03d 253f cb3d
00000060: 54fe 1d3d d4bb 66be 31ce 933e f3c5 ee3b
00000070: 3c0e b0be 429a 493d 4865 71bc 091a 173d
00000080: ac22 bebd 0790 2cbc d079 c6bc c0ef 40bd
00000090: d128 dbbd 994b 0bbd b9a8 afbd 4be7 e0bc
000000a0: 5503 ddbd 7636 23bd 3b1d bbbd 798e 2dbe
000000b0: be20 1c3e a72d 0e3e 7842 afbd c8b8 863e
000000c0: a894 f9bd 1e02 123e 0fc9 3cbe 9ffb 883d
000000d0: 100b 3b3e dee2 05be d2e5 b03d 35dc c1bb
000000e0: 5076 8ebd dcf8 6abd 7f2e 6bbd cdaa 443d
000000f0: 073a b53d ad70 203e 830c 00bd 7021 cbbd
00000100: 4b87 343e 721e 80bd 8f9f 89bc 5e2e 28be
00000110: c4bd 773d 834c 26bd 4977 643e f1ac 993d
00000120: f67f 83bd 9356 12be 4898 95bd a492 1bbe
00000130: 2a90 0ebd e44b 893e 482a a93b cf01 913d
00000140: 0a0a 9e3e fdbe 0a3d ec69 b6bd 2e2e 563d
00000150: b4cd ccbc ef2f 89bd 9c47 093e 820c 9bbd
00000160: 34a4 20be a608 f63c e02e bebc e07b f03c
00000170: a9dd 573d ec42 1dbc b132 2a3c ec7e 91bd
00000180: f517 7c3e 0991 653c c91f a03d c66c 29bd
0.015596818 -0.0054975883 0.040823713 0.111832105 0.12667426 0.06509654 0.25523856 0.2111211
0.07571704 0.18745309 -0.0073770843 0.14221667 0.06983862 -0.12160962 0.04988878 0.19245529
-0.007994395 0.12160263 0.023368817 0.13775508 0.31271935 -0.106611334 0.101945944 0.09924153
0.038572624 -0.22532588 0.2886825 0.007286781 -0.3438586 0.049219377 -0.01473362 0.036890063
-0.09283957 -0.010532386 -0.024228007 -0.047103643 -0.107011445 -0.034007642 -0.08577103 -0.02745404
-0.10791651 -0.03984686 -0.09136435 -0.1694888 0.15246865 0.13884602 -0.085576 0.26312852
-0.12186557 0.1425862 -0.18436073 0.06688618 0.18265939 -0.13074824 0.08637585 -0.0059161433
-0.0695616 -0.057366237 -0.05741739 0.04801445 0.088489585 0.15667982 -0.031261932 -0.09918487
0.17629735 -0.06255807 -0.016799716 -0.16423938 0.06048371 -0.04060031 0.22311129 0.07503689
-0.06420891 -0.14290838 -0.07304436 -0.15192658 -0.034805454 0.26815712 0.005162511 0.07080423
0.30867034 0.033873547 -0.08906922 0.052290134 -0.02500043 -0.06698596 0.13406223 -0.07570745
-0.15687639 0.03003342 -0.023215711 0.029355943 0.052701626 -0.009598475 0.010388062 -0.071042866
0.24618514 0.01401163 0.078185625 -0.0413635

l3.weight f4 [18, 100]
00000000: cc2d 5cbc f106 9e3d 3a40 00bd bbb8 743d
00000010: 37b8 7cbd 3788 b23d 8546 cb3d 88ea 8dbd
00000020: a92d 0bbe 48fe a63e 618b c33d ccca e1b8
00000030: 50ab 6b3e 19bb 6ebd e8f0 87bc d1f8 ba3d
00000040: fba2 febb 5389 a23d 15b5 cf3d 08ce 343d
00000050: 0034 a73d 04bf 733e 9b75 193e de4f 8f3d
00000060: aa4a d6bd 3a89 e33d 2c85 41be 7d46 6d3d
00000070: 6a2c 043e eafb 4d3e cc2c 36be a184 e6bc
00000080: 975a 0b3e a80a 24bd 5122 80be bdcb 30bd
00000090: a1e2 003e 526a d13d 4f9b cdbd d6b1 243e
000000a0: 51d4 703c 1431 02be 44e1 b63d 29b3 a0be
000000b0: 0771 efbd 5e64 a1bd 14d9 84be 1374 22bd
000000c0: 3f9e 60bc 8451 173d aec0 803c f428 c4bc
000000d0: a341 593e 46f8 22be cd6e 8a3d 2bda 253d
000000e0: ac8c a9be 45df 3e3e e094 e8bd 2e89 fc3c
000000f0: 4a63 80bd 534e 9b3c fd3a 253e c582 e7bc
00000100: e073 49be 7e19 913d d391 423d 96a2 a23c
00000110: 23d4 973c f93b 573e 7969 933c 0090 61bd
00000120: e3b6 eabd e109 f4bc 38a7 f2bd 4582 15be
00000130: fe85 123e 5cda 2bbe 63aa 0ebd 3d25 41bd
00000140: d6f4 fd3d cf73 0d3e 2469 7d3d dc10 8fbc
00000150: 2f0e 0dbd ddad b33c a3de 843c 285c 923d
00000160: 22b4 613e 5a68 823d f529 c33d 9a0a 683c
00000170: 3983 153c e035 3c3e f347 82bc d226 ce3d
00000180: 34e6 d1bc 2c93 3abd 71d4 503e dd53 323e
00000190: 6dba ec3d f8ba 33bd 1b67 953e 4994 643d
000001a0: 6c72 433e 6ef4 45be abad 06be 838c 5dbd
000001b0: 2c96 3dbe 5a08 463e 5429 323d c79f 11be
000001c0: 8940 183e 3d9e d33b f1f4 3a3c 7a00 bfbd
000001d0: 7f5a 12bc f2fe 063e d36e ca3e 5437 11be
000001e0: ea5b 99be a12a c5bd 828e 8dbd 45a1 6e3e
000001f0: b3bd 3b3e 720a cc3b 781b c9bc 064c b93e
00000200: 0db0 3bbd 9895 653e d292 85bd 1021 6bbd
00000210: 75cb 7ebd 13ad 01be bd8e 0f3e 1396 503e
00000220: 7aff 043c 0dfa 01bd 3a60 8b3d c1ae 303e
00000230: b0c5 fdbd ef97 353d f72d 423d 0e54 393d
00000240: 2d4c 843e a7e6 13be 6763 fc3d 703e 5abe
00000250: fd22 54bc e391 45bd 7e15 733d 95ac 4a3c
00000260: c5d9 923d 1f1e 793d df4a 063e 67af 3abc
00000270: fd2e 3bbe 4d90 7a3d 1051 bdbd 1e8e 683e
00000280: cfac edbd acc3 a33d 7a93 60bc 82e8 0cbc
00000290: 7dcb 673d 5704 0a3b 9eba cfbd 7510 353d
000002a0: 6fdf 84bd 08c8 2f3e ebca 153e 856d 523d
000002b0: 2492 0e3e 2271 203e 3da9 9d3b 4170 af3d
000002c0: d7dc 28be 028b 9bbd 972d 82be bff6 6b3e
000002d0: 66ca 643e 24b6 df3d 8333 8e3e 3dbb a93d
000002e0: 45b6 fc3c 8a25 0a3d d65a 1abe 90a5 8dbb
000002f0: 33b0 243e 4a95 983c 9642 0b3e 4abf cebd
00000300: 4ffa a63d 0c28 003d 2621 21be 731e 803e
00000310: 90bb 9bbe de5f dc3d cc9d 99be 3018 043e
00000320: 3c59 72bd 2af0 ba3c 04be 05be db3a 803d
00000330: 4a2c 07be 5d2c a9bd c854 b3bd 2ad4 193e
00000340: bafc c5bd 6a1d c13e 15a7 033d 06a5 c9bd
00000350: b3b8 99bd dd0b 263d 312f 213e f813 4c3e
00000360: fb76 89bc d102 683e 865c 85bd 50c0 d9bd
00000370: 9b2d ed3d 9e94 733e f3d3 6bbd 9ce0 95be
00000380: 1d4e a23d 2875 0abe d0f2 a2bd 790f 3abe
00000390: b356 8abc 2fc5 07bd 886c 57bd 299e 9b3d
000003a0: 2f98 7bbd a30d 4bbd 679c 2b3e 4700 d7bd
000003b0: 085c 0cbe 7e50 8c3d 0a6a 723d 2415 b83c
000003c0: f1c4 23bd 885e 52be 3c7e 03bd c27f 65bd
000003d0: 08cc b13d 2dcc 47bc 7fb4 0c3d a3be babd
000003e0: d504 65bd 66ac 963d 5e15 863d 8f7c 133e
000003f0: 6bd0 913e 2719 3bbe b55a 93bd 4fb2 9d3d
-0.013438653 0.07716168 -0.03131125 0.059746485 -0.06169912 0.08717387 0.0992556 -0.06929499
-0.13591637 0.32615876 0.09548069 -0.0001076661 0.2301457 -0.0582839 -0.016594365 0.09129489
-0.0077708936 0.07936349 0.101419605 0.0441418 0.08164215 0.23803335 0.14986269 0.06997655
-0.1046346 0.11110158 -0.18898457 0.05792855 0.12907568 0.20115629 -0.17790526 -0.028139414
0.13608776 -0.040049225 -0.2502618 -0.04316305 0.12586452 0.10225357 -0.100393884 0.16083464
0.014699058 -0.12714034 0.08929685 -0.31386688 -0.1169148 -0.07880472 -0.25946867 -0.03966148
-0.013709604 0.036942974 0.015716877 -0.02394531 0.21216445 -0.15915021 0.06759415 0.040491264
-0.33115137 0.18639858 -0.11356521 0.030827131 -0.06268938 0.018958246 0.16135783 -0.028260598
-0.19673109 0.070849404 0.04750235 0.019852918 0.018533772 0.21018972 0.01799463 -0.05506897
-0.11460664 -0.029789867 -0.11848301 -0.14600475 0.14308926 -0.16782516 -0.034830462 -0.047154654
0.124002144 0.13813709 0.061867848 -0.017464094 -0.034437355 0.02193349 0.016219443 0.07146484
0.22041371 0.0636756 0.09529487 0.014162684 0.009125524 0.18379927 -0.015903449 0.10065998
-0.025622465 -0.04555051 0.2039354 0.17414804 0.115589954 -0.04387948 0.29180226 0.05580548
0.19086617 -0.19331524 -0.13152187 -0.05408908 -0.18514317 0.19339123 0.043496445 -0.14221106
0.14868368 0.0064580725 0.011410938 -0.09326263 -0.008932709 0.13183191 0.39537677 -0.14181262
-0.29952937 -0.096272714 -0.06911947 0.23303707 0.18334083 0.006226831 -0.024549231 0.36190814
-0.045822192 0.22420347 -0.065221444 -0.057404578 -0.06220575 -0.12663679 0.14019294 0.20369749
0.008117551 -0.031732608 0.06805463 0.17254163 -0.123912215 0.04433435 0.047407117 0.045246176
0.25839368 -0.14443456 0.12323647 -0.2131288 -0.012947795 -0.04823483 0.05934667 0.012370248
0.071704425 0.06081974 0.13114499 -0.011394358 -0.18279643 0.061172772 -0.09243977 0.22710463
-0.11605226 0.07996306 -0.013707036 -0.008600356 0.056590546 0.0021059716 -0.10143016 0.044205148
-0.06487929 0.1716615 0.14628188 0.051373977 0.13922936 0.15668157 0.0048114345 0.085663326
-0.16490494 -0.07594873 -0.25425407 0.23043345 0.22342834 0.109234124 0.27773675 0.08287666
0.030848632 0.033727206 -0.15073714 -0.004322715 0.1608284 0.018625874 0.1359962 -0.10095079
0.08153211 0.03128819 -0.15735301 0.2502323 -0.30416536 0.10760473 -0.30003202 0.12899852
-0.05916713 0.022819597 -0.13060766 0.06261226 -0.13200489 -0.08260415 -0.08756405 0.1502234
-0.096673444 0.37717754 0.032141764 -0.09845929 -0.07505932 0.040538657 0.15740658 0.19929492
-0.016780367 0.22657324 -0.06511788 -0.10632384 0.11580964 0.23787162 -0.057575177 -0.29272926
0.07925055 -0.13521254 -0.07956469 -0.18169965 -0.016887045 -0.033147033 -0.052593738 0.07598526
-0.06142443 -0.049573552 0.16758882 -0.104981 -0.13706982 0.0685129 0.059183158 0.022471018
-0.03998274 -0.20543873 -0.03210281 -0.056030042 0.08681494 -0.012194675 0.034351822 -0.09118392
-0.05591281 0.07357101 0.06547044 0.14402984 0.28479323 -0.18271314 -0.07195035 0.07700025

l3.bias f4 [18]
00000000: bb99 153e fe39 e9bd d9e5 ddbe 558e 85bd
00000010: e0a2 bfbe 401a 68be 7734 bb3d e7a8 023d
00000020: 12ea fc3d b3aa 333e 7ae8 9a3d 6f07 813e
00000030: ec95 e3be 854e 68bd 63dd 9c3e a65d c4be
00000040: 7d5f 79bd 7cf6 60be
0.14609425 -0.11388014 -0.43339422 -0.06521288 -0.3742895 -0.22666264 0.09140866 0.03189936
0.12349333 0.17545585 0.07563873 0.25200984 -0.4445032 -0.056715507 0.30637655 -0.38352698
-0.06088208 -0.21969026
