LARA/weight/g_40.pt (torch, 87399 bytes, 7 tensors)

G_attr_matrix.weight f4 [36, 5]
00000000: 03d3 843d 80e5 e73d 74bc 413e f22c 3e3e
00000010: 9fbd 20be f492 8dbd 0f86 cfbc c1cd 13be
00000020: e6ab 2a3e 4bf0 dcbd d4e2 2dbe d735 34be
00000030: 9f5b ba3d ef9b ddbe 9d83 a8bc a366 a83d
00000040: 7114 df3e a44a 603e 14a1 8bbe 523b 083e
00000050: 2584 6a3e b988 99be 23c4 bf3d 1433 19be
00000060: 8305 28be b666 613d c852 663c f930 a63e
00000070: 8236 953d 7c25 b23e 06c3 723e 76ea 08bf
00000080: 04e7 1a3e 7a48 73bd 4b54 3f3e 70cd 63be
00000090: 1923 eebd af3e ca3d 038d 623e cecf e83d
000000a0: 1d9b a4be 573d 1f3e e29f 6cbe 1f48 cebd
000000b0: a569 ec3e f108 8e3e 8490 3b3e 7ff8 75be
000000c0: 6d46 8ebe 546d 7abb 5fec b9ba add4 1cbd
000000d0: a581 3f3e 9fee b4bc eb97 46be 5650 b4bd
000000e0: e2f6 413e 46b9 4abe f030 f33d 0901 0cbe
000000f0: 039b 143f e216 3fbe 1a64 df3d 5ce3 813e
00000100: ff01 f03b a565 323e ce9c 38be 2710 10bd
00000110: fcf7 9bbd 9ab0 5c3c 6865 7ebe 8ece 85bc
00000120: 2d3c 19be b7ef cebe 8f27 493e 657b c7bd
00000130: 116b 743d f836 2b3b cab6 f13d 67e1 4bbe
00000140: 0859 e13d acec b9be f8ae 3ebe b445 33be
00000150: 7920 9cbe b60e 19bd bea2 b0be 9d20 17bc
00000160: 5703 5fbe 0b98 163e 033d 713d 279c b9be
00000170: d657 12be a6ec 1a3e 3513 ad3d 6715 043d
00000180: 1560 27bd 1d03 a13e 358c c6be 9d90 2cbe
00000190: f345 e63d ddd0 18bd 316f 6a3e 417e 143e
000001a0: cde3 123e 318e f13b d647 3d3e a51a b13d
000001b0: 3a0a 9d3d 9063 503e 08b4 8bbe 5ab4 6e3e
000001c0: 6697 4ebd 9203 e23d 7a08 c2bc b2d2 e43d
000001d0: 3897 803e 296e 483e c2a8 b03d 0ba7 24be
000001e0: f813 023e af52 22be 6c3a 0c3e c704 943d
000001f0: bcf4 8fbd eea4 b93e f07e c8bd 4715 663e
00000200: 4480 2a3e 61bd 203e e77a b83b 318f 593d
00000210: 9a71 e23b e3ea 55be 7908 24bb 61c0 413e
00000220: 0294 73be 0700 223d ab6c c63c 0467 08bc
00000230: 2ac3 563e 8ad1 debd f594 08bd 5c29 893c
00000240: a1cc 313e 4151 77bd 9af4 033d d870 f63d
00000250: f51f 423c fdd2 58bb ecb2 f63d ba60 0f3e
00000260: 2153 efba ea55 edbe b39d 663e 58f6 e7bd
00000270: 49e9 7c3e 9d38 283e 7321 2b3e 0882 2fbe
00000280: 7d6a c13d a9d8 bc3d 786f 33be 8f41 0fbc
00000290: 0154 12be 39a2 a9bd bb62 163e cc25 653e
000002a0: 76b1 a3ba 1bf0 733d 5225 823d fa3b a1bd
000002b0: 092e 9abb 7d54 adbc 9142 2f3d fa49 0c3e
000002c0: b354 4bbe 6629 963c 72fa 45bd 54c5 8b3d
0.0648556 0.113230705 0.18919545 0.18571833 -0.15697335 -0.06912795 -0.025332479 -0.14433958
0.16667137 -0.1078802 -0.1698106 -0.17598663 0.090995066 -0.4328303 -0.02057057 0.082227014
0.43570283 0.21903473 -0.2727133 0.13303879 0.22901972 -0.29987124 0.09363582 -0.14960891
-0.16408353 0.055029593 0.0140578225 0.32459238 0.07285787 0.34794223 0.23707208 -0.5348276
0.15127188 -0.05939529 0.18684499 -0.22246337 -0.11627788 0.09875237 0.22124104 0.113677606
-0.32149592 0.15550743 -0.23107865 -0.1007235 0.4617435 0.27741197 0.18316847 -0.24020575
-0.27788106 -0.0038212137 -0.0014184824 -0.03828876 0.18701799 -0.02208644 -0.1939389 -0.08804385
0.18941835 -0.19797239 0.118745685 -0.1367227 0.5804903 -0.18661073 0.10907765 0.25368774
0.0073244567 0.17421587 -0.18028566 -0.035171654 -0.07615659 0.0134698395 -0.24843371 -0.016333845
-0.14964361 -0.40417263 0.19643997 -0.097403325 0.05967242 0.0026125293 0.11802442 -0.19910203
0.110033095 -0.3631338 -0.18621433 -0.17507058 -0.30493525 -0.037367545 -0.34499162 -0.009224084
-0.21778618 0.14706437 0.058896076 -0.36251947 -0.14291319 0.15129337 0.08450929 0.032246973
-0.040863115 0.31447688 -0.38778844 -0.1685204 0.112438105 -0.037308563 0.22893979 0.14501287
0.14344712 0.007371687 0.18484434 0.0864766 0.07667966 0.2035048 -0.2728579 0.23310986
-0.050437354 0.11035837 -0.023685683 0.111729994 0.2511537 0.19573273 0.08625938 -0.16079347
0.1270293 -0.15851854 0.13694161 0.07227474 -0.07029101 0.36258644 -0.097898364 0.22469054
0.16650492 0.15697242 0.0056298855 0.053115074 0.006910515 -0.20890383 -0.0025029464 0.18921043
-0.23786929 0.039550807 0.024221739 -0.008325342 0.20972887 -0.1087981 -0.03334518 0.016743354
0.17363216 -0.060380224 0.032215692 0.12033242 0.011848439 -0.0033084743 0.120458454 0.14001742
-0.0018259027 -0.4635461 0.22521095 -0.11326283 0.24698366 0.16427846 0.16711979 -0.17139447
0.09444139 0.09221012 -0.1752299 -0.008743658 -0.14289857 -0.08282895 0.146861 0.223777
-0.00124888 0.059555154 0.063547745 -0.07872768 -0.004705195 -0.021158451 0.042788092 0.13700095
-0.19856529 0.018330287 -0.048334546 0.06824747

l1.weight f4 [100, 90]
00000000: 3366 56bd a55f 34be 388b 503e d685 babc
00000010: 1b1e dbbd 68c9 0cbd 4288 2d3d d024 0c3e
00000020: 8e74 bbbd 0d74 b8bd dacb 193e b3fd ea3d
00000030: a921 f5bd 38ca 0bbd 31bb 673d 74d9 22be
00000040: 39cc ccbd 461a ee3a eefa 7ebd b839 2bbe
00000050: 5bff b43d 356a fabc 916b 0a3d d2d9 18be
00000060: f072 20be 73c0 e3bc dde0 76be 55ea 1f3e
00000070: 234d 2abc ab79 333e 5061 923d 0d4f 18bb
00000080: a1f7 2f3d d7b2 e13d 33b1 183e bc89 273e
00000090: 0d77 0d3d 7056 4d3e c8c6 733d eb9d 5fbc
000000a0: 349a c7bd 8390 0c3e 30a2 bb3d 6ec9 90bc
000000b0: f12a 74be 4593 44bd 7c8e 253d e582 803d
000000c0: 3561 33bd 2ed1 3a3d aa42 68be c90f 38be
000000d0: 47c6 0c3e 2daf ecbd fc7a 5e3d cc64 9cbd
000000e0: 322c 6a3d d787 213d 42fb 503e 5ec8 2cbe
000000f0: c70f 873c 26d0 c73d 078b 84bd 166a a03d
00000100: 1fbc e5bc 214c 4fbd 711b fe3c abba bebd
00000110: c430 b13d 82bd d1bd 8e93 aebd 08c0 8fba
00000120: 8854 b0bd ee53 ef3c 8d96 a23d 07ff d8bd
00000130: 0683 9fbc 6be1 93bd c8df 41bd 768c d93d
00000140: a792 3cbe 1b49 c13d 769d 70bd d7a8 9f3c
00000150: 435e 96bb 27bc a1bd fc9c 783d 0bc0 28be
00000160: 6121 8dbc cd50 2d3d 4320 14be 0b2a 9abb
00000170: 3b80 d8bd 0764 1c3e 9b2f b3bd 8b16 1d3d
00000180: 2439 65bd 3ca0 0b3e 5056 8bbc e4a7 24be
00000190: 8ac8 f83d bd3d 67bc e995 debb 73fe f03b
000001a0: 9684 563b 1065 20be 2cd6 bbbd 65bb 073e
000001b0: 63d6 123e 466e a83d 92f4 c8bd d005 6ebc
000001c0: 4721 0b3e f5e7 f8bd 9879 ae3d fb24 fbbc
000001d0: d700 13bc b4ee 0bbc b0ca 453e c6a3 1fbe
000001e0: 2b04 a6bd ca32 733d 7c4f e23b 22ac ff3b
000001f0: 1d0e 5abd a4ed 033e 0f1b 0abe 6388 97bb
00000200: b158 8f3d 5345 6dbd 60d4 bc3d 6c3f de3c
00000210: 9501 eebc 27fb 023e d7be c1bd 9c6e 883d
00000220: 6ff9 173d bb93 093d 34cc d1bd 6364 f9bd
00000230: 2dfd c13d 8b28 223e 0a38 83bd f3a9 84bd
00000240: 27cc 04be 8a49 2f3d 6f33 83bd 915b e13d
00000250: 6f11 84bc c60b 9a3c 028c 713e 937c 2c3e
00000260: fefe 91bd eeec a5bd 96e1 35bd 0ec2 33be
00000270: bf14 89be ddd0 9f3c 7298 60bd ae8b 3fbe
00000280: ef8c 203e 5fd4 003e 93cc 45bd f42b 5bbd
00000290: 1d76 9a3d 57d0 0cbe 33ec a6bd bbff 21be
000002a0: 0365 993d fa9d 9bbd 8ac0 0dbe 4ec2 f7bd
000002b0: 7c79 5b3e 2952 6e3d 2df8 213d 34c6 143e
000002c0: 0ed9 703d 9953 b0bd e0f3 28bd 1eaa e8bc
000002d0: 4514 95bd 1af9 d6bd d40a c9bd ec67 30be
000002e0: 91a1 abbc 438f ad3d 3550 1e3e f6a0 89bc
000002f0: 7ccd e83d ed16 9a3c 46d2 0dbc 3ab5 7c3e
00000300: f8e6 2e3d d998 dbba 2e7b adbd 46c9 12bd
00000310: f18b f83d 3748 b53d 4cd0 aebd 49ab efbd
00000320: 6e7b 4abd ef01 7e3b fe44 b9bc 4b9a 213d
00000330: ba99 06bd 9d93 f83d b57e f03d 1942 163e
00000340: 565b af3d d00b 4a3e 8940 ea3d 01df 07be
00000350: ca26 94bc dbda d9bd c44e de3c 5a2b cb3d
00000360: 7b39 09bc 32be e43d 22cb 183e ffa3 ccbd
00000370: df97 583d bfc1 b03c e3b9 fbbc b41f ef3d
00000380: a81e 763d ba76 e9bc 7668 09be 2930 27be
00000390: ded3 953d 78c4 94bd 3091 febc ad79 06bd
000003a0: dbb9 03be cac9 2ebd c30a 793e f113 01bd
000003b0: 41fd 3c3e c9cd d8bd bef2 23bd 5ccb a53d
000003c0: 2dc4 ce3d d1f2 27bd 1b5a ca3a 82ca adbd
000003d0: 0055 fb3d c0c0 d4bd 0a2e 423d 304c a4bd
000003e0: ca53 953c 70f0 87bd f8bf 5a3a d300 6dbd
000003f0: a6e8 353d faba 9abd 5d0e b53d d137 b9bd
-0.05234356 -0.1761461 0.20365608 -0.022768896 -0.106991015 -0.034371763 0.042366274 0.13685918
-0.091530904 -0.0900651 0.1501917 0.114741705 -0.11969311 -0.034128398 0.056575004 -0.15903264
-0.0999989 0.0018165789 -0.062251024 -0.16721237 0.08837768 -0.030568222 0.03379399 -0.14926842
-0.15668845 -0.027801728 -0.24109216 0.15616734 -0.010394367 0.17526881 0.07147467 -0.0023240477
0.042960767 0.11020439 0.14911346 0.16361135 0.034537364 0.20052505 0.059515744 -0.01364849
-0.09746209 0.13727002 0.09161794 -0.017674174 -0.23844506 -0.04799201 0.040419087 0.06274966
-0.043793876 0.045609646 -0.2268168 -0.17974772 0.13747512 -0.1155685 0.054316506 -0.07636413
0.057171054 0.039436188 0.20408347 -0.16873309 0.016487015 0.09756498 -0.0647183 0.07832734
-0.028043805 -0.05060971 0.031018944 -0.09312948 0.086518794 -0.10241224 -0.085242376 -0.0010967264
-0.08609873 0.029214825 0.079388715 -0.105955176 -0.019471657 -0.072207294 -0.047332555 0.10622494
-0.18415318 0.09437772 -0.058743916 0.019489689 -0.0045888736 -0.07897215 0.060696587 -0.16479509
-0.01722783 0.042313386 -0.14465432 -0.004704719 -0.10571333 0.15272532 -0.087493144 0.038351577
-0.055962697 0.13635343 -0.01700893 -0.1607967 0.12147625 -0.014113841 -0.006792773 0.0073545515
0.0032732836 -0.15663552 -0.091717094 0.13255079 0.14339595 0.08224158 -0.09812273 -0.014527753
0.13586913 -0.12153617 0.08519286 -0.030657282 -0.008972368 -0.008540798 0.193156 -0.15589818
-0.08106264 0.059374608 0.006906448 0.0078025023 -0.053236116 0.12883621 -0.13486885 -0.004624413
0.069993384 -0.05792744 0.09220195 0.027129851 -0.029053489 0.1279112 -0.09460228 0.06661722
0.037103113 0.033588152 -0.10244027 -0.1217735 0.094721176 0.15835778 -0.06407173 -0.06477728
-0.12968503 0.04279474 -0.064062946 0.11003793 -0.016121594 0.018804442 0.23588565 0.16844396
-0.07128714 -0.081018314 -0.04440459 -0.17554495 -0.2677364 0.019508773 -0.054832883 -0.18705627
0.15678762 0.12581013 -0.0482908 -0.053508714 0.075420596 -0.1375135 -0.0815052 -0.1582021
0.074899696 -0.07598491 -0.13842979 -0.120976076 0.21433061 0.058183823 0.03954332 0.14528733
0.05880075 -0.08609695 -0.041248202 -0.02840143 -0.07279257 -0.10496731 -0.098165184 -0.17227143
-0.020951064 0.08474591 0.15460284 -0.016800385 0.11367318 0.01880976 -0.00865609 0.24678507
0.042700738 -0.0016753926 -0.0847076 -0.03583648 0.12136067 0.088516645 -0.08535823 -0.11702592
-0.049434118 0.0038758477 -0.022615906 0.039453786 -0.03286145 0.1213753 0.117429174 0.14673652
0.08562343 0.19731069 0.1143809 -0.13268663 -0.018084902 -0.106374465 0.027137168 0.09920378
-0.008375521 0.111690894 0.14921239 -0.09992217 0.05287921 0.02157676 -0.030728286 0.11675969
0.06008783 -0.028498996 -0.13418755 -0.16326965 0.07315801 -0.07264036 -0.03107509 -0.032830883
-0.12863867 -0.04267291 0.24320512 -0.03151316 0.18455984 -0.105861254 -0.04002642 0.08095428
0.10096011 -0.041003052 0.001543823 -0.08485891 0.12272072 -0.10388327 0.047407188 -0.08022344
0.01822843 -0.06637657 0.00083446456 -0.057862114 0.044411324 -0.07555194 0.0884063 -0.09043849

l1.bias f4 [100]
00000000: 0f4f 863b 2c10 cc3c e26b 553e e677 343e
00000010: 6eba cdba 2da1 49be 946e cabd e011 443d
00000020: 7dc2 2cbe a83d 86bd fd3f 81bd 281f 8a3e
00000030: 2fa9 b8bd f974 8f3d 96f3 4bbc 99ed 953d
00000040: d559 d8bd db16 99bd 77ec 283e 3178 863c
00000050: eb74 013d f18b 253e 9490 12bd 1ac0 56be
00000060: 103b 3dbe 0535 503e 8c81 203e c0cd 31bc
00000070: 79b6 aabd 2942 97bd 7433 c63d a898 5c3d
00000080: 6cf5 f1bb 3f2f ee3e dc16 153e 687f 9a3c
00000090: efdb 6dbe fef5 213e 088d 0f3d 6734 7a3d
000000a0: 7b7b ec3d d727 8c3d 171c a3bd 27f5 bfbb
000000b0: cd5e 38bd a3cb 5c3e 29fc 5cbe 9e9b a2be
000000c0: 7589 893e 1e43 243e 13d5 e43d 523d 35be
000000d0: e5e2 debc 8e9d bebd 6c52 1a3c edae b23b
000000e0: fa70 6dbe 8775 4f3d dda1 8d3e 1460 f03c
000000f0: cf01 2c3e f7cd 5b3a d3f9 e73d d999 7dbd
00000100: eac2 0cbe bfa7 9dbd 8fe2 8f3b 6546 9fbd
00000110: 8682 a3bd 1623 373e dbc1 3b3e 9392 5b3d
00000120: 1e02 fcbd 1f1f bdbd 8290 b53d d011 f03d
00000130: 799b 68be ce29 26bd c6d5 0d3d 0974 5d3a
00000140: 9bab 9fbd c221 3cbd 6076 26be 4b07 063d
00000150: ea3f 873e 9d16 f4bc b194 d0bd 3d2e b23d
00000160: 35db d1bd 4052 0dbd 4a28 60bd 38bb 643d
00000170: 1916 9d3c a599 00be 8055 79be 73aa 0cbd
00000180: faf1 343d fb02 a8be 9d44 68bd 4d72 d1bd
0.00409878 0.024910055 0.20841935 0.17623863 -0.0015695819 -0.1969039 -0.09884372 0.04786861
-0.16871066 -0.06554729 -0.06311033 0.26976895 -0.09016644 0.07004733 -0.012448212 0.07320709
-0.10564009 -0.074750625 0.16496454 0.016414734 0.031605642 0.16166665 -0.03578241 -0.20971718
-0.18479562 0.20332725 0.15674418 -0.010852277 -0.08335585 -0.07385666 0.09677783 0.05385652
-0.007383993 0.4652042 0.14559501 0.01885958 -0.2322843 0.15816495 0.035046607 0.06108513
0.115469895 0.06843536 -0.07964342 -0.005858082 -0.045012284 0.21562056 -0.21580566 -0.31759351
0.26862684 0.16041228 0.11173453 -0.17699173 -0.027207801 -0.09307395 0.009419065 0.0054529817
-0.23187628 0.050649192 0.27662554 0.029342689 0.16797565 0.0008384878 0.11326947 -0.0619143
-0.13746229 -0.07698011 0.0043910216 -0.077770986 -0.0798388 0.17884478 0.18335669 0.05360658
-0.12305091 -0.092344515 0.08865453 0.117221475 -0.22715558 -0.04056721 0.0346277 0.00084477715
-0.07796403 -0.04593063 -0.16256094 0.0327218 0.2641595 -0.02979594 -0.10184611 0.087002255
-0.102468885 -0.034502268 -0.054725923 0.05584261 0.019175576 -0.1255861 -0.24349022 -0.03434224
0.04417608 -0.32814774 -0.05670606 -0.10226879

l2.weight f4 [100, 100]
00000000: a6f2 50be acfe 8c3e 441d 04bd a8df 043e
00000010: aa24 dc3d 8f99 1a3e 45f2 d03c 60e3 fb3c
00000020: c495 84bd 23b5 da3d c127 ecbd 3648 1eba
00000030: 42bb cb3c 14bf 0bbd 6219 d5ba 181f 2f3e
00000040: abca 763d 2b85 0a3b 8e77 9abd 08aa dfbd
00000050: f4bb c1bb 1c6a 2e3b 2a79 abbd b86a 573d
00000060: 9124 45bd 8d8e fe3c 4ac3 82bd b8ce af3c
00000070: 5ca0 ffbd a063 a5bd ed4c 16be 87fa 3abd
00000080: 7c65 1b3e fdb2 f63b a770 d13d 5bc5 2a3e
00000090: 160b 7cbd 2cb4 d6bd a060 a13d f70a 183e
000000a0: 4034 4bbe 0950 fe3d 3957 7bbc 1aa2 173e
000000b0: 4f3c bebc 199b 973d 7707 f8bc ccfc d4bd
000000c0: 079f 643c bfba cb3d 2c5f f73d 6e90 3a3d
000000d0: 4d25 a3bd a27e eabd 26c6 14bc c643 1fbe
000000e0: 7abc e3bd b2a4 ff3a 7af0 61bd 3867 9abc
000000f0: 0665 9abd d0f0 1f3d 3651 22be d959 b6bd
00000100: c784 ae3d 7aa9 433e 5dd2 613d f96f 333e
00000110: f558 763c adf3 bd3d 6754 00be dd07 c8bc
00000120: 3e4c 3d3d c59d 4c3e 2f98 4a3c dfc2 483e
00000130: b117 cb3c 46bf 083e 6e93 30bd 6265 22be
00000140: c814 37b9 a785 9cbc 135a 173c 3b9d 4abd
00000150: a2cd 323e 644c fe3c f23c 0b3e 5cd5 0d3e
00000160: 92bb dc3d bde7 63bd 6cd5 00be b72b c43d
00000170: 065a 2c3d 68ed 81bc 3690 3fbe 46d8 05bd
00000180: c810 eb3b a88a 12be 14e4 b43d 0a83 bebd
00000190: 3179 53bd d249 02be 7a35 e2bd 9998 913e
000001a0: 2eb5 3b3d c7f8 703e f9a5 b03d 786f b9bc
000001b0: 6ff4 2c3c 23aa c43c 19d6 913e a346 2dbc
000001c0: 9134 d53b 6f9c c3bd 4804 623e fae8 103e
000001d0: f3e2 623c 82d2 8f3d ec25 45bd c492 a0bd
000001e0: 67f7 08be c966 ba3c 33db c63c 92be fcbd
000001f0: b04f e1bc ffcf c13d 64b9 3cbe 039c 583e
00000200: c0d5 97ba fe98 4dbc 8bf5 39bd 6b38 933d
00000210: c07c 35be 54a5 553d 48bb 81bd 643a 92bd
00000220: 7f8a 21be c034 b3bb 3def 3c3d f4d7 0f3d
00000230: c04c 00be de98 abbd 5130 b23d 985c 5fbd
00000240: aee5 26be 9714 233d 2e44 a83c 9e98 b93d
00000250: cb78 09be 3cbe 483c 53fd 14be 282c 63bd
00000260: 6394 873d c498 b93d 2210 a0bd 7af6 943e
00000270: 531d a63d 45be 743d 0e1f 49bb bd9b 043c
00000280: f2ce 02be 3f01 653d aa8c 203b 8dd4 0bbd
00000290: 8b00 38bd eb48 1ebe 0588 83bd 82fa 383d
000002a0: 599a d63d 349f 91bc 3eb5 9e3d dffe 033c
000002b0: 965f 1b3d e7ca 49be d603 2abd e8b8 203d
000002c0: b263 9cbc b840 5ebe 755d aebd dff7 e3bd
000002d0: d270 1bbd 5731 25be 4975 423e 9ee7 963d
000002e0: a08f fd3d cad8 933d de39 f1bd fe38 ba3d
000002f0: 0e18 ab3d ec91 1ebe a221 0f3e 790f 28bd
00000300: 6168 61bd e55e 5dbd 7ae5 8c3d bcd7 5cbe
00000310: 7e49 b5bd 2ff1 ce3b f976 0d3e d826 16be
00000320: eb48 693d ae73 d1bd 31a2 dd3d c2c3 a2bd
00000330: 8c34 eb3d 7206 05bc 1a63 c43c 9cb3 8d3c
00000340: 074c 04be adc4 033d 8ae0 893d 23ce a8bd
00000350: d10a b93d 8a82 90bc 891a b03c 3d8c 95bd
00000360: 55d6 f53c c846 4fbc 689c 11bd f9c3 973c
00000370: b6ba c0bc 1dbd e03d 68a6 0f3d 88f7 44be
00000380: 8621 2e3e 08e2 a0bd f97d 2e3e f7a3 9e3b
00000390: 2ce9 143d 4573 4a3e defa 503e 4df9 34be
000003a0: f04a 09be 7e27 993d ed78 e1bc 2752 013e
000003b0: 3d77 9bbc 4e25 e63d f26b 2d3d ce89 ce3c
000003c0: 5665 12be cff4 e6bd 6449 c93d 0b72 9a3d
000003d0: 69b6 cbbd 5569 d53c fdfc bdbd 7a4f 2b3e
000003e0: b3c8 913c 66f4 aabd 30a8 9cbc a602 fabd
000003f0: a02e b93c 9944 283e e24b 74bd ec78 cd3d
-0.20405063 0.2753805 -0.032254472 0.12975943 0.107491806 0.1509764 0.025506148 0.03074807
-0.06473878 0.1067908 -0.1153102 -0.0006037982 0.024869565 -0.034117773 -0.0016258175 0.17101705
0.060251873 0.0021136503 -0.075423345 -0.10921103 -0.0059122983 0.002661354 -0.083727196 0.05259201
-0.048130576 0.031073833 -0.06384905 0.021460876 -0.12481758 -0.080756426 -0.14677782 -0.045649078
0.15175432 0.0075286613 0.10226565 0.16676848 -0.06153401 -0.10483584 0.07879758 0.14847933
-0.1984415 0.12417609 -0.01534062 0.1480793 -0.023222117 0.074026294 -0.030276997 -0.1039978
0.013953931 0.09947728 0.120786995 0.045547895 -0.07966099 -0.114499345 -0.009080445 -0.15553197
-0.111199334 0.0019504039 -0.055160977 -0.018848047 -0.075388 0.039048016 -0.15851292 -0.08903856
0.08521419 0.19107619 0.05513226 0.17523183 0.015035857 0.09274993 -0.12532197 -0.024417812
0.04621529 0.1998206 0.012365385 0.19605587 0.02479157 0.13354215 -0.04310935 -0.15858987
-0.00017459982 -0.0191067 0.009237784 -0.049466353 0.17461255 0.031042285 0.13597468 0.13850921
0.10777964 -0.055640925 -0.12581414 0.095786504 0.04207804 -0.015860274 -0.18707356 -0.032676958
0.0071736313 -0.14310706 0.08832565 -0.093023375 -0.05162925 -0.12723473 -0.11045356 0.28436735
0.045827083 0.23532401 0.08625407 -0.02263616 0.010556324 0.024006909 0.28483656 -0.010575923
0.0065065105 -0.09551322 0.22071946 0.14151374 0.013848054 0.07022573 -0.04813187 -0.07840493
-0.13375627 0.02275409 0.024274444 -0.12341036 -0.027503818 0.094635 -0.18430096 0.21153264
-0.0011584088 -0.012548683 -0.045400184 0.07188495 -0.1772337 0.052159622 -0.06334549 -0.071400434
-0.15775488 -0.005468935 0.046126593 0.03511806 -0.12529278 -0.083787665 0.08700622 -0.054531664
-0.16298553 0.039814558 0.020540323 0.090623125 -0.13424985 0.012252387 -0.1454976 -0.055462033
0.066200994 0.09062341 -0.07815577 0.29094297 0.08111062 0.059751768 -0.0030688676 0.0080937715
-0.12774256 0.05590939 0.0024497905 -0.03413825 -0.044922393 -0.15457503 -0.06422428 0.045160778
0.10478658 -0.01777611 0.07749413 0.0080563715 0.037932955 -0.19706307 -0.041507564 0.03923884
-0.019090507 -0.21704376 -0.08513919 -0.11131262 -0.03794939 -0.16132103 0.18990053 0.07368396
0.1238091 0.072190836 -0.117786154 0.09092902 0.083541974 -0.15485352 0.13977674 -0.04103038
-0.055031184 -0.054045577 0.06879707 -0.21566671 -0.08851908 0.0063153724 0.13814916 -0.14663255
0.056954306 -0.10227142 0.10821951 -0.07947494 0.11484632 -0.008119212 0.023973037 0.017297558
-0.12919627 0.032169987 0.067322806 -0.082424425 0.09035266 -0.01764037 0.021497028 -0.07302139
0.030009428 -0.012651153 -0.03554955 0.018526064 -0.02352653 0.109735705 0.035070807 -0.1923505
0.17004976 -0.07855612 0.17040242 0.0048413235 0.036355183 0.19770534 0.20408198 -0.17673226
-0.13407493 0.07478236 -0.027523482 0.12628995 -0.018977756 0.11237584 0.042339273 0.025212195
-0.14296469 -0.11277162 0.09828451 0.07541283 -0.09946901 0.026051203 -0.09276769 0.16729537
0.017795896 -0.083473966 -0.019123167 -0.122075364 0.02260524 0.16432418 -0.05964268 0.1003283

l2.bias f4 [100]
00000000: 630b db3b 0da2 643b 2f2c 4e3d cbd1 d23d
00000010: ca21 103e b32d 883d 73e1 823e 3d07 5f3e
00000020: 97ed 913d d79f 453e 16b9 94bc 1971 183e
00000030: 1217 983d 875b eebd 64d2 633d 4ae9 3b3e
00000040: 9a5a 83bc baca fa3d 6178 913c 7dd6 0e3e
00000050: c1a8 9f3e 68d5 babd 9003 e03d 46e3 c43d
00000060: 3011 463d e2aa 60be 015d 943e e494 603c
00000070: ef86 b4be ebfd 5a3d dc22 a4bc 7834 e53c
00000080: 015f b0bd 92c9 ddbb 6f4f e8bc 4375 50bd
00000090: fb52 d1bd 83e3 2cbc f5bb 93bd b803 11bd
000000a0: 5eae c2bd 18c1 4dbd 001a a9bd b27d 24be
000000b0: 8b91 203e 1dd2 0e3e 0e16 c0bd 3031 853e
000000c0: f659 e7bd 9e9f 143e eae3 35be d506 893d
000000d0: b50f 403e 4114 00be 653c a73d 0358 7ebc
000000e0: 07d9 85bd 8603 41bd 8a64 60bd d12c 5b3d
000000f0: b52f bc3d c1a4 183e f0dd f7bc 2663 d3bd
00000100: e38a 3f3e e848 82bd 8ed6 88bc 9c77 2abe
00000110: f45f 833d 979a 01bd 3a73 613e f5d3 893d
00000120: aae7 87bd b285 06be 4cf7 89bd c972 1cbe
00000130: 2ed8 1fbd 8469 893e 0a94 bfbb 69e3 873d
00000140: 4a01 9b3e 4b84 113d 325e babd 335a 703d
00000150: 7f7b 08bd f56c a2bd 7056 0e3e c859 99bd
00000160: c51c 26be 50ac 8d3c fd0f e1bc c3e7 5c3c
00000170: 8b72 493d aadf 9cbc 1c44 183c 4e13 88bd
00000180: 0818 773e adbf 9a3c 186c 883d fd2a 45bd
0.006684707 0.003488663 0.050335106 0.10293921 0.1407539 0.066493414 0.2556263 0.21780105
0.07125395 0.19299255 -0.018154662 0.14886893 0.07426275 -0.11638551 0.055620566 0.18350711
-0.016034413 0.12245698 0.017757596 0.13949008 0.31183437 -0.09122735 0.109381795 0.096136615
0.048356235 -0.21940187 0.28977206 0.013707373 -0.35259196 0.05346481 -0.020036153 0.02797912
-0.086118706 -0.006768414 -0.02835819 -0.05089308 -0.102209054 -0.01055229 -0.07213584 -0.035403937
-0.09505914 -0.050232977 -0.08256912 -0.16063574 0.1568052 0.1394734 -0.093792066 0.2601409
-0.112964556 0.14514014 -0.17762724 0.06690756 0.18755992 -0.12507726 0.08165816 -0.015523913
-0.06535535 -0.0471225 -0.05478338 0.053509537 0.09188787 0.14906599 -0.030257195 -0.103216454
0.18705325 -0.06361562 -0.01670387 -0.1664719 0.06414786 -0.03164157 0.22016612 0.06729881
-0.06635983 -0.13136938 -0.06736621 -0.15278162 -0.039024524 0.26838315 -0.005846505 0.06635172
0.3027442 0.035526555 -0.090999976 0.05867977 -0.0333209 -0.07930938 0.13900161 -0.074878275
-0.16221912 0.017294079 -0.027473444 0.013482991 0.049181502 -0.01914962 0.009293582 -0.06644307
0.24130261 0.018890226 0.06661242 -0.0481367

l3.weight f4 [18, 100]
00000000: a59a a5bc 9f88 a13d 805b 13bd e5e2 8f3d
00000010: 3cbc 8bbd 4111 bf3d def3 d23d 45cd 8bbd
00000020: 924a f5bd ee01 ab3e 02b3 c73d 1cb0 6a3b
00000030: cf73 7a3e b007 7cbd 82e4 e8bb 528c d13d
00000040: 382e 77bc c529 b53d 3743 e13d 24ea 4d3d
00000050: d727 a83d 16b0 713e 2b41 103e 4e62 8e3d
00000060: ae13 b8bd 4c5a e13d b843 3ebe b271 5c3d
00000070: 3b8c 023e 9591 533e abce 3abe 6b0a 0abd
00000080: 50cf 023e ecf6 26bd 04bc 7abe adf2 3bbd
00000090: eefc 0a3e 8cd6 dc3d d033 d6bd 6f1c 313e
000000a0: fd25 923c 2834 0cbe b7e8 a73d 3a4c a2be
000000b0: 6a9c f6bd bdf9 a4bd 7e28 8abe 9f52 cdbc
000000c0: c0a2 b8bc c548 0c3d 3198 333c 4b6d 65bc
000000d0: f48f 5b3e bcc2 2ebe 1317 903d 5cad 123d
000000e0: c4ae a6be 76a1 423e a232 03be 8cf6 d03c
000000f0: dd98 75bd 8db5 ed3c dd14 203e 90c5 10bd
00000100: b870 4bbe e373 9a3d c22f 463d 9dfa 8d3c
00000110: 6cf9 aa3c b18f 5a3e 7d5c 963c 1fc7 58bd
00000120: fbf1 04be d159 ebbc 75ff eabd c571 15be
00000130: 0013 143e 5cb6 24be ce7a f1bc cb4f 33bd
00000140: d4fd 023e 44f4 103e 5674 693d 290e 95bc
00000150: ec33 b2bc 1356 3cbb a2a1 053c 4baa a43d
00000160: 71c3 593e 3609 8c3d d1ac bc3d e0d2 003c
00000170: c83f 433b 75be 393e 502c 39bc 2667 bd3d
00000180: 3fd4 88ba 6f41 5ebd ce98 583e 0e5b 2d3e
00000190: 943f ed3d 4d82 e9bc 95c2 983e 9d55 273d
000001a0: 5d8b 4b3e 8ddf 39be 3b55 06be 704e 39bd
000001b0: 5730 3bbe d9a0 443e c30a 3e3d 2c6d 0abe
000001c0: 9905 113e 88c1 ce3b ea23 973c a3b6 c2bd
000001d0: 6e11 66bc 7ebe 033e 0420 c43e a928 16be
000001e0: e486 98be 0be1 afbd ed41 83bd 118a 683e
000001f0: 08ce 403e bfc7 9c3b 2135 a8bc 92e0 b13e
00000200: 58a3 4bbd feda 523e 2265 88bd 6d57 53bd
00000210: fe51 8abd 4e30 09be f743 0f3e a572 4f3e
00000220: 387d 8e3c 0058 22bd 7418 953d 0c34 273e
00000230: 5805 fcbd a2b3 233d ea67 683d cfd2 2a3d
00000240: 6014 863e eaa7 0fbe 1ed7 e63d 4c8e 54be
00000250: b287 90bc 9282 35bd c8d2 273d 67e0 da3c
00000260: 8e91 993d 5f50 833d 1177 0b3e 50d2 c6bc
00000270: 3c2a 3cbe 9288 983d b246 c2bd 3207 593e
00000280: c55c e2bd 5472 9a3d 5229 fcbb 7b57 d1bc
00000290: 9c9c 833d 5f04 bdbb c1d5 c1bd 9fa0 223d
000002a0: ea9e 74bd 8fee 2f3e c009 1b3e 9746 413d
000002b0: 9ca6 1f3e 5a30 183e 87c1 893c 8cc5 a53d
000002c0: cf48 2fbe e9f9 94bd 623f 7bbe 1a5a 6a3e
000002d0: 995f 663e d94f e43d f903 873e 5056 b43d
000002e0: e59d 283d e357 073d d9a6 16be 5a3a b3bb
000002f0: 94ff 1b3e be4f c13a 87f6 093e bb2f e6bd
00000300: d933 a53d 63d1 ab3c b72a 24be 3a45 883e
00000310: c038 9cbe 8ede d03d d448 99be c661 fc3d
00000320: c122 55bd 6077 f93b 1f10 06be fe51 a73d
00000330: fc70 04be c48e c5bd b179 95bd 4c7b 1a3e
00000340: 1228 c1bd 56d0 c93e e096 3d3d 70e5 c0bd
00000350: 1865 93bd fd8d 443d 2148 1c3e 1f47 5f3e
00000360: cf55 63bc 0151 793e 3db4 66bd 27f4 d2bd
00000370: 491f 023e e1c7 5c3e c6af 5abd fc32 8fbe
00000380: 65a2 a73d 3ee2 09be 87df 91bd 30e5 33be
00000390: 66c0 e5bc 4fd3 eabb 498e 3ebd ac15 933d
000003a0: bfbd 8abd a2d3 31bd 739f 343e dc05 eabd
000003b0: ee79 1bbe c825 6a3d f5e9 393d bd0f 083d
000003c0: 9db0 42bd e853 41be 0843 60bd b669 74bd
000003d0: c924 bb3d aa7b 83bb b4f6 5b3d 736c b2bd
000003e0: e811 89bd 5404 a03d a5f8 993d 4683 083e
000003f0: b006 983e 1a46 46be a141 81bd 168d bf3d
-0.020215342 0.078873865 -0.035975933 0.070256986 -0.06823012 0.09329463 0.1030042 -0.068262614
-0.11977114 0.3339991 0.0975094 0.0035810536 0.2445824 -0.06153077 -0.0071073184 0.10231842
-0.015086703 0.088458575 0.10999148 0.050272122 0.08210724 0.23602328 0.1408736 0.06952344
-0.089881286 0.11003551 -0.1858052 0.053819366 0.12748806 0.20661004 -0.182429 -0.03370134
0.12774396 -0.040762827 -0.24485785 -0.04588573 0.13573048 0.10783109 -0.10459101 0.17296003
0.01784038 -0.13691771 0.08198684 -0.3169878 -0.12041552 -0.08055446 -0.26984018 -0.02506381
-0.022538543 0.034249086 0.010961578 -0.014003108 0.21441633 -0.17066473 0.07035651 0.03580986
-0.3255521 0.19006905 -0.12812284 0.025508188 -0.059960235 0.029017234 0.15632959 -0.03534466
-0.19867218 0.07541635 0.04838539 0.017331416 0.020870887 0.21343876 0.018354649 -0.05292427
-0.12982933 -0.028729351 -0.11474506 -0.14594181 0.14460373 -0.1608519 -0.029477503 -0.04377727
0.1279214 0.1415568 0.056995712 -0.018195229 -0.021753274 -0.0028737828 0.008156212 0.08040293
0.21265961 0.06837694 0.092126496 0.0078627765 0.0029792655 0.1813906 -0.011302069 0.0924819
-0.0010439231 -0.05426162 0.2115204 0.16929266 0.11584392 -0.028504515 0.29835954 0.04085313
0.19877382 -0.18151684 -0.1311845 -0.04524082 -0.18280159 0.19201984 0.046396982 -0.13518208
0.14162292 0.006309692 0.018449742 -0.095074914 -0.0140422415 0.12865636 0.38305676 -0.14663948
-0.29790413 -0.085878454 -0.06409059 0.22708918 0.18828595 0.004784554 -0.020533146 0.34741646
-0.049716324 0.20591351 -0.066599146 -0.051597048 -0.0675392 -0.13397333 0.1399077 0.20258577
0.017393693 -0.039634705 0.07280055 0.16328448 -0.12305707 0.039966233 0.056739725 0.04170495
0.2618742 -0.14028898 0.11271499 -0.20757407 -0.01764283 -0.044313975 0.0409725 0.026718332
0.074984655 0.06411814 0.13619639 -0.024270207 -0.18375486 0.07447924 -0.0948614 0.21194151
-0.11052851 0.075413376 -0.0076953555 -0.02555441 0.06426355 -0.0057683433 -0.094645984 0.03970396
-0.059721865 0.17180847 0.15140438 0.04718646 0.155909 0.14862195 0.016815914 0.0809432
-0.17117618 -0.07274229 -0.24535897 0.22885934 0.22497405 0.11148042 0.26370218 0.08805525
0.041166205 0.0330428 -0.14712085 -0.0054696025 0.15234214 0.0014748496 0.13472949 -0.112395726
0.0806653 0.020973867 -0.1603192 0.26615316 -0.30512047 0.10198699 -0.29938376 0.12323336
-0.052035097 0.0076131076 -0.13092087 0.08169936 -0.12933725 -0.09646371 -0.072986014 0.15086097
-0.09431471 0.3941676 0.046286464 -0.09418762 -0.071970165 0.047986973 0.1526189 0.21804474
-0.013875439 0.24347307 -0.056324232 -0.103004746 0.12707247 0.21560623 -0.053390287 -0.27968585
0.08185271 -0.13465211 -0.071227126 -0.17567897 -0.028045844 -0.007166303 -0.046522412 0.07181868
-0.067744724 -0.04341472 0.1763895 -0.11426899 -0.15183231 0.057164937 0.045389134 0.033218134
-0.047531713 -0.18879664 -0.054751426 -0.059671126 0.091378756 -0.0040125446 0.05370207 -0.08712091
-0.066928685 0.078133255 0.07518128 0.13331327 0.29692602 -0.19362679 -0.06311346 0.09353082

l3.bias f4 [18]
00000000: 57ea 183e cda0 e1bd ed61 d8be a447 8fbd
00000010: 7d28 bdbe 166e 6abe b85b a83d f8e1 143d
00000020: 3d7b 023e 08ea 2a3e 5c87 923d 5618 7d3e
00000030: f2cb dfbe 1535 5dbd 4f46 9f3e 8646 c1be
00000040: 7c9e 49bd f361 5abe
0.14933144 -0.110169984 -0.4226221 -0.06996086 -0.36944953 -0.22893557 0.08220619 0.036348313
0.12742324 0.16690838 0.07154724 0.24716315 -0.43710285 -0.0540057 0.3110833 -0.37749118
-0.049223408 -0.21326427
